routes/model15.pkl (torch_old, 42095 bytes, 14 tensors)

conv1.0.weight f4 [4, 1, 5]
0	0xbe10ca32	-0.14139631
1	0xbe88aff9	-0.26696756
2	0xbe4501ee	-0.19239017
3	0xbe955dba	-0.2917307
4	0x3cb56547	0.02214302
5	0x3e97960e	0.2960667
6	0x3e169e92	0.14708927
7	0xbdb68a50	-0.089131
8	0x3e938e91	0.28819707
9	0x3d8eb139	0.06967396
10	0xbd32e374	-0.043673947
11	0x3e8fc8bb	0.28082833
12	0xbe32f42e	-0.1747596
13	0x3e8ac629	0.2710431
14	0x3d9c2f7a	0.07626243
15	0xbe3d7487	-0.18501483
16	0x3b09b9c4	0.0021015266
17	0xbe884e10	-0.26622057
18	0x3eae3ff5	0.3403317
19	0x3e81b059	0.25329855

conv1.0.bias f4 [4]
0	0x3dc01be0	0.09380317
1	0x3e4f5ebe	0.20250985
2	0x3db9e125	0.09076146
3	0x3ebd3ce8	0.3696053

conv2.0.weight f4 [8, 4, 5]
0	0xbdf4f136	-0.1196007
1	0x3c392fe6	0.011302924
2	0xbe3cdba3	-0.1844316
3	0xbbaab755	-0.005209843
4	0xbe194ae7	-0.14969979
5	0x3e3bae61	0.18328239
6	0xbe8e361b	-0.27775654
7	0x3e0526aa	0.1300303
8	0xbd165a63	-0.036707293
9	0x3c173717	0.009229443
10	0x3cb12c75	0.021627644
11	0xbe3060dc	-0.17224449
12	0x3e001ab1	0.12510182
13	0xbcebd8b1	-0.02878985
14	0xbe163907	-0.14670192
15	0xbce169c1	-0.027516248
16	0xbe565ae4	-0.2093311
17	0x3dc3081d	0.09523032
18	0xbe4cdf7a	-0.20007125
19	0x3e10bea0	0.14135218
20	0xbe44ee45	-0.19231518
21	0x3c814a5b	0.015782526
22	0xbd8f3976	-0.06993382
23	0xbe5fb863	-0.21847682
24	0x3cf133fc	0.029443733
25	0xbe7ff602	-0.24996188
26	0x3e4f0af8	0.20219028
27	0x3d7de177	0.0619826
28	0xbe10325c	-0.1408171
29	0x3d859778	0.06523031
30	0x3da2c0f8	0.07946962
31	0xbcdd25c6	-0.02699555
32	0x3ce20a9c	0.02759295
33	0x3e13af40	0.14422321
34	0x3ceaf009	0.02867891
35	0x3c40962b	0.011754553
36	0xbe2f9ba9	-0.17149223
37	0xbcb7c4e6	-0.022432756
38	0x3e140e20	0.14458513
39	0x3da17086	0.0788279
40	0xbda7f7d5	-0.08201567
41	0xbe1fd96a	-0.1561028
42	0xbdaedfb5	-0.085387625
43	0x3da948da	0.082658485
44	0x3c94d73a	0.018169034
45	0xbdb81e8d	-0.08990202
46	0xbe6f8007	-0.23388682
47	0xbd1e0bfa	-0.03858564
48	0x3e151b47	0.14561187
49	0xbe81b502	-0.2533341
50	0x3dfd5dec	0.1237143
51	0xbe6e10ae	-0.2324855
52	0xbdc30a3c	-0.095234364
53	0xbe827eb9	-0.25487307
54	0x3d6e76ec	0.05821888
55	0x3de4a43f	0.1116414
56	0xbe85cbe1	-0.2613211
57	0xbd87c4db	-0.06629344
58	0xbddba301	-0.1072445
59	0x3d8091ea	0.06277831
60	0x3e0fc092	0.14038303
61	0x3e14aea9	0.14519753
62	0xbe12b4d1	-0.14326788
63	0x3e2b5967	0.16733323
64	0xbde00b21	-0.10939623
65	0xbd99ae6e	-0.07503973
66	0xbe0422d6	-0.12903914
67	0xbdd3ecc8	-0.10347897
68	0xbc23af90	-0.009990588
69	0x3df0b2a0	0.1175282
70	0xbc18c96f	-0.009325369
71	0x3d7adc89	0.061245475
72	0xbd81d8f9	-0.063402124
73	0xbd10b587	-0.035329368
74	0xbd656470	-0.056003988
75	0x3df4c486	0.11951546
76	0xbde70c96	-0.112816975
77	0x3d996e30	0.0749172
78	0xbdd16b9f	-0.10225605
79	0x3e4cc9a4	0.19998795
80	0xbde625b8	-0.11237663
81	0xbdf8101c	-0.121124476
82	0xbe85f2f0	-0.2616191
83	0x3cbbbf8c	0.022918485
84	0xbe35e6c4	-0.17763811
85	0x3df77773	0.1208333
86	0x3d5a2f58	0.053267807
87	0xbe11d8a5	-0.142428
88	0xbe17d043	-0.1482554
89	0xbe1529ab	-0.14566676
90	0x3cc01ecf	0.02345219
91	0x3dcee36b	0.1010197
92	0x3d62e34c	0.05539255
93	0x3d1fe9b0	0.03904122
94	0x3cc03b40	0.023465753
95	0x3d5044ba	0.050846793
96	0xbda48b03	-0.08034327
97	0xbe206a58	-0.15665567
98	0x3dbcef33	0.09225311
99	0x3d9e212e	0.07721172
100	0xbd0e4d48	-0.03474167
101	0x3d4887dc	0.04895769
102	0x3cdb9921	0.026806416
103	0x3d598fbf	0.053115603
104	0x3e46753f	0.19380663
105	0xbe790ddc	-0.24321693
106	0x3e007556	0.1254476
107	0xbe4fed9d	-0.20305486
108	0xbd0b1ee7	-0.033965018
109	0xbde91a1a	-0.113819316
110	0x3c928fef	0.017890899
111	0x3c172a0b	0.009226332
112	0x3cfcd5e1	0.030863704
113	0x3dc17672	0.0944642
114	0x3cd9095a	0.026493717
115	0xbd9d87d3	-0.07691922
116	0xbe2955cd	-0.16536637
117	0x3dd82359	0.10553617
118	0xbdd95fff	-0.10614013
119	0x3e26af27	0.16277753
120	0x3c4d8eba	0.012546236
121	0xbda0bd9f	-0.07848667
122	0xbdad25c6	-0.0845447
123	0xbe8310ff	-0.25598904
124	0x3e017b97	0.12644802
125	0xbdd0c6ce	-0.10194169
126	0x3d255f3b	0.040374022
127	0x3e6a3a15	0.22873719
128	0xbc060a8d	-0.008181226
129	0xbe594762	-0.21218637
130	0xbe36f6dc	-0.17867607
131	0xbdf673d2	-0.1203381
132	0x3cc928f6	0.024555665
133	0xbdf438ab	-0.11924871
134	0xbdd3ca59	-0.10341329
135	0xbe1131f4	-0.14179212
136	0x3df158a5	0.11784486
137	0xbdbf59e0	-0.09343314
138	0xbe2de948	-0.16983521
139	0x3d8750a7	0.0660718
140	0x3b2e63fe	0.0026609893
141	0xbe5bf00d	-0.21478291
142	0xbdac664a	-0.084179476
143	0xbc8a5816	-0.016887706
144	0x3e0ca717	0.13735615
145	0x3cfc053e	0.030764218
146	0x3de38c46	0.111107394
147	0xbd250d7d	-0.040296067
148	0x3d938fe7	0.072051816
149	0xbe57f4e0	-0.21089506
150	0x3de11c6d	0.1099175
151	0xbc9084c5	-0.017641434
152	0xbe629071	-0.22125413
153	0xbe7cda5f	-0.24692677
154	0xbd8d4fed	-0.0690001
155	0x3ccc6d4e	0.024954464
156	0x3db301f6	0.087406084
157	0x3cad964f	0.021189837
158	0xbe7f6e31	-0.24944378
159	0xbe8139fc	-0.2523955

conv2.0.bias f4 [8]
0	0x3dcd84e7	0.10035115
1	0x3b9f9e69	0.004871179
2	0x3d7c2738	0.06156084
3	0xbe50d922	-0.2039533
4	0xbd43c4ec	-0.04779522
5	0xbe53601e	-0.20642135
6	0x3dc36d8c	0.09542379
7	0x3defc688	0.11707789

conv3.0.weight f4 [16, 8, 5]
0	0x3e0980ea	0.13428083
1	0x3dc1dede	0.09466337
2	0xbe196966	-0.14981613
3	0xbdda6c46	-0.10665183
4	0x3cc629d8	0.024189875
5	0xbdd0385a	-0.10166998
6	0xbe3c580c	-0.18392962
7	0xbc6bb5c8	-0.014386602
8	0x3c994d9e	0.018713769
9	0xbce095ea	-0.027415235
10	0xbe2dd70b	-0.16976564
11	0xbdc7d2e4	-0.09757021
12	0x3dde5250	0.108555436
13	0xbe0efe31	-0.13964154
14	0xbc5eef5a	-0.013606871
15	0xbd73b577	-0.05949923
16	0x3c59d600	0.0132956505
17	0xbd984373	-0.0743474
18	0xbde296aa	-0.11063893
19	0x3d4ce2ed	0.0500211
20	0xbde139a3	-0.109973215
21	0xbd385d2d	-0.045010734
22	0xbe1ea45f	-0.1549239
23	0x3c41bbad	0.011824531
24	0xbc8d0ceb	-0.017218074
25	0x3de3592e	0.11100994
26	0xbdb1d1ba	-0.0868258
27	0xbc14b9f9	-0.009077542
28	0x3d3e71a9	0.046495114
29	0xbded2f31	-0.11581267
30	0x3de5ede2	0.11227013
31	0xbe30f016	-0.17279086
32	0x3db22dd9	0.08700151
33	0xbe207604	-0.1567002
34	0xbd2617c4	-0.04055001
35	0xbdfbe3b8	-0.12299293
36	0xbd34a743	-0.044104826
37	0xbe01bf40	-0.12670612
38	0x3c29ed98	0.010371588
39	0xbd6c3db3	-0.05767603
40	0x3e24cfe4	0.16094929
41	0xbc7b6463	-0.015343758
42	0xbd21e62d	-0.039526153
43	0xbce5721f	-0.028008519
44	0xbdc866cc	-0.09785232
45	0x3d745ab9	0.059656832
46	0xbbde65dd	-0.0067870454
47	0xbc8bbead	-0.017058695
48	0x3ddf5cd4	0.109063774
49	0xbb4680c3	-0.003028915
50	0xbd51ebdc	-0.051250324
51	0x3c0f21ba	0.008736068
52	0x3e1566b5	0.14589961
53	0xbe4327d2	-0.19058159
54	0x3d1c050e	0.038090758
55	0xbc89bd90	-0.016814023
56	0xbd30968b	-0.04311232
57	0x3da69fec	0.081359714
58	0xbde1aa24	-0.1101878
59	0x3c842359	0.016130136
60	0x3a9fa60b	0.0012180222
61	0xbd5594ed	-0.05214398
62	0x3cf176fe	0.029475685
63	0xbe39e1a1	-0.18152477
64	0xbe304df3	-0.17217235
65	0xbc44da5f	-0.012014954
66	0xbd7e75a6	-0.062123917
67	0xbe2a9595	-0.16658624
68	0xbcffa1c4	-0.031205066
69	0xbc5479d7	-0.012968502
70	0xbe038231	-0.12842633
71	0xbdc3b1f4	-0.09555426
72	0xbdbed24c	-0.09317455
73	0x3d2d2de5	0.042280097
74	0x3d021c1d	0.031765092
75	0xbd05f5c6	-0.03270509
76	0xbdb05301	-0.08609582
77	0xbdf16648	-0.11787087
78	0x3e1d5801	0.15365602
79	0xbd13cea5	-0.036085743
80	0x3d94e68b	0.07270535
81	0x3dd4165c	0.10355827
82	0xbd87e67f	-0.066357605
83	0xbd43417e	-0.04766988
84	0x3d43488a	0.0476766
85	0x3d919e94	0.071103245
86	0xbde753d1	-0.112952836
87	0xbd76b480	-0.060230732
88	0x3db35181	0.0875578
89	0xbd388a8d	-0.045054007
90	0xbb223ab6	-0.0024754233
91	0x3c1d895b	0.009615268
92	0xbd83856a	-0.06421931
93	0x3d281041	0.041031126
94	0xbd1186ab	-0.03552882
95	0x3ded34ae	0.115823135
96	0xbd908d87	-0.07058244
97	0xbe1b4258	-0.15162027
98	0x3d278337	0.04089662
99	0x3e18fd5a	0.14940396
100	0xbda1e221	-0.07904459
101	0xbb23b168	-0.0024977569
102	0xbd39330d	-0.0452147
103	0x3cf115bd	0.029429311
104	0xbe0635c2	-0.13106444
105	0x3d94ebf2	0.072715655
106	0xbda3eee9	-0.08004553
107	0xbd8f024b	-0.06982859
108	0xbe0cb012	-0.1373904
109	0x3dfa0ef5	0.12209884
110	0x3e2a0cf2	0.166065
111	0x3e094ab7	0.13407408
112	0xbe0698eb	-0.13144271
113	0x3e3b9d77	0.18321787
114	0xbd05d79e	-0.03267633
115	0x3e5a3556	0.21309409
116	0xbd4c1f50	-0.04983455
117	0xbd4d5627	-0.05013099
118	0x3dc50fa5	0.096221246
119	0x3d02c296	0.031923853
120	0xbd8482eb	-0.06470283
121	0x3dcbe8ca	0.0995651
122	0x3dc0218a	0.09381397
123	0x3d07553e	0.033040278
124	0x3e09e7c1	0.13467313
125	0x3d775b0b	0.06038956
126	0xbcbec93f	-0.023289321
127	0x3d72f8ca	0.059319295
128	0x3d65f4d7	0.0561417
129	0xbdf81d89	-0.121150084
130	0xbd631da4	-0.05544819
131	0x3d49bf17	0.049254503
132	0x3c14ac97	0.009074352
133	0xbd82b95e	-0.06383012
134	0x3e0dea45	0.13858898
135	0xbdeed09b	-0.11660882
136	0xbcf085e9	-0.029360728
137	0xbda08def	-0.07839572
138	0x3d5cb4c2	0.05388332
139	0x3c027f49	0.007964917
140	0xbc0bbc2d	-0.008528751
141	0xbdfa8e3e	-0.12234162
142	0xbd978eff	-0.07400321
143	0x3db4b036	0.08822672
144	0xbd85c08b	-0.06530865
145	0x3d0d955c	0.03456627
146	0x3d50163f	0.050802466
147	0x3d0d3354	0.03447278
148	0x3e02b214	0.12763244
149	0x3db9be27	0.09069472
150	0xbd87ec85	-0.066369094
151	0xba97ec9d	-0.0011590902
152	0x3e0ee184	0.13953215
153	0x3d957e8d	0.07299528
154	0x3d6f98e9	0.058495436
155	0xbe3ce7bd	-0.18447776
156	0x3c6f3a32	0.014601277
157	0x3dce86d4	0.1008431
158	0xbd7bc7e5	-0.06146993
159	0xbd86243c	-0.0654988
160	0xbe0db122	-0.13837102
161	0xbd709fa8	-0.05874601
162	0xbdb6a689	-0.08918483
163	0x3c543f53	0.012954551
164	0x3d45cab5	0.04828902
165	0x3d8f2750	0.0698992
166	0xbe05417d	-0.13013263
167	0xbd1379e9	-0.036004934
168	0xbdaa787f	-0.08323764
169	0xbe14c260	-0.14527273
170	0xbcfedfad	-0.031112516
171	0x3df67ada	0.12035151
172	0xbd35b91e	-0.044365995
173	0xbd797e2c	-0.060911343
174	0xbdf87ee8	-0.121335804
175	0x3d6b8ca8	0.057507187
176	0xbb9636ca	-0.004584168
177	0xbd39bdb6	-0.045346938
178	0x3dbe3047	0.09286552
179	0xbd8e6b0d	-0.06954012
180	0xbdafc35d	-0.085821845
181	0x3d246b97	0.04014167
182	0xbdbb73c3	-0.09152939
183	0xbcc753e9	-0.024332004
184	0x3e19d4ab	0.15022533
185	0xbde0e13d	-0.10980461
186	0x3cf17bc7	0.029477967
187	0xbdd471df	-0.10373282
188	0x3a5f4e82	0.00085184735
189	0xbe0be598	-0.13661802
190	0xbe6b30db	-0.22967856
191	0x3d2eb081	0.042648796
192	0x3d2feaf7	0.04294869
193	0xbe05bc95	-0.1306022
194	0x3da196f3	0.078901194
195	0x3d7cda49	0.06173161
196	0xbdbae175	-0.09125034
197	0xbd2ac09c	-0.041687593
198	0xbb17ee23	-0.0023182712
199	0xbde23ed9	-0.110471435
200	0x3d7581bf	0.05993819
201	0xbd9ec02e	-0.07751499
202	0xbdfecc25	-0.12441281
203	0xbd7207b9	-0.059089396
204	0xbdb99c3f	-0.09063005
205	0x3ce962bf	0.028489469
206	0xbd969b6a	-0.07353862
207	0xbe1c9ce1	-0.1529422
208	0xbca5a9c0	-0.020222545
209	0x3d2e1698	0.042502016
210	0xbc3782a9	-0.011200585
211	0xbdc978eb	-0.098375164
212	0xbe3b7b3b	-0.18308727
213	0x3df99f23	0.12188556
214	0xbe21b61c	-0.15792125
215	0xbdfac3fb	-0.122444116
216	0x3d68f989	0.0568786
217	0xbe308a11	-0.17240168
218	0xbe2e5a0e	-0.1702654
219	0xbe332b19	-0.17496909
220	0xbe289e89	-0.16466726
221	0x3cf0f1f8	0.029412255
222	0xbd8901c8	-0.06689793
223	0xbc7d844e	-0.015473438
224	0x3dc0bdff	0.09411239
225	0xbd056ccf	-0.03257447
226	0xbdaffa2c	-0.085926384
227	0xbe5626ef	-0.2091329
228	0x3d6c20ea	0.057648577
229	0xbd5132d0	-0.05107385
230	0xbd813c0c	-0.06310281
231	0x3e0ba94f	0.13638805
232	0xbd28c7d6	-0.041206203
233	0xbdc9804d	-0.098389246
234	0x3bf7ca72	0.007561975
235	0xbd63bd1e	-0.055600278
236	0xbd87ed9c	-0.06637117
237	0x3d2ec620	0.042669415
238	0xbe1598f9	-0.14609136
239	0xbe3ccfa6	-0.18438587
240	0x3c9955a1	0.018717589
241	0x3cdfa919	0.027302312
242	0xbe011147	-0.12604247
243	0x3ded6aef	0.115926616
244	0xbdc12157	-0.09430187
245	0xbd82c2f0	-0.063848376
246	0xbc57d93f	-0.013174354
247	0x3d1a5ba9	0.03768507
248	0xbcd7223b	-0.02626144
249	0xbdca7d53	-0.09887185
250	0xbcb368cd	-0.021900559
251	0x3bf5b01e	0.0074978014
252	0xbd021c0a	-0.03176502
253	0x3e07b570	0.13252807
254	0xbcf25d6e	-0.029585566
255	0xbc67a812	-0.014139192

conv3.0.bias f4 [16]
0	0xbe8c3d3b	-0.27390465
1	0x3ba189da	0.0049297633
2	0x3d2c8b75	0.042125184
3	0x3dcd4bc6	0.10024218
4	0xbe415f51	-0.18884017
5	0xbe00c049	-0.12573351
6	0xbe399050	-0.18121457
7	0xbc2f0f48	-0.010684796
8	0xbe17c79d	-0.1482224
9	0xbc5466ee	-0.0129639935
10	0x3d077663	0.033071887
11	0x3c24a451	0.010048942
12	0x3d91ec51	0.07125152
13	0xbe0038e8	-0.12521708
14	0x3d2248ff	0.039620396
15	0x3ce8a2d8	0.028397962

conv4.0.weight f4 [16, 16, 5]
0	0xbacc62cb	-0.0015593407
1	0xbd89d675	-0.067303576
2	0xbcb2f657	-0.02184598
3	0x3c874214	0.016511
4	0xbc1ca7cc	-0.00956149
5	0xbd33b947	-0.043877866
6	0xbcd36e70	-0.025809497
7	0xbbd391b8	-0.00645658
8	0xbddc46a7	-0.10755663
9	0xbe13b61f	-0.14424942
10	0x3cce6eb2	0.025199268
11	0xbd6084e2	-0.054814227
12	0x3b47420e	0.0030404362
13	0x3c8eb5bb	0.01742064
14	0x3c1346a2	0.008989008
15	0x3d0343e4	0.032047167
16	0xbdca60bd	-0.098817326
17	0xbd3bc67c	-0.045843586
18	0xbd7dfa4b	-0.062006276
19	0xbc9d7f4f	-0.019225745
20	0xbce50682	-0.027957205
21	0xbc9935b2	-0.018702362
22	0xbd42d179	-0.04756305
23	0xbcd135df	-0.025538383
24	0x3a0847ac	0.0005198668
25	0xbdbe98d0	-0.093064904
26	0x3d64d2f5	0.055865247
27	0xbce07936	-0.027401548
28	0xbdcc6996	-0.099810764
29	0x3d492867	0.049110796
30	0x3b3ea25f	0.002908848
31	0x3cc853a0	0.024453938
32	0x3d32d869	0.043663416
33	0x3db0628e	0.08612548
34	0x3d425afd	0.047450054
35	0x3dd45dcd	0.103694536
36	0xbd710bac	-0.05884902
37	0xbcaead65	-0.021322915
38	0x3cf6f6ae	0.030146923
39	0xbd532224	-0.05154623
40	0xbd2dff87	-0.042480018
41	0xbe13e59b	-0.14443056
42	0x3cdfd0a8	0.027321175
43	0xbc9317ec	-0.017955743
44	0xbd4274d8	-0.047474712
45	0x3cb78d98	0.022406384
46	0xbd197fcd	-0.037475396
47	0x3d4cd066	0.05000343
48	0xbb9d3da0	-0.004798606
49	0xbdb235eb	-0.0870169
50	0x3da45c23	0.08025386
51	0xbddcfef5	-0.10790817
52	0x3d437bf0	0.047725618
53	0x3ce3c493	0.027803695
54	0x3ce9e093	0.028549468
55	0xbdabc317	-0.0838682
56	0x38f90f5c	0.00011876106
57	0xbe0d7c33	-0.1381691
58	0xbc220939	-0.009889894
59	0xbde8b811	-0.11363233
60	0xbce75923	-0.028240746
61	0xbd854ad8	-0.06508416
62	0xbd894d5a	-0.06704207
63	0x3b8e3676	0.0043399883
64	0xbdf2d7bd	-0.11857555
65	0xbe4218c7	-0.18954764
66	0xbbb66a76	-0.0055668904
67	0xba7322ac	-0.0009274881
68	0xbdb75a32	-0.0895275
69	0x3d352eb6	0.044234
70	0x3d4cbc2e	0.04998415
71	0x3c7b435b	0.015335883
72	0xbda70124	-0.081545144
73	0x3e07fb17	0.13279377
74	0xbd5700bb	-0.05249093
75	0x3cd3c70d	0.02585175
76	0xbd9be068	-0.076111615
77	0xbd92c54a	-0.07166536
78	0x3d1957ce	0.037437253
79	0x3d066589	0.032811675
80	0x3a3f9da4	0.0007309562
81	0x3cab22d6	0.020890635
82	0x3d09eccd	0.033673096
83	0x3bfa21b3	0.007633412
84	0xbca3b740	-0.019984841
85	0xbd6af21a	-0.057359792
86	0x3d76137b	0.06007717
87	0xbdf697e3	-0.12040689
88	0xbdd3f54d	-0.10349522
89	0xbcf2c131	-0.029633136
90	0x3c2ceece	0.010554982
91	0x3d84681a	0.06465168
92	0xbdaaa66d	-0.083325244
93	0xbd82c3ef	-0.063850276
94	0x3c77ae40	0.015117228
95	0x3cae8664	0.021304317
96	0xbd7f9c8d	-0.062405158
97	0xbcc002db	-0.023438862
98	0x3d25725d	0.04039227
99	0x3bbd7a74	0.00578242
100	0x3d78717c	0.060655102
101	0xbd92db98	-0.071707904
102	0xbe12f327	-0.14350568
103	0xbded3f38	-0.11584324
104	0x3d142ca6	0.036175393
105	0xbccd0bf7	-0.02503012
106	0xbb6ae122	-0.0035839756
107	0x3daa78ad	0.08323798
108	0xbd13141d	-0.035907853
109	0xbbd76d2d	-0.006574294
110	0xbc547499	-0.012967252
111	0x3ca21c1d	0.019788796
112	0xbd1e2566	-0.038609885
113	0xbdfd7002	-0.123748794
114	0x3d8c57d2	0.06852688
115	0x3ccd49da	0.02505963
116	0x3db47286	0.08810906
117	0x3dbada0a	0.09123619
118	0xbb98877e	-0.004654824
119	0xbd1ccfce	-0.038284115
120	0xbd9da483	-0.07697394
121	0xbd8d2dcb	-0.068935
122	0xbdfe285b	-0.12410041
123	0xbdb3aadf	-0.087728254
124	0xbd1590da	-0.036515094
125	0xbd0876ca	-0.03331641
126	0xbdab9638	-0.08378261
127	0x3d1eee6e	0.038801603
128	0x3c752ec8	0.014964767
129	0xbb162754	-0.0022911625
130	0xbd567a08	-0.05236247
131	0x3d5272b4	0.05137892
132	0xbc608f36	-0.013706019
133	0xbdf5e932	-0.12007369
134	0x3d8d059e	0.06885837
135	0x3d6a0492	0.057133265
136	0xbd6e8459	-0.058231685
137	0xbdbe9251	-0.093052514
138	0xbe059d20	-0.1304822
139	0x3d95aa43	0.073078655
140	0x3dbbb7e8	0.09165937
141	0x3b938419	0.0045018313
142	0xbd4abe68	-0.04949799
143	0xbced2f56	-0.028953236
144	0xbce2fc3e	-0.02770817
145	0x3c7f42fb	0.015579934
146	0xbcab12d2	-0.020882998
147	0xbd7cb40b	-0.06169514
148	0xbda49930	-0.08037031
149	0xba761d09	-0.0009388482
150	0x3d4bcdfb	0.049756985
151	0xbc958a19	-0.018254327
152	0x3d7262c4	0.05917622
153	0xbda12ccb	-0.07869872
154	0x3d64de34	0.055875972
155	0x3d0009b0	0.03125924
156	0xbd493307	-0.04912093
157	0xbdcc6c02	-0.09981538
158	0xbd3d57b4	-0.04622622
159	0xbb20ef1b	-0.002455658
160	0xbdcd0be6	-0.10012035
161	0xbdbef833	-0.09324684
162	0x3d0a6a3a	0.03379271
163	0x3dce0b4a	0.10060747
164	0x3cd8a845	0.026447425
165	0xbdca30ed	-0.09872613
166	0xbc4e474c	-0.012590241
167	0x3cf858bb	0.030315747
168	0xbc8dde3d	-0.017317886
169	0x3d3ddb12	0.0463515
170	0x3cfd311d	0.030907208
171	0xbe1a88da	-0.15091267
172	0xbe21017d	-0.15723224
173	0x3c3d1efe	0.011543034
174	0x3d2d5497	0.042317
175	0xbd40f539	-0.047108863
176	0xbd133fb5	-0.035949428
177	0x3d4226a7	0.047400143
178	0xbd6b40e6	-0.05743494
179	0x3c94c30c	0.018159412
180	0xbdc42be2	-0.095786825
181	0x3b9e4fb6	0.0048312796
182	0xbd6c9459	-0.057758663
183	0x3cbca0a2	0.023025814
184	0x3d2b998c	0.04189448
185	0xbcd02409	-0.025407808
186	0x3ce2d71a	0.027690459
187	0x3dba21c4	0.090884715
188	0x3d445398	0.047931284
189	0xbd090d3d	-0.03345989
190	0xbdb187ea	-0.08668502
191	0x3d32b2bc	0.043627486
192	0xbd69d4a0	-0.05708754
193	0x3bae5dae	0.005321226
194	0x3c6c97fd	0.014440534
195	0x3da8f435	0.08249704
196	0x3d5f90c0	0.054581404
197	0xbdcfaa3d	-0.10139892
198	0x3ce257f0	0.027629822
199	0x3cd6ec07	0.026235593
200	0xbded9539	-0.116007276
201	0xbd2967e0	-0.04135883
202	0xbd34e55d	-0.04416405
203	0xbdbe0f70	-0.09280288
204	0xbdb9e14f	-0.09076177
205	0x3d25bbac	0.04046218
206	0x3bb4e791	0.005520769
207	0xbd92c00b	-0.071655355
208	0xbd8c720d	-0.06857691
209	0xbd43c44f	-0.047794636
210	0x3bb7b29a	0.0056060078
211	0xbbe56cae	-0.007001481
212	0x3cdc0737	0.026858909
213	0xbc9a8d31	-0.018866153
214	0x3ccd03fc	0.025026314
215	0xbcdd1351	-0.02698675
216	0x3d03e2f2	0.032198854
217	0xbdebb96c	-0.11509976
218	0xbe1e04e3	-0.15431552
219	0xbdda125c	-0.10648033
220	0xbdfb0189	-0.12256152
221	0xbc59bd02	-0.013289692
222	0x3c1a2d1b	0.009410168
223	0xbdd3a6ca	-0.10334547
224	0xbcf5360b	-0.029932996
225	0xbda889ff	-0.08229446
226	0x3d141479	0.036152337
227	0xbd633c63	-0.05547751
228	0xbdb5189c	-0.088425845
229	0x3bcb8896	0.0062113507
230	0xbd616233	-0.05502529
231	0xbca10c92	-0.019659314
232	0xbdc97a3a	-0.09837766
233	0x3d14b7c7	0.036308076
234	0xbd07ea20	-0.033182263
235	0xba6ffb2f	-0.0009154556
236	0x3d43bf98	0.04779014
237	0x3d9a21a2	0.07525946
238	0x3b8aca84	0.0042355675
239	0x3c0777b4	0.008268286
240	0x3d312902	0.043252
241	0xbbac1412	-0.005251416
242	0x3c98ee8a	0.018668432
243	0x3c73feda	0.014892304
244	0x3c3815e7	0.011235691
245	0x3d785312	0.060626097
246	0xbb497c0a	-0.00307441
247	0xbdec4f8a	-0.11538608
248	0x3d68ad5f	0.056805965
249	0xbd7db58e	-0.061940722
250	0x3d682b87	0.056682136
251	0xbd8141e9	-0.063113995
252	0xbd892256	-0.06696002
253	0xbd92c4ee	-0.071664676
254	0xbad56b63	-0.0016282614
255	0x3b333f2f	0.0027350893

conv4.0.bias f4 [16]
0	0x3cedf634	0.029048063
1	0xbd53fd04	-0.051754966
2	0xbb57639b	-0.0032865766
3	0xbd527f59	-0.05139098
4	0xbd76671d	-0.06015693
5	0x3cdeefd7	0.027213974
6	0x3c8cfe6c	0.017211162
7	0x3be7910e	0.0070668524
8	0xbb1c225c	-0.002382419
9	0xbd48df76	-0.049041234
10	0xbb4d26b8	-0.0031303596
11	0x3bba470b	0.0056847385
12	0x3c987541	0.018610599
13	0x3d68b027	0.056808617
14	0xbcbdfdfc	-0.023192398
15	0x3c3947b7	0.011308602

conv5.0.weight f4 [16, 16, 5]
0	0x3db58a76	0.088643
1	0xbd0dfd5e	-0.034665458
2	0xbdb2ed02	-0.08736612
3	0x3d08b080	0.03337145
4	0xbdd6fe3c	-0.1049771
5	0xbce42e58	-0.02785413
6	0xbbb9fdb0	-0.005675994
7	0xbcad8b10	-0.021184474
8	0x3d21bb50	0.039485276
9	0xbdd09029	-0.10183746
10	0x3d8028ca	0.0625778
11	0xbc1c0648	-0.009522982
12	0xbdb43791	-0.08799661
13	0xbd79f2e0	-0.06102264
14	0x3cab0030	0.020874113
15	0xbd09b246	-0.03361728
16	0x3de253c8	0.11051136
17	0x3cbe8a90	0.023259431
18	0xbd659e9f	-0.056059476
19	0xbd2e1376	-0.04249903
20	0xbdc40281	-0.0957079
21	0x3dd146ea	0.10218604
22	0x3d3c5408	0.045978576
23	0xbcb89568	-0.02253218
24	0xbb05a520	-0.0020392612
25	0xbdc95ef4	-0.09832564
26	0xbddf4947	-0.109026484
27	0xbc9ad890	-0.018902093
28	0xbdb6d062	-0.089264646
29	0xbd7bda9a	-0.06148777
30	0x3d8f6370	0.07001388
31	0x3dc86f04	0.097867996
32	0xbcf56d90	-0.02995947
33	0x3ddc7ade	0.107656226
34	0xbba49a20	-0.005023256
35	0x3dd37f4c	0.10327014
36	0x3db84268	0.08997041
37	0xbd94b37c	-0.072607964
38	0xbda77915	-0.081773914
39	0x3d1300ec	0.03588955
40	0x3cc30ee0	0.023810804
41	0xbcc2d34c	-0.023782395
42	0xbd99e267	-0.07513886
43	0xbc8880fc	-0.016663067
44	0xbd1c3b0a	-0.03814224
45	0xbd5040d9	-0.050843094
46	0x3d504ebc	0.050856337
47	0x3d9d8cf0	0.07692897
48	0x3d1ec58c	0.038762614
49	0xbdc7e578	-0.097605646
50	0xbd38620a	-0.045015372
51	0x3dbffc3e	0.09374283
52	0x3d3e4fa0	0.046462655
53	0xbdc5c3b4	-0.09656468
54	0xbcc3fb5c	-0.023923568
55	0xbd9eb865	-0.07750014
56	0xbd3fd7cc	-0.04683666
57	0x3d4b7138	0.04966852
58	0x3d95ebf4	0.07320395
59	0x3ddb9c10	0.10723126
60	0xbdd2fdc8	-0.10302311
61	0xbac98440	-0.0015374497
62	0x3d5aa0d0	0.05337602
63	0xbcfa6ba0	-0.030568898
64	0xbdd880f8	-0.10571474
65	0x3d934fe6	0.07192974
66	0xbc9b903c	-0.018989675
67	0x3d2483f8	0.040164918
68	0xbda9c5af	-0.08289658
69	0x3d7dcfc0	0.061965704
70	0xbdaed95d	-0.085375525
71	0x3d324570	0.043523252
72	0x3d9e4020	0.077270746
73	0x3dc0c872	0.09413232
74	0xbdc65362	-0.09683873
75	0x3b6db5c0	0.0036271662
76	0xb9465600	-0.00018914789
77	0x3da314aa	0.07962926
78	0xbbf17180	-0.0073682666
79	0x3d517338	0.05113527
80	0x3d772fcc	0.060348317
81	0x3d3503bc	0.044193015
82	0x3ddc74ac	0.10764441
83	0xbd78ff5a	-0.060790397
84	0xbdba30e6	-0.09091358
85	0xbc8b50e4	-0.017006345
86	0xbd076f44	-0.033065096
87	0xbd8b276e	-0.0679463
88	0xbda261f0	-0.07928836
89	0xbcdf0fb8	-0.027229175
90	0x3d0a993c	0.033837542
91	0x3cf6e5d8	0.030138895
92	0x3d3d883c	0.0462725
93	0x3b6ffd80	0.0036619604
94	0x3aedb780	0.0018136352
95	0x3c2efe38	0.010680728
96	0xbc6a2b60	-0.014292568
97	0x3d93f5d8	0.07224625
98	0xbd759823	-0.059959542
99	0xbd50c89b	-0.050972562
100	0xbd644856	-0.055733047
101	0xbcd13098	-0.025535867
102	0xbc2d88b0	-0.010591671
103	0xbdb5c943	-0.08876278
104	0xbd5a66b3	-0.053320598
105	0x3d9ef1bc	0.07760951
106	0xbd9f3ef0	-0.07775676
107	0x3ce78f00	0.02826643
108	0x3cbe9c48	0.02326788
109	0xbd916336	-0.07099001
110	0x3db8d4c6	0.09024958
111	0xbceb6148	-0.02873291
112	0x3d1ef978	0.03881213
113	0xbd44a54c	-0.048009202
114	0xbdbe7648	-0.09299904
115	0xbd165b5e	-0.03670823
116	0x3db5d006	0.08877568
117	0xbd1e2996	-0.03861388
118	0x3d63b284	0.055590168
119	0xbdad50d2	-0.08462681
120	0x3d4cd04c	0.050003335
121	0xbdd89a6d	-0.105763294
122	0x3ca054d8	0.019571707
123	0x3bb5b510	0.005545266
124	0xbd938782	-0.072035804
125	0xbdb3683e	-0.08760117
126	0x3d6dd95c	0.05806862
127	0xbd92d3fe	-0.071693406
128	0xbda80315	-0.08203713
129	0x3cc46d60	0.023977935
130	0xbc6f22d8	-0.01459571
131	0x3dc1bcea	0.094598606
132	0xbdcfd62b	-0.10148271
133	0x3db6e97c	0.08931252
134	0x3dd58a30	0.10426748
135	0x3d73f9d0	0.05956441
136	0x3d9c6992	0.076373234
137	0xbdceb243	-0.100925945
138	0xbda43b21	-0.080190904
139	0xbbfc7cb0	-0.0077052936
140	0xbd8628ac	-0.06550726
141	0x3ddcb5c6	0.10776858
142	0xbd45fec2	-0.04833866
143	0x3da288dc	0.0793626
144	0xbd76a193	-0.060212683
145	0xbca9e1f4	-0.020737626
146	0xbdad38c7	-0.08458095
147	0xbdcd0e29	-0.100124665
148	0x3bb89660	0.0056331605
149	0x3d853496	0.065041706
150	0xbd404e0a	-0.046949424
151	0xbdb84598	-0.08997649
152	0x3ddc21b4	0.10748616
153	0xbdb8e42f	-0.090278976
154	0xbcd34848	-0.025791302
155	0xbdd60376	-0.10449879
156	0xbd4ef5c5	-0.050527353
157	0xbdc7b5f8	-0.09751505
158	0xbd00dd98	-0.03146133
159	0xbd817588	-0.063212454
160	0x3d5b6a8c	0.053568408
161	0x3d8288da	0.063737586
162	0xbdc051c6	-0.09390597
163	0xbd266804	-0.04062654
164	0xbd630694	-0.055426195
165	0xbc0f5df8	-0.008750431
166	0xbdde50cf	-0.10855257
167	0xbdd943c2	-0.10608627
168	0xbd458614	-0.04822357
169	0xbcd68b6c	-0.026189528
170	0xbd821226	-0.06351118
171	0xbd26bfe0	-0.04071033
172	0x3d40b418	0.04704675
173	0xbd913292	-0.07089724
174	0xbba91d30	-0.00516095
175	0xbd6e1bcd	-0.05813198
176	0x3c90c518	0.017672107
177	0xbdac0066	-0.083985135
178	0x3d9980f4	0.07495299
179	0x3ca460f8	0.02006577
180	0x3d8d2878	0.068924844
181	0xbd6f6b15	-0.05845173
182	0x3d8b6366	0.06806068
183	0x3d8f901e	0.0700991
184	0x3d56dc6c	0.052456304
185	0x3d404464	0.046940222
186	0x3de0bd82	0.10973646
187	0x3da48c72	0.080346
188	0xbcd7ac60	-0.026327312
189	0xb87bc800	-6.0029328e-05
190	0xbd8d59bc	-0.06901881
191	0x3c250898	0.01007285
192	0xbdb79106	-0.08963208
193	0x3dcc0f46	0.09963851
194	0xbdbcd839	-0.09220929
195	0xbd0efa5e	-0.034906738
196	0x3d5025c4	0.050817266
197	0x3bfff5f0	0.0078113005
198	0xbcdfb2f0	-0.027307004
199	0xbc1550a0	-0.009113461
200	0xbdb0fc7e	-0.08641909
201	0x3dcd0598	0.100108325
202	0x3dd4984e	0.10380612
203	0xbda38060	-0.0798347
204	0x3d66e04c	0.05636625
205	0x3d97fec8	0.074216425
206	0xbd8b2352	-0.06793846
207	0x3da1c45e	0.07898782
208	0xbd1297e6	-0.035789393
209	0x3d579820	0.052635312
210	0x3ca9dec0	0.020736098
211	0xbdc00a93	-0.09377017
212	0xbd5bdcfa	-0.053677537
213	0xbd4a9608	-0.049459487
214	0x3d315994	0.04329832
215	0x3de45c34	0.11150399
216	0xbcd2b000	-0.025718689
217	0xbd75ca8c	-0.060007617
218	0xbbc914e0	-0.0061365217
219	0xbdd1e429	-0.10248596
220	0xbde32cd1	-0.110925324
221	0xbdb8218e	-0.08990775
222	0xbbfc2860	-0.0076952428
223	0xbd525d27	-0.05135837
224	0x3d80c526	0.06287603
225	0x3d410e24	0.047132626
226	0x3dcb3e20	0.09923959
227	0x3d85b3ba	0.06528421
228	0x3d4f8ec8	0.050673276
229	0xbdab2d2c	-0.08358225
230	0xbddb6af8	-0.10713762
231	0xbd88c404	-0.06678012
232	0xbdc0fe37	-0.09423488
233	0x3c5f2fd0	0.013622239
234	0xbdc809d7	-0.09767502
235	0x3d5693f4	0.052387193
236	0xbd25a70e	-0.04044252
237	0xbd5a0ec0	-0.053236723
238	0x3d331fc0	0.04373145
239	0x3dd31272	0.103062525
240	0xbd87aa98	-0.06624335
241	0x3c434588	0.011918433
242	0x3cf70508	0.030153766
243	0xbdc07f6c	-0.09399304
244	0x3d0a9944	0.03383757
245	0x3d14bd8c	0.03631358
246	0xbce0839c	-0.027406506
247	0xbd12b34e	-0.03581553
248	0xbdc42816	-0.09577958
249	0x3c289d68	0.010291435
250	0xbdd1b4eb	-0.102395855
251	0xbcd8eab4	-0.026479103
252	0xbde22481	-0.11042119
253	0x3d820c98	0.06350058
254	0xbd0ae77a	-0.03391216
255	0x3d1742f4	0.036929086

conv5.0.bias f4 [16]
0	0x3d734884	0.05939533
1	0xbd679950	-0.056542695
2	0x3d66e8d0	0.05637437
3	0x3c6860f0	0.014183268
4	0xbda7dcaf	-0.08196389
5	0x3d9f3362	0.07773472
6	0x3d8af510	0.06785023
7	0x3dd20e38	0.10256618
8	0xbd362256	-0.04446634
9	0xbd369ce0	-0.0445832
10	0x3cf0a8b8	0.029377326
11	0xbceacf60	-0.028663337
12	0x3b926c70	0.004468493
13	0xbda44c08	-0.08022314
14	0xbc2eb7d8	-0.010663949
15	0xbdcb4b62	-0.099264875

conv6.0.weight f4 [8, 16, 5]
0	0xbdc98781	-0.098402984
1	0x3d189054	0.037247017
2	0xbd2b74c8	-0.04185942
3	0x3d5f3a4c	0.054498956
4	0xbc8aab90	-0.01692751
5	0xbd9b8bd8	-0.075950325
6	0x3d9af0ae	0.07565437
7	0xbdac7bb6	-0.084220335
8	0x3cbd7a58	0.023129627
9	0xbce4f460	-0.027948558
10	0x3dbe2edc	0.092862815
11	0x3d6cbc98	0.057797045
12	0xbdb59a6c	-0.08867344
13	0xbc8d15c8	-0.0172223
14	0xbd7fe529	-0.062474404
15	0x3dc7d084	0.09756568
16	0xbdd9c3ab	-0.10633024
17	0x3da58fc4	0.08084062
18	0x3d2d5698	0.04231891
19	0x3ddaabae	0.106772766
20	0xbc108080	-0.008819699
21	0x3d115940	0.035485506
22	0x3db7813e	0.08960198
23	0xbd750e94	-0.059828356
24	0x3d424840	0.047432184
25	0xbd2a3610	-0.041555464
26	0xbd8431e2	-0.06454827
27	0x3ddad31e	0.10684799
28	0x3d1bedb4	0.03806849
29	0x3d0d84e8	0.034550577
30	0x3cd01950	0.025402695
31	0xbd93cfc3	-0.07217362
32	0xbd3103d2	-0.043216534
33	0x3d9cf32c	0.07663569
34	0xbd943da8	-0.072383225
35	0x3daa3b30	0.0831207
36	0xbcd03f0c	-0.025420688
37	0x3dc95c80	0.09832096
38	0x3a0af000	0.0005300045
39	0xbb55c860	-0.0032620654
40	0x3d8496da	0.06474085
41	0x3da97e26	0.08276014
42	0x3d531690	0.05153519
43	0x3d8b6346	0.06806044
44	0xbd38c50e	-0.0451098
45	0xbdb6b1d8	-0.0892064
46	0xbd7a418e	-0.061097674
47	0x3d0c38e8	0.034233958
48	0x3b6bcbc0	0.0035979599
49	0x3d90deac	0.07073721
50	0xbd2c0500	-0.041996956
51	0x3dc24e8a	0.094876364
52	0x3d625f94	0.05526693
53	0xbd908e22	-0.0705836
54	0xbd88adf8	-0.06673807
55	0xbce84420	-0.028352797
56	0x3d8098f8	0.062791765
57	0xbd1e9dfa	-0.038724877
58	0xbdc9d84d	-0.09855709
59	0x3d49829c	0.049196824
60	0x3cbb0a30	0.022832006
61	0xbdb28008	-0.08715826
62	0xbda4700c	-0.08029184
63	0x3d8f8b3e	0.0700898
64	0x3d92f412	0.07175459
65	0xbcef8c94	-0.029241838
66	0x3d816bae	0.063193664
67	0x3d5e9df4	0.054349855
68	0x3d8255aa	0.063639954
69	0x3dce4f0e	0.10073672
70	0xbc9d805c	-0.019226246
71	0xbc13ae80	-0.009013772
72	0xbdd2d332	-0.102941886
73	0xbdbc695e	-0.09199785
74	0xbd2fb074	-0.04289289
75	0x3d8a15a6	0.0674241
76	0xbd94d80f	-0.072677724
77	0xbd9de7f5	-0.07710258
78	0x3d573f68	0.052550703
79	0xbda47c6c	-0.08031544
80	0xbd2eadc4	-0.042646185
81	0xbdbe62a6	-0.092961594
82	0xbd8a4dd4	-0.06753126
83	0xbdda6717	-0.10664194
84	0xbae325c0	-0.0017329976
85	0xbcfdd95c	-0.030987434
86	0xbd951193	-0.07278743
87	0xbd2428fc	-0.04007815
88	0x3d97972e	0.07401882
89	0xbc8b1430	-0.0169774
90	0xbdc66b1d	-0.09688399
91	0xbdc84a5a	-0.097798064
92	0x3b19f680	0.0023492873
93	0xbcb1ba88	-0.02169539
94	0xbc9c3e1c	-0.019072585
95	0x3d3abd14	0.045590475
96	0x3d859492	0.06522478
97	0x3d76e20c	0.06027417
98	0xbc8bf9b0	-0.017086834
99	0xbd14749a	-0.036244012
100	0x3d838e3a	0.06423612
101	0xbace1640	-0.0015723184
102	0xbd3b7f96	-0.045775972
103	0x3d746b94	0.059672907
104	0xbc2a9dd8	-0.010413609
105	0xbd85b78f	-0.06529152
106	0x3d055ca4	0.032559052
107	0xbddcd526	-0.10782842
108	0xbca52be8	-0.020162538
109	0x3d237a04	0.039911285
110	0x3cc593a8	0.02411826
111	0x3c67eaf0	0.014155135
112	0xbbedf610	-0.007261999
113	0x3da5b348	0.08090836
114	0xbd5a4056	-0.05328401
115	0xbd9eb62a	-0.07749589
116	0xbda0c29a	-0.07849617
117	0x3da4df2c	0.08050379
118	0x3d9d44f2	0.07679166
119	0xbcbe21dc	-0.023209505
120	0xbd8f2d4e	-0.06991063
121	0x3d214374	0.03937097
122	0xbc278068	-0.0102234855
123	0xbcbf70f8	-0.023369297
124	0x3daa8c22	0.083275095
125	0x3bf97010	0.007612236
126	0xbc7e26e0	-0.015512198
127	0xbd80467d	-0.062634446
128	0xbce8356c	-0.028345786
129	0x3dcae7bc	0.09907481
130	0xbd1b7e10	-0.03796202
131	0xbdd5fcd4	-0.10448614
132	0x3d1ac4c8	0.03778532
133	0x3b79d8c0	0.0038123578
134	0xbce4bf98	-0.02792339
135	0xbdc4506e	-0.09585653
136	0xbd49fe4a	-0.049314775
137	0x3d306110	0.043061316
138	0x3daaf214	0.08346954
139	0xbd6667de	-0.0562514
140	0xbc90dd8c	-0.017683767
141	0x3bf878a0	0.007582739
142	0x3c00ec98	0.007868908
143	0xbdb659d0	-0.08903849
144	0x3dc5b72a	0.096540764
145	0x3cf4b178	0.02986978
146	0x3dc4ed2e	0.09615551
147	0x3b89c430	0.0042042956
148	0xbd28395e	-0.041070335
149	0xbd36f8ce	-0.044670872
150	0x3c325d78	0.0108865425
151	0x3d527af0	0.051386774
152	0x3d701644	0.058614984
153	0xbcc2b9d0	-0.023770243
154	0xbd6dd5b3	-0.058065128
155	0xbbb27670	-0.0054462478
156	0xbd27d42c	-0.040973827
157	0xbd9a10dd	-0.07522748
158	0x3cacf9e0	0.021115243
159	0x3d0aea68	0.033914953
160	0xbcf4f648	-0.029902592
161	0xbd8662da	-0.06561823
162	0xbdc6be9a	-0.09704323
163	0x3d888ff8	0.06668085
164	0xbd25c86e	-0.040474348
165	0xbd58a17d	-0.052888382
166	0xbd767a29	-0.060175095
167	0x3cf67c90	0.030088693
168	0x3d94da68	0.0726822
169	0xbdbf604e	-0.093445405
170	0x3de03326	0.10947256
171	0x3d8570f0	0.06515682
172	0xbd95161a	-0.07279606
173	0x3ddef100	0.10885811
174	0x3ba29a10	0.0049622133
175	0xbc138a60	-0.009005159
176	0x3da81b80	0.0820837
177	0xbda43380	-0.08017635
178	0xbd14c788	-0.0363231
179	0x3d2540d0	0.040345013
180	0x3cb24f08	0.0217662
181	0xbdc3098f	-0.095233075
182	0x3d97e8b8	0.074174345
183	0xbd780b49	-0.060557637
184	0x3b344cc0	0.0027511567
185	0x3da0cd58	0.07851666
186	0x3dc6aff2	0.09701528
187	0xbd9a355e	-0.0752971
188	0xbda52506	-0.08063702
189	0x3d35ff58	0.044432968
190	0xbd85ed91	-0.06539453
191	0x3d1f4a88	0.038889438
192	0xbc678560	-0.01413092
193	0x3daef866	0.08543472
194	0xbc9e0c14	-0.019292869
195	0x3da1b63e	0.07896088
196	0x3d9a3514	0.07529655
197	0x3d032120	0.032014012
198	0xbc825b9c	-0.015912823
199	0xbd55e00a	-0.052215613
200	0x3cbba8d8	0.02290766
201	0x3c067170	0.008205757
202	0x3d2c564c	0.042074487
203	0xbd837d6b	-0.06420406
204	0xbd884bf4	-0.06655112
205	0xbd11e68e	-0.035620265
206	0xbd0dce0c	-0.03462033
207	0xbd08d520	-0.033406377
208	0xbde26832	-0.1105503
209	0x3d9f95bc	0.077922314
210	0x3dc86ada	0.09786005
211	0x3cffb788	0.031215444
212	0xbde3c760	-0.11122012
213	0x3c29b198	0.010357283
214	0x3c21d3d8	0.009877168
215	0x3da5bb46	0.0809236
216	0xbd7d5642	-0.06184984
217	0x3cab38b8	0.020901069
218	0x3d4ec664	0.05048217
219	0xbd119f68	-0.035552412
220	0xbd0bcc70	-0.034130514
221	0xbd8dbab2	-0.06920375
222	0x3dcb586e	0.09928976
223	0x3da89e0c	0.0823327
224	0x3da55bc2	0.08074142
225	0x3c958d18	0.018255755
226	0x3c911340	0.017709374
227	0xbc5a9ce0	-0.013343066
228	0xbdc1d386	-0.09464173
229	0xbd7ef0e2	-0.062241443
230	0xbdcfb0e9	-0.10141165
231	0xbdb418ef	-0.08793818
232	0xbce39a18	-0.027783439
233	0x3c0e9148	0.00870163
234	0xbd538aed	-0.05164616
235	0xbbdcc6a0	-0.006737545
236	0xbddcb78d	-0.10777197
237	0xbd6d3cd6	-0.057919346
238	0xbd33daa4	-0.043909684
239	0xbc82849c	-0.015932374
240	0x3b4dcd80	0.0031403005
241	0x3cf28550	0.029604584
242	0xbd5d2d36	-0.053998195
243	0x3c8a4c58	0.016882107
244	0xbcd1d508	-0.025614277
245	0x3db56ab4	0.08858243
246	0xbdd676ba	-0.10471864
247	0xbd12d2fa	-0.035845734
248	0xbc267850	-0.010160521
249	0x3da00986	0.078143165
250	0x3db666be	0.08906315
251	0xbd0773b2	-0.03306932
252	0xbd9b15b5	-0.075725
253	0x3cb44840	0.022007108
254	0x3cf680b8	0.030090675
255	0x3dab0022	0.08349635

conv6.0.bias f4 [8]
0	0x3d22eb20	0.039775014
1	0x3c85cd38	0.016333207
2	0x3d894f40	0.06704569
3	0x3d6d86d0	0.057989895
4	0x3dcb8a12	0.09938444
5	0xbd9f4e52	-0.0777861
6	0xbda85d6a	-0.08220942
7	0x3d14d5c4	0.036336675

fc.weight f4 [3, 1968]
0	0x3cdead22	0.027182166
1	0xbc9cc03d	-0.019134635
2	0x3cffb18b	0.031212589
3	0x39d1ff8c	0.00040053984
4	0xbcbb5904	-0.022869594
5	0x3d71fdf8	0.059080094
6	0xbcf951e9	-0.030434566
7	0xbc7dd20a	-0.015491972
8	0x3cf397ac	0.029735409
9	0x3ca032f4	0.019555546
10	0x3c177661	0.009244532
11	0x3c656f4a	0.014003584
12	0x3d5306b5	0.05152007
13	0xbc606866	-0.0136967655
14	0xbc29e1f9	-0.0103688175
15	0x3cb03d98	0.021513745
16	0xbaf6374c	-0.001878479
17	0xbc298882	-0.010347487
18	0xb89646ea	-7.165766e-05
19	0x3cc43be8	0.023954347
20	0x3bd71a5f	0.006564423
21	0x3bdc823c	0.0067293923
22	0x3cfc5e35	0.03080664
23	0x3ce25887	0.027630104
24	0x3aaca2c5	0.0013171068
25	0x3c886ba7	0.016652895
26	0xbbca86b5	-0.006180609
27	0x3abe232f	0.0014506335
28	0x3ca6d00f	0.020362882
29	0xbc98d08b	-0.018654129
30	0xbb01bb89	-0.0019795618
31	0xbc17ec6a	-0.009272674
32	0x3c42ee8a	0.011897692
33	0x3b9801a6	0.0046388684
34	0x3c957930	0.018246263
35	0x3c8b702a	0.017021257
36	0x3c605339	0.013691717
37	0x3b7aa853	0.0038247302
38	0x3cc07f92	0.02349833
39	0x3d0639e6	0.03277006
40	0x3cec7dbb	0.028868547
41	0x3d0b842b	0.034061592
42	0x3c894ea2	0.016761128
43	0x3ced0b98	0.028936192
44	0xbbd4a5d5	-0.0064894953
45	0xbbd9d732	-0.0066479677
46	0x3d25d374	0.04048486
47	0x3d12dee0	0.03585708
48	0xb9a645e1	-0.0003171405
49	0xbb057824	-0.00203658
50	0x3c89ff21	0.016845288
51	0xbc566d1a	-0.013087535
52	0x3cdbae37	0.02681647
53	0xbbf91c17	-0.0076022255
54	0x3d1afc1c	0.037838086
55	0x3ce1c5d9	0.027560161
56	0x3c3a8d4c	0.011386227
57	0xbb5ee448	-0.0034010578
58	0x3d759d5a	0.059964515
59	0x3cbcd75d	0.023051912
60	0x3b668173	0.0035172373
61	0x3d0ca197	0.03433379
62	0xbce3eb77	-0.02782224
63	0x3bd257b5	0.006419147
64	0x3c508fe2	0.012729617
65	0x3c769734	0.015050698
66	0x3c93f6bb	0.018061986
67	0x3b4cc9f2	0.0031248298
68	0xbc154003	-0.0091095
69	0xbc3ef19b	-0.011654283
70	0x3d398294	0.045290545
71	0x3bfa2799	0.007634115
72	0x3cd6c116	0.026215117
73	0x3c81e905	0.015858183
74	0x3a4c7460	0.00077993236
75	0x3c4b5260	0.012409776
76	0x3d14cc25	0.0363275
77	0x3d1386d8	0.03601727
78	0xbb627eac	-0.0034560366
79	0x3c8b4d22	0.017004553
80	0x3be44c6b	0.0069671175
81	0x3d02c75a	0.031928398
82	0xbbc6b425	-0.0060639554
83	0x3d51ad30	0.051190555
84	0x398fc579	0.00027422214
85	0x3ca5dcca	0.020246882
86	0x3ca920cc	0.020645522
87	0xbc8bd2c7	-0.01706828
88	0x3d00dd60	0.03146112
89	0x3c80b6d1	0.015712174
90	0xbca9f9eb	-0.020749053
91	0x3c995a9f	0.01871997
92	0x3bc51fa9	0.006015737
93	0x3c048129	0.008087435
94	0x3b5c95c5	0.0033658606
95	0x3b050623	0.0020297847
96	0x3b64fdcd	0.0034941316
97	0xbcb082a0	-0.021546662
98	0x3bb3be18	0.0054853074
99	0x3c621ec6	0.013801282
100	0x3bec1713	0.007204899
101	0x3ae563e1	0.001750108
102	0x3ba8f261	0.005155847
103	0x3c98cf7e	0.018653627
104	0x3cf5caed	0.03000399
105	0x3c1dd9b6	0.009634426
106	0xbc80467b	-0.015658608
107	0x3cc5242c	0.0240651
108	0x3c383c60	0.011244863
109	0xba1de1ad	-0.0006022703
110	0x3cb6e3ed	0.02232548
111	0x3c0bb4c2	0.008526983
112	0xbb7d1368	-0.0038616303
113	0xbd16ead9	-0.036845062
114	0x3b048f50	0.0020227022
115	0x3b9be9d7	0.0047581005
116	0x3cf344a7	0.029695822
117	0x3d30121b	0.042986017
118	0x3cb1f34c	0.021722458
119	0x3c4edc14	0.012625713
120	0x3d058bf9	0.03260419
121	0x3be5d8f3	0.0070143878
122	0x3cb18358	0.021669075
123	0xbc136d4e	-0.008998228
124	0x3cb83bf3	0.022489524
125	0xbcdaa35b	-0.026689222
126	0x3c9d305d	0.0191881
127	0x3cd96a20	0.026539862
128	0xbb03a6b9	-0.0020088388
129	0xb981c76b	-0.00024753375
130	0xbcaf69bd	-0.021412725
131	0x3cd46539	0.025927173
132	0xbcf3d808	-0.029766098
133	0xbc0f6c74	-0.008753885
134	0xbd197af5	-0.037470777
135	0xbcbb4e70	-0.02286455
136	0xbcb04c19	-0.021520661
137	0xbca07d1c	-0.019590907
138	0xbc8a3e1b	-0.016875317
139	0xbb431b27	-0.0029770823
140	0xbce8068b	-0.028323432
141	0xbc53efa3	-0.012935552
142	0x3cdb4e0f	0.02677062
143	0xbb834d2a	-0.0040070014
144	0xbc76d8d0	-0.015066341
145	0x3b7d4528	0.0038645957
146	0x3ba780eb	0.0051118038
147	0x3b51e08d	0.0032024712
148	0xbc55bba3	-0.013045224
149	0x3bfd020a	0.0077211903
150	0xbcbb36db	-0.022853306
151	0xbc815e0f	-0.015791921
152	0xbb295069	-0.0025835282
153	0xbcb365a8	-0.02189906
154	0xbc993bc0	-0.018705249
155	0xbb8efc65	-0.004363584
156	0xbd29542c	-0.04134004
157	0xbcf6547a	-0.030069578
158	0x3bac07c3	0.0052499487
159	0x3c65c772	0.014024602
160	0xbacbec2b	-0.0015558054
161	0xbd198c60	-0.037487388
162	0xbb42f3d4	-0.0029747384
163	0x3b7d455f	0.0038646085
164	0xbb699157	-0.0035639608
165	0xbc813d66	-0.015776347
166	0xbd02e54a	-0.03195695
167	0xbceca00b	-0.028884908
168	0x3b21a973	0.002466765
169	0xbb0d964c	-0.0021604476
170	0xbba64b82	-0.005074919
171	0x3b7199c1	0.0036865326
172	0xbbcd4127	-0.0062638703
173	0xbc793006	-0.015209204
174	0x3c4bc090	0.012436047
175	0x3c04df06	0.008109814
176	0x3b836e08	0.0040109195
177	0x38356ebe	4.32569e-05
178	0x3d10d39f	0.035358068
179	0xbb5dbdfd	-0.0033835166
180	0x3c4e47f6	0.012590399
181	0x3a98f2d4	0.0011669048
182	0xba457abe	-0.00075332436
183	0x3c380c5a	0.011233414
184	0xbbd79268	-0.0065787323
185	0xbd12e654	-0.03586419
186	0x3b67afcd	0.0035352588
187	0xbcb81b31	-0.022473903
188	0xbcb23716	-0.021754783
189	0x3c9b3b5c	0.018949203
190	0xbba8b077	-0.0051479894
191	0x3c2a1919	0.01038196
192	0xbc8b307e	-0.016990896
193	0x3b47701e	0.0030431817
194	0xbaf0ddf7	-0.0018376698
195	0x3c3e4ab2	0.011614488
196	0xbbeebd44	-0.007285746
197	0xbcbf1b00	-0.023328304
198	0x3c508657	0.012727342
199	0x3c0c2858	0.008554541
200	0xbca51d31	-0.020155521
201	0xbcc9a669	-0.024615483
202	0xbcc64b08	-0.0242057
203	0x37f3a5a1	2.9044984e-05
204	0xbca81d1d	-0.020521695
205	0xbc386ec7	-0.01125688
206	0xbbaa05e5	-0.005188691
207	0x3c90fd52	0.017698918
208	0x3bb1aba8	0.0054220743
209	0xbc50dbb2	-0.012747692
210	0x3ba3d105	0.0049992823
211	0xbc4e1d59	-0.012580239
212	0xbbefe5eb	-0.0073211095
213	0x3b96dd04	0.004603984
214	0xbc9701ce	-0.018433478
215	0x3c01fd31	0.007933901
216	0xbc241147	-0.010013885
217	0x3bcf62cc	0.006328916
218	0xbc8ef93e	-0.017452832
219	0xbbd0ba4f	-0.006369866
220	0xbca1f05d	-0.019767934
221	0xbc860994	-0.01636199
222	0xbd21b3e6	-0.039478205
223	0x3d394777	0.04523417
224	0xbcbe9761	-0.023265542
225	0xbc1ab7a7	-0.0094432
226	0xbcab0433	-0.020876026
227	0xbc12003a	-0.008911187
228	0x3d05731b	0.032580476
229	0x3d08c4d5	0.03339084
230	0xbbdfceb5	-0.0068300613
231	0x3c8bce32	0.017066095
232	0xbcf6a158	-0.030106232
233	0xbcc1d8b6	-0.023662906
234	0xbb85188a	-0.004061763
235	0xba4e9620	-0.0007880647
236	0xbce4c9a4	-0.027928181
237	0xbc275260	-0.010212511
238	0xbb32b89d	-0.0027270683
239	0xbcf2169d	-0.029551798
240	0xbc406f97	-0.011745355
241	0xbb9eb0b9	-0.0048428443
242	0x3b87d242	0.0041449377
243	0xbcee9d5f	-0.029127775
244	0xbbbe9499	-0.005816054
245	0xbd2149ff	-0.03937721
246	0x3d00f068	0.03147927
247	0x3c1dd864	0.009634111
248	0xbcb4e8d2	-0.022083674
249	0xbd145065	-0.036209483
250	0x3cbef238	0.023308858
251	0x3bdcd70f	0.006739504
252	0xbd182cc0	-0.037152052
253	0x3d30ab69	0.04313222
254	0x3df8d753	0.12150445
255	0x3ca2aa05	0.019856462

fc.bias f4 [3]
0	0x3d1f3981	0.0388732
1	0x3bd2d4b3	0.006434047
2	0xbd58278c	-0.05277209
