routes/model5.pkl (torch_old, 24815 bytes, 14 tensors)

conv1.0.weight f4 [4, 1, 5]
0	0x3d8d7941	0.06907893
1	0x3b44f4a6	0.0030053048
2	0x3e082008	0.13293469
3	0xbe3b9b38	-0.1832093
4	0xbe211425	-0.15730341
5	0x3e63af72	0.22234896
6	0xbda10c79	-0.07863707
7	0x3e5db19e	0.21649787
8	0x3e84c6f6	0.25933045
9	0x3ecea2fe	0.40358728
10	0x3edd2743	0.43194017
11	0x3e85ade5	0.26109233
12	0xbd24c6af	-0.040228542
13	0x3e470a81	0.194376
14	0x3e870320	0.26369572
15	0x3e5546af	0.20827745
16	0x3e2afc98	0.1669792
17	0x3e9e9281	0.3097115
18	0xbe515134	-0.20441133
19	0xbe4018ff	-0.18759535

conv1.0.bias f4 [4]
0	0xbeaec4d2	-0.34134537
1	0xbe0bb2a6	-0.13642368
2	0x3d57e01c	0.05270396
3	0x3e26ccf5	0.16289122

conv2.0.weight f4 [8, 4, 5]
0	0x3b1cbcc7	0.002391623
1	0xbe08d863	-0.13363795
2	0xbd19640f	-0.03744894
3	0xbe1741cf	-0.14771198
4	0xbe188baf	-0.14897035
5	0xbd243d0d	-0.040097285
6	0x3dd63646	0.104595706
7	0xbe4f52bc	-0.20246404
8	0xbe69cff0	-0.22833228
9	0xbe429673	-0.19002704
10	0x3e0a1e21	0.13488056
11	0xbe15b403	-0.1461945
12	0xbd8faaf0	-0.070150256
13	0xbe478a50	-0.19486356
14	0xbda46527	-0.08027106
15	0xbe03d606	-0.12874612
16	0xbe929f0b	-0.28636965
17	0x3e185c71	0.14879014
18	0x3e1ff278	0.15619838
19	0xbe1eb5aa	-0.15498987
20	0xbd685b6c	-0.05672781
21	0xba1f2c85	-0.00060720026
22	0xbe0119f2	-0.12607554
23	0x3d2290d9	0.03968892
24	0xbd718d5a	-0.058972694
25	0x3e356786	0.17715272
26	0xbd656c65	-0.056011576
27	0xbe5600f2	-0.20898798
28	0xbe328da6	-0.17436847
29	0x3e03db9c	0.12876743
30	0xbdde8ccd	-0.10866699
31	0xbe48a077	-0.19592462
32	0x3d1e6bc2	0.038676985
33	0x3da5d60a	0.08097465
34	0x3c99b454	0.018762745
35	0x3db4875f	0.088148825
36	0x3da1e112	0.07904257
37	0xbe44d35b	-0.1922125
38	0xbe52a95f	-0.20572422
39	0xbd519e1b	-0.05117617
40	0x3c610752	0.013734655
41	0x3e223608	0.15840924
42	0x3d8e5476	0.069497034
43	0x3d8c55a1	0.0685227
44	0x3daa9afe	0.08330344
45	0xbde61ad4	-0.11235586
46	0xbe1c268d	-0.15249081
47	0xbe36d9b9	-0.17856492
48	0xbe16dd4e	-0.14732859
49	0x3e04a20b	0.1295244
50	0xbdfb0746	-0.12257247
51	0x3c8dff8f	0.017333774
52	0xbe6f78f2	-0.2338598
53	0xbe107e25	-0.1411062
54	0x3ccdb7cd	0.025112057
55	0x3da0b2e2	0.07846619
56	0x3cee97d8	0.02912514
57	0xbd560766	-0.05225315
58	0xbe86154b	-0.2618812
59	0x3dd1d13b	0.10244986
60	0xbe17948b	-0.14802758
61	0xbd954a6a	-0.07289584
62	0xbb1f0106	-0.0024262085
63	0xbc42624f	-0.011864259
64	0x39a2cde7	0.00031052457
65	0xbe77f1d3	-0.24213342
66	0xbce31cdb	-0.02772372
67	0xbe62c254	-0.22144443
68	0xbdf26f6c	-0.11837658
69	0xbda53e0c	-0.08068475
70	0x3bc0f5e1	0.005888686
71	0xbdf2ac29	-0.11849243
72	0xbd84ae2e	-0.06478535
73	0x3d218e4e	0.039442353
74	0xbdbaf878	-0.09129423
75	0xbd78bf9a	-0.0607296
76	0xbe01df9f	-0.12682961
77	0xbe6c5c17	-0.23082004
78	0xbd626489	-0.05527166
79	0x3d7c530b	0.061602633
80	0xbe248023	-0.16064505
81	0x3d24af7f	0.04020643
82	0xbd447acf	-0.047968682
83	0xbde7bf49	-0.113157816
84	0xbd6af41a	-0.0573617
85	0x3deabe09	0.114620276
86	0x3e22bdba	0.15892687
87	0xbd7d8f8c	-0.061904475
88	0xbde4823c	-0.11157653
89	0x3dff36de	0.12461637
90	0x3e0097c1	0.1255789
91	0xbd29e547	-0.04147842
92	0xbe2d0f4c	-0.16900367
93	0xbe8b6547	-0.27225706
94	0xbb97e144	-0.004635008
95	0xbd1ea8ca	-0.03873519
96	0xbcb16c7b	-0.021658173
97	0xbe86e4ca	-0.26346427
98	0xbe1bec7f	-0.15226935
99	0x3e1f677b	0.15566818
100	0x3d1078b4	0.03527136
101	0xbd8c2ae9	-0.06844122
102	0xbe8955aa	-0.2682317
103	0x3e4d7d99	0.20067443
104	0xbd57ded0	-0.052702725
105	0x3c9c255e	0.019060787
106	0x3c33cc8a	0.010974059
107	0xbdf9dae3	-0.121999525
108	0xbdb2f6a6	-0.08738451
109	0xbd9b1196	-0.075717136
110	0x3e15593f	0.14584826
111	0x3ddfd439	0.1092915
112	0xbc20c744	-0.009813134
113	0x3d1b118d	0.037858535
114	0xbcf89a67	-0.030347062
115	0xbddeca29	-0.10878403
116	0x3dd30d5b	0.10305282
117	0xbbcd5dcb	-0.0062672845
118	0xbe11574e	-0.1419346
119	0xbddffd0f	-0.10936939
120	0x3e18b65f	0.14913319
121	0x3dd0e646	0.10200171
122	0x3db7c221	0.08972574
123	0xbe9c345e	-0.30508703
124	0xbe39ea85	-0.18155868
125	0xbea41a52	-0.3205133
126	0xbe383f00	-0.17992783
127	0xbd858c91	-0.065209515
128	0xbcac1ce7	-0.021009875
129	0xbdbca8bf	-0.09211873
130	0xbe3f88c8	-0.18704522
131	0xbb92f6df	-0.0044849957
132	0xbc8aa112	-0.016922507
133	0x3e0aff6f	0.13574003
134	0xbe2553d4	-0.16145259
135	0xbd8254ca	-0.063638285
136	0x3d3d81f2	0.046266504
137	0x3db343e1	0.08753181
138	0xbdfa6d2d	-0.12227855
139	0x3e28ffe0	0.16503859
140	0xbb9833e8	-0.0046448596
141	0x3dfca594	0.12336269
142	0xbdd5d6ea	-0.10441382
143	0x3dc7b689	0.09751613
144	0xbde635c6	-0.11240725
145	0xbe234324	-0.15943581
146	0x3dfacb44	0.12245801
147	0x3e0724ff	0.13197707
148	0xbdbbdfc5	-0.0917354
149	0xbe1aaebc	-0.15105718
150	0xbddd90cd	-0.10818634
151	0xbd3c3343	-0.045947324
152	0xbdb0a3de	-0.08625005
153	0x3d895001	0.06704713
154	0x3cfd8de1	0.030951442
155	0xbe051014	-0.12994415
156	0xbd733d1d	-0.059384454
157	0x3dec6585	0.11542801
158	0x3cc9408c	0.024566911
159	0xbe026f73	-0.12737827

conv2.0.bias f4 [8]
0	0xbdac2c24	-0.08406857
1	0x3e2e03b7	0.16993605
2	0x3ce4c1e3	0.027924484
3	0xbe561a59	-0.20908488
4	0xbecd97f7	-0.40155002
5	0x3de4491e	0.111467585
6	0x3e465200	0.19367218
7	0x3e09e279	0.13465299

conv3.0.weight f4 [16, 8, 5]
0	0xbe2d850b	-0.16945283
1	0xbd9eb4aa	-0.07749303
2	0x3d24d04f	0.04023772
3	0x3d31286d	0.043251444
4	0x3d8d80f9	0.06909365
5	0x3e18dcae	0.14927933
6	0x3d29529d	0.04133855
7	0x3d82e22a	0.063907936
8	0x3d0e3fe2	0.034728892
9	0xbcaee09f	-0.021347342
10	0xbdecb301	-0.1155758
11	0xbe212cd0	-0.15739751
12	0x3d779327	0.06044307
13	0xbe19262c	-0.14955968
14	0xbe1cb3fc	-0.15303034
15	0x3dbaf243	0.09128239
16	0x3d99b873	0.07505884
17	0x3a66e3d9	0.00088077557
18	0x3ccbe98f	0.024891643
19	0xbe4680c1	-0.19385053
20	0xbd442f9c	-0.047896966
21	0x3d997746	0.07493453
22	0x3d04c3da	0.03241334
23	0x3ce7ba6d	0.028287137
24	0x3db2ff87	0.08740144
25	0xbd035bb7	-0.032069888
26	0xbd5016c7	-0.050802972
27	0xbde1dbcb	-0.1102825
28	0xbe54f441	-0.207963
29	0x3d0c6751	0.034278218
30	0xbd7a0b5b	-0.061045986
31	0xbda5bcc8	-0.08092648
32	0xbdc36e49	-0.095425196
33	0xbd0604e2	-0.0327195
34	0x3da5a9e0	0.08089042
35	0xbdbfff12	-0.09374823
36	0xbe272af6	-0.16324982
37	0xbe19d981	-0.15024377
38	0xbc10b638	-0.008832507
39	0xbd8fb0d3	-0.070161484
40	0xbd787320	-0.060656667
41	0x3d8425a0	0.06452489
42	0x3caf5665	0.0214035
43	0xbdb2a46a	-0.08722766
44	0xbba7a426	-0.0051160036
45	0xbd9a99d1	-0.075488694
46	0xbded56f9	-0.11588854
47	0x3dbae968	0.0912655
48	0xbd85dca2	-0.06536223
49	0xbe27a392	-0.16370991
50	0xbd23307f	-0.03984117
51	0x3df45ed2	0.11932148
52	0xbe4a55e8	-0.19759333
53	0xbba25190	-0.0049535707
54	0xbce83ca9	-0.028349238
55	0x3dddcea0	0.10830426
56	0x3d9aae17	0.07552736
57	0xbcd7ef75	-0.0263593
58	0x3d287ccb	0.041134637
59	0x3d94df41	0.07269145
60	0x3d0086f7	0.031378713
61	0x3cafec81	0.021475079
62	0xbe2a5168	-0.16632617
63	0xbd363b7c	-0.044490322
64	0x3d3af7c2	0.045646437
65	0xbe0a8841	-0.13528539
66	0xbe2116ae	-0.15731308
67	0x3caa996a	0.020825107
68	0xbd8b61a3	-0.06805732
69	0xbc8fc056	-0.017547768
70	0xbc3f8d63	-0.011691424
71	0x3d2e2cb0	0.042523086
72	0xbdf1e282	-0.11810781
73	0xbe1a591d	-0.15073057
74	0xbc45d451	-0.012074546
75	0xbd1ec8ef	-0.038765844
76	0xbd2b4097	-0.041809645
77	0x3e56fe27	0.20995389
78	0xbdaf3757	-0.08555477
79	0x3c9b7a8f	0.018979339
80	0xbcbe736d	-0.023248399
81	0xbd825b4a	-0.06365068
82	0x3df34f99	0.118804164
83	0xbc1a6d9c	-0.009425547
84	0x3dbbb17a	0.0916471
85	0xbd4cd835	-0.05001088
86	0xbdff82f5	-0.1247615
87	0xbc6c5fd1	-0.014427141
88	0x3e0dfa76	0.13865075
89	0xbe25f04c	-0.16204947
90	0x3c98249a	0.01857214
91	0x3dab30a1	0.083588846
92	0xbd91c030	-0.07116735
93	0x3d383346	0.044970773
94	0x3cbc49ef	0.022984473
95	0x3d60475e	0.05475556
96	0x3dd6856a	0.104746655
97	0x3d64fef9	0.055907223
98	0xbe24f3a8	-0.16108572
99	0xbb2fc738	-0.0026821624
100	0xbe027211	-0.12738825
101	0xbdb8dc30	-0.090263724
102	0xbe089811	-0.13339259
103	0xbc06d6ce	-0.008229924
104	0xbc115e0a	-0.008872518
105	0xbd1887e8	-0.037238985
106	0xbe1a8759	-0.15090694
107	0x3d84145b	0.06449195
108	0xbe09db6c	-0.13462609
109	0x3d27126f	0.040789064
110	0xbddf74fa	-0.109109834
111	0x3c586643	0.013207975
112	0xbd6803d2	-0.05664427
113	0xbd867aab	-0.06566366
114	0xbd7912ec	-0.06080906
115	0x3dd79f3e	0.1052842
116	0x3c924c23	0.01785857
117	0xb8fea1b1	-0.00012141781
118	0x3dc50871	0.09620751
119	0x3c2b91a3	0.010471734
120	0x3db9ac7c	0.09066102
121	0xbd82686a	-0.06367572
122	0xbdefa4f2	-0.11701383
123	0x3d1029c8	0.035196096
124	0x3dcd6e5d	0.10030816
125	0xbdc511da	-0.096225455
126	0xbddb9e79	-0.10723586
127	0x3d7ce9ee	0.06174653
128	0x3dee162e	0.11625324
129	0x3d995b0b	0.07488068
130	0xbda354e3	-0.07975175
131	0xbd11ced3	-0.035597634
132	0xbd0a39df	-0.033746596
133	0x3df1f320	0.118139505
134	0xbcd00a8e	-0.025395658
135	0xbb6c53db	-0.0036060724
136	0xbd9ffba5	-0.07811669
137	0x3dc5e63c	0.09663054
138	0xbda8fdb5	-0.08251516
139	0xbe18325b	-0.14862959
140	0x3d49a0d5	0.049225647
141	0x3dd528bb	0.10408159
142	0xbd801909	-0.06254775
143	0xbd0d920d	-0.034563113
144	0x3e18ef47	0.14935027
145	0xbdf87381	-0.121314056
146	0x3af3306c	0.001855386
147	0xbd8325f7	-0.064037256
148	0x3dacb440	0.084328175
149	0xbc28d5e3	-0.010304901
150	0xbe5096ed	-0.20370074
151	0xbde59a78	-0.11211103
152	0xbdc7f339	-0.09763188
153	0x3e029920	0.12753725
154	0x3e1622da	0.14661732
155	0xbd178fcb	-0.037002366
156	0xbd7a0657	-0.061041202
157	0xbe2fe982	-0.1717892
158	0xbe43298d	-0.19058819
159	0x3de68a17	0.11256807
160	0xbe00d9d4	-0.12583095
161	0xbda54fdb	-0.08071872
162	0xbdfabada	-0.1224267
163	0xbd29d903	-0.041466724
164	0xbd5018dc	-0.050804958
165	0xbd3c086e	-0.045906477
166	0x3d01efda	0.03172288
167	0x3d415edc	0.047209606
168	0x3cdeae6e	0.027182784
169	0xbe148792	-0.14504841
170	0xbd6dd3e1	-0.05806339
171	0xbe09c33a	-0.1345338
172	0xbe38f922	-0.18063787
173	0xbcd29cd9	-0.025709556
174	0xbab94242	-0.0014134126
175	0xbdea3e78	-0.11437696
176	0xbdfdcb15	-0.123922504
177	0xbe0419f0	-0.1290052
178	0x3cf41947	0.02979721
179	0xbde929a4	-0.113848954
180	0x3c065350	0.008198574
181	0xbe15dad8	-0.14634264
182	0x3db28a04	0.08717731
183	0xbe060fa9	-0.13091911
184	0x3cee4340	0.029084802
185	0x3de7385a	0.11290045
186	0x3d910f28	0.07082969
187	0x3dce42eb	0.10071357
188	0xbc2f5ee1	-0.010703773
189	0x3dccb9e4	0.09996393
190	0x3d82af07	0.0638104
191	0x3bb68686	0.0055702357
192	0x3df143f2	0.11780538
193	0x3d8b8933	0.06813278
194	0x3d9931eb	0.07480224
195	0xbda4d14f	-0.08047735
196	0x3d538d4c	0.051648423
197	0x3da5cfe4	0.080962926
198	0x3dce5e29	0.100765534
199	0xbbbde504	-0.005795123
200	0xbe338989	-0.17532934
201	0xbd01fd8d	-0.031735945
202	0xbd90cb7c	-0.070700616
203	0x3daf271f	0.08552384
204	0x3e0b07b9	0.13577165
205	0x3d8defe9	0.06930525
206	0xbc958830	-0.018253416
207	0x3caa81a8	0.020813778
208	0x3dfc7811	0.12327588
209	0xbdd10f40	-0.10207987
210	0x3cfc245a	0.030779053
211	0x3d8ca03e	0.06866501
212	0x3da58687	0.080823
213	0xbbfa7874	-0.0076437537
214	0x3dcb1b68	0.09917337
215	0x3da82521	0.08210207
216	0x3e1bf6cd	0.15230866
217	0x3da59591	0.08085168
218	0x3b955bbe	0.0045580557
219	0x3d3b0c0c	0.045665786
220	0x3dcff293	0.10153689
221	0x3dec455a	0.11536665
222	0xbd1ccb8b	-0.03828005
223	0x3dd5812d	0.10425029
224	0xbdae7b8f	-0.08519661
225	0xbc2b6816	-0.010461828
226	0xbde55f10	-0.11199772
227	0x3e71a019	0.23596229
228	0x3d38bf7d	0.045104492
229	0xbc95478e	-0.018222596
230	0xbc3545a4	-0.011063967
231	0x3ca849d1	0.02054301
232	0x3b772bba	0.0037715272
233	0xbe09afbd	-0.13445945
234	0x3da23040	0.07919359
235	0xbb987552	-0.0046526575
236	0x3c5e65a5	0.013574039
237	0xbd76f39b	-0.060290914
238	0xbdc0a8bb	-0.09407183
239	0xbdb35b09	-0.08757598
240	0x3d6db3df	0.058032867
241	0xbd88e8e5	-0.06685046
242	0x3d855634	0.065105826
243	0x3e0212eb	0.12702529
244	0x3ddb02d0	0.10693896
245	0xbd835469	-0.06412584
246	0xbd3c2c8f	-0.045940932
247	0xbddc6243	-0.107609294
248	0x3c215d38	0.009848885
249	0xbe23dae6	-0.16001472
250	0x3db2df29	0.08733971
251	0x3ce896ce	0.028392222
252	0x3dfc45c9	0.12317998
253	0x3df812e5	0.12112979
254	0xbdc50787	-0.09620576
255	0x3e1ef2ba	0.1552228

conv3.0.bias f4 [16]
0	0xbdcc3a71	-0.09972084
1	0xbdda9de5	-0.10674647
2	0x3d1a9b1c	0.03774558
3	0xbe340061	-0.1757827
4	0x3cd5ae2a	0.026084024
5	0x3d82b795	0.06382672
6	0xbe86826e	-0.26271385
7	0x3d6b42a3	0.057436597
8	0xbd3dde9f	-0.046354886
9	0xbe2ff966	-0.17184982
10	0xbc929434	-0.017892934
11	0xbd995d48	-0.07488495
12	0xbe15d861	-0.14633323
13	0x3de58f42	0.11208965
14	0xbe0a0074	-0.13476735
15	0x3cd804c7	0.026369466

conv4.0.weight f4 [16, 16, 5]
0	0x3c9fda96	0.01951341
1	0xbd043e2c	-0.032285854
2	0xbd3a12f0	-0.045428216
3	0x3c97fab8	0.01855217
4	0xbda96307	-0.08270841
5	0xbd81669d	-0.063184
6	0xbc8cf9ef	-0.017209021
7	0x3cc51f9b	0.024062922
8	0x3c9ae11c	0.018906169
9	0x3d1b6ae7	0.037943747
10	0xbdee2180	-0.11627483
11	0xbdeff501	-0.11716653
12	0xbddea172	-0.10870637
13	0x3d21392c	0.039361164
14	0xbd94cc2c	-0.07265505
15	0xbd30c352	-0.043155022
16	0x3c764c51	0.015032844
17	0xbc138196	-0.009003064
18	0xbd15fead	-0.03661983
19	0xbddc3c1b	-0.10753652
20	0xbd555b06	-0.05208876
21	0xbd4519ed	-0.048120428
22	0xbd63217f	-0.055451866
23	0xbd4651f0	-0.048417985
24	0x3c821f0f	0.01588395
25	0x3cee6c7f	0.02910447
26	0x3cd5a1f7	0.026078207
27	0x3da4dbf5	0.08049766
28	0xbda3e143	-0.0800195
29	0xbd768b94	-0.060191706
30	0xbdd13d4f	-0.10216772
31	0xbd8c1bab	-0.06841215
32	0xbda66e65	-0.08126525
33	0xbdb2bae7	-0.08727055
34	0x3cf84188	0.030304685
35	0x3d3a74a9	0.045521412
36	0x3bfeb575	0.007773096
37	0x3c517e32	0.012786435
38	0xbcbf5cf2	-0.02335975
39	0xbdac6063	-0.08416822
40	0xbd7438d4	-0.059624508
41	0xbc91ba3a	-0.017788995
42	0xbc115232	-0.008869695
43	0x3cb06bc3	0.02153576
44	0x3d409068	0.047012717
45	0x3cfe7c30	0.031065077
46	0x3d29d9c0	0.04146743
47	0xbdc846f4	-0.09779158
48	0x3b882bf5	0.0041556307
49	0xbd036481	-0.03207827
50	0x3ceda49d	0.029009158
51	0x3ca76bc6	0.020437133
52	0x3c4500bc	0.012024101
53	0xbdc9a189	-0.098452635
54	0xbddc1572	-0.10746278
55	0xbdc34ebb	-0.09536501
56	0xbe2576e0	-0.16158628
57	0x3cb9160d	0.022593522
58	0xbcbae303	-0.022813326
59	0xbd293fb2	-0.04132051
60	0xbd731007	-0.059341457
61	0x3d0e7037	0.034774985
62	0x3d333cf7	0.043759312
63	0x3cc5ae2c	0.024130903
64	0x3cad2abf	0.021138547
65	0xbdb58e02	-0.088649765
66	0x3cba15eb	0.02271553
67	0xbcb82428	-0.022478178
68	0xbc6aef07	-0.014339215
69	0x3d30ddac	0.043180153
70	0xbdb82fa2	-0.0899346
71	0xbd10235d	-0.035189975
72	0xbd0bc6b2	-0.034125037
73	0x3d600e17	0.054700937
74	0x3c8f6431	0.01750383
75	0xbe012cb8	-0.12614715
76	0xbc6d7efb	-0.0144956065
77	0xbc63dc1c	-0.013907459
78	0xbd735d0f	-0.05941492
79	0x3c71f1a2	0.014767082
80	0x3d1c39b3	0.038140964
81	0xbd676911	-0.056496684
82	0xbc357a76	-0.01107656
83	0x3d1c9ce9	0.03823558
84	0x3dc635e2	0.09678246
85	0x3c442166	0.011970853
86	0x3d978d07	0.07399946
87	0xbd87dbb9	-0.06633706
88	0xbd69b1db	-0.05705438
89	0xbd9c30a9	-0.07626469
90	0x3c895714	0.016765155
91	0xbd12c0fd	-0.03582858
92	0xbd755128	-0.05989185
93	0xbdce14b6	-0.10062544
94	0x3cf806e9	0.030276733
95	0xbd5c93a5	-0.053851742
96	0x3d30b442	0.043140657
97	0xbe0c0fce	-0.13677904
98	0xbd4379c4	-0.047723547
99	0x3ddc01ed	0.10742555
100	0xbcaac190	-0.02084425
101	0xbe0d30fc	-0.13788217
102	0xbd3b6d39	-0.04575846
103	0xbdd2ea90	-0.102986455
104	0xbc0ff0ff	-0.008785485
105	0xbd3e58f0	-0.046471536
106	0xbd43b2a4	-0.047777787
107	0xbbcd0851	-0.006257095
108	0xbc1990d5	-0.00937291
109	0xbd8b1d8b	-0.06792744
110	0x3c5c3858	0.013441168
111	0xbdd138fa	-0.102159455
112	0xbd9befe5	-0.076141156
113	0xbde8bad7	-0.11363762
114	0x3d9d7e3d	0.07690094
115	0xba94ad35	-0.0011343124
116	0x3b820f5f	0.0039691175
117	0xbd969ea6	-0.073544785
118	0xbbe32117	-0.006931435
119	0xbd46c296	-0.048525415
120	0xbd8e46a6	-0.06947069
121	0xbd4caa2e	-0.049966983
122	0xbdb456bf	-0.08805608
123	0xbc7d2484	-0.015450601
124	0x3da1ea66	0.07906036
125	0x3d157c39	0.03649542
126	0xbc954c62	-0.018224899
127	0x3c0bc9bf	0.008531987
128	0xbce6131e	-0.028085288
129	0x3c5dad3b	0.013530071
130	0xbc243e32	-0.010024594
131	0x3c5f6589	0.013635048
132	0xbcc0451f	-0.02347046
133	0xbce51afe	-0.027966972
134	0xbccfb3bd	-0.02535426
135	0xbcc1266a	-0.023577888
136	0x3cda62fb	0.026658526
137	0xbdb89e92	-0.0901462
138	0xbc734e85	-0.0148502635
139	0x3d1840e6	0.037171267
140	0x3d1bada4	0.038007393
141	0xbd9db591	-0.07700647
142	0x3a9e10d0	0.0012059454
143	0xbd9cb1f6	-0.07651131
144	0x3daad461	0.08341289
145	0xbd984f2e	-0.07436977
146	0xbdd93b68	-0.10607034
147	0xbe20928e	-0.15680906
148	0xbd7d2a43	-0.061807882
149	0x3d0284d1	0.031864945
150	0x3bd08c23	0.006364362
151	0xbd799499	-0.06093273
152	0xbc267ef1	-0.010162101
153	0x3ce00d6c	0.02735015
154	0xbd87867a	-0.06617446
155	0xbdbab492	-0.09116472
156	0xbd8d1262	-0.06888272
157	0x3bbd2d2a	0.0057732062
158	0x3d38457e	0.044988148
159	0x3c31e56d	0.010857922
160	0x3c68d19c	0.014210131
161	0xbd28cf5b	-0.041213375
162	0xbdc7de8e	-0.09759246
163	0xbcc06a12	-0.023488078
164	0x3d369490	0.044575274
165	0xbda09e41	-0.078426845
166	0xbd93cebd	-0.072171666
167	0xbd0c6b69	-0.03428212
168	0x3daeac7b	0.08528992
169	0x3cbf0124	0.023315974
170	0xbd747ea3	-0.059691083
171	0xbdb054f4	-0.086099535
172	0xbdb41ed0	-0.087949395
173	0xbd574d2e	-0.05256384
174	0x3c8e5c7b	0.017378082
175	0x3b6d7531	0.0036233182
176	0x3d3d6a5e	0.046244018
177	0x3dc022a3	0.093816064
178	0xbc08508f	-0.008319988
179	0xbdda682e	-0.10664402
180	0xbd908d4a	-0.07058199
181	0xbd35a14f	-0.04434329
182	0xbd8ee270	-0.06976783
183	0x3d6d2a5d	0.05790173
184	0xbdc7a23e	-0.09747742
185	0xbd8ce512	-0.06879629
186	0xbcd464e0	-0.025927007
187	0xbd3f3fb0	-0.046691597
188	0xbd6151b9	-0.055009577
189	0xbd16c4d0	-0.03680879
190	0x3b7e9bf6	0.0038850284
191	0x3d57421a	0.052553274
192	0x3dcb7e8b	0.099362455
193	0xbcab72a9	-0.020928698
194	0xbd57a69a	-0.052649118
195	0x3c3becd2	0.011470037
196	0xbd7acf3f	-0.0612328
197	0x3d322447	0.043491628
198	0x3b4e7c65	0.003150725
199	0xbd0da3d6	-0.034580074
200	0x3d21e640	0.039526224
201	0x3c220db7	0.009890965
202	0x3de623d3	0.11237302
203	0xbd2ae566	-0.041722678
204	0x3968252f	0.00022139096
205	0xbbccf747	-0.0062550637
206	0xbc862ab4	-0.016377784
207	0xbd91baca	-0.07115705
208	0x3c0fe4c0	0.008782566
209	0x3cc1e45c	0.02366846
210	0x3c10888b	0.008821617
211	0x3cbce977	0.023060543
212	0x3cb2a021	0.021804871
213	0x3ad013c9	0.0015875037
214	0xbdf69913	-0.12040915
215	0xbdaa4dad	-0.08315597
216	0x3d2fac75	0.042889077
217	0x3d0c19ce	0.034204297
218	0x3ca2d0ac	0.019874893
219	0xbc5fa5d8	-0.01365038
220	0x3a6c6ae7	0.0009018615
221	0xbcaff05f	-0.021476923
222	0x3cb13a07	0.021634115
223	0xbda39442	-0.07987262
224	0x3d90510d	0.07046709
225	0xbdd64cd3	-0.10463872
226	0xbdff6601	-0.124706276
227	0x3d600ade	0.054697864
228	0x3cae049c	0.021242432
229	0x3b17b798	0.0023150202
230	0xbd4ee4d7	-0.050511207
231	0xbc6089d9	-0.01370474
232	0xbc5a5cea	-0.0133278165
233	0x3d97f144	0.07419065
234	0x3d58de25	0.05294623
235	0xbd40c125	-0.047059197
236	0x3d97fd61	0.07421375
237	0xbca81e53	-0.020522272
238	0xbac0024c	-0.0014649122
239	0xbd23e7b3	-0.040015887
240	0xbccfa3bd	-0.025346631
241	0xbe2a986d	-0.16659708
242	0x3babf9cc	0.005248284
243	0x3db6c2fd	0.0892391
244	0xbdb2c632	-0.08729209
245	0x3d6125d4	0.054967716
246	0xbd42d3da	-0.04756532
247	0x3e024fca	0.1272575
248	0xbd8f01e1	-0.0698278
249	0x3cadeaf1	0.021230193
250	0xbd05df2f	-0.032683548
251	0xbd388c6f	-0.045055803
252	0xbc1a2ab8	-0.009409599
253	0x3c01db5a	0.007925833
254	0x3c9fceb1	0.019507738
255	0x3d99a1c7	0.0750156

conv4.0.bias f4 [16]
0	0x3bae6aa0	0.0053227693
1	0x3d60441c	0.054752454
2	0x3e0336dc	0.12813896
3	0xbda8c0e8	-0.08239919
4	0xbe0681e7	-0.13135491
5	0xbca77a7b	-0.020444145
6	0x3dbf81ec	0.093509525
7	0x3b7c3d60	0.003848873
8	0xbe01c591	-0.12673022
9	0x3da44052	0.080200806
10	0xbc6791e0	-0.0141339
11	0xbd40736c	-0.046985075
12	0xbdeb0ab2	-0.11476649
13	0xbc24a26b	-0.010048489
14	0xbcaffb17	-0.021482034
15	0xbda4e807	-0.08052068

conv5.0.weight f4 [16, 16, 5]
0	0xbd4e80af	-0.05041569
1	0xbd1b55e6	-0.037923716
2	0xbcf05470	-0.029337138
3	0x3dda0f48	0.10647446
4	0x3da4e6bc	0.080518216
5	0xbd6253ee	-0.055255823
6	0x3dac8de0	0.08425498
7	0x3dce4a7a	0.10072799
8	0x3dd06c32	0.101768866
9	0xbda04686	-0.07825951
10	0xbdc4f3c0	-0.09616804
11	0xbd83081e	-0.063980326
12	0xbdaee7f4	-0.08540335
13	0x3d9d95d6	0.076945946
14	0x3d22c9b8	0.039743155
15	0x3d69f36c	0.05711691
16	0xbdc65fe6	-0.0968626
17	0xbd772018	-0.06033334
18	0xbd11dede	-0.035612933
19	0x3d44fd28	0.04809299
20	0xbd342dae	-0.043988876
21	0xbdbac65a	-0.09119864
22	0x3d887822	0.066635385
23	0xbda64a3c	-0.08119628
24	0xbd974fa6	-0.073882386
25	0x3cc39fb8	0.02387987
26	0xbd518dff	-0.05116081
27	0x3d88fd06	0.066888854
28	0xbd2264cc	-0.03964691
29	0xbccc9888	-0.024975076
30	0x3cdb2b60	0.026754081
31	0xbd862b12	-0.06551184
32	0x3d41eeb0	0.04734677
33	0x3cda7350	0.026666313
34	0x3be603f0	0.0070195124
35	0x3d387490	0.045033038
36	0xbcf529ec	-0.029927216
37	0x3d3814cc	0.04494171
38	0x3da1c2e6	0.07898502
39	0x3d316074	0.043304875
40	0xbdb0629c	-0.08612558
41	0x3d4aab24	0.04947962
42	0x3ddbfcbc	0.10741565
43	0x3d890a56	0.066914245
44	0xbc98e6f4	-0.018664815
45	0xbc25f3a0	-0.0101288855
46	0x3daaf4b0	0.08347452
47	0xbd8015d9	-0.06254167
48	0xbdce3e7c	-0.10070512
49	0x3c1bc4e0	0.009507388
50	0x3b9c0730	0.004761599
51	0x3dd7d4ae	0.10538612
52	0xbc90edbc	-0.017691486
53	0x3d406438	0.046970576
54	0xbd0952a0	-0.033526063
55	0xbd65f02b	-0.056137245
56	0x3d219318	0.03944692
57	0x3c3f43e8	0.011673905
58	0xbc657050	-0.014003828
59	0x3da70dc0	0.081569195
60	0x3d8f5a86	0.06999688
61	0x3d26f8a4	0.040764466
62	0x3dda737e	0.1066656
63	0x3db624f8	0.0889377
64	0xbc6a13a8	-0.014286913
65	0x3d5a7cbc	0.053341612
66	0x3d116afc	0.03550242
67	0xbc850fb4	-0.01624284
68	0x3ddf2864	0.10896376
69	0xbd3a0216	-0.045412146
70	0x3d0e5a80	0.034754276
71	0x3c2370d0	0.009975627
72	0xbc6de6b8	-0.01452034
73	0xbd5fd739	-0.05464861
74	0xbdb43af1	-0.08800305
75	0x3d0e55dc	0.03474985
76	0xbcc0d134	-0.023537256
77	0xbd8a3104	-0.0674763
78	0xbd872b23	-0.066000246
79	0xbdaa6138	-0.08319324
80	0x3d0daf08	0.03459075
81	0xbdcade3e	-0.099056706
82	0xbdd42262	-0.103581205
83	0xbd5a2f54	-0.053267792
84	0xbdc75e00	-0.09734726
85	0xbc56f948	-0.013120957
86	0x3b305b60	0.0026909932
87	0x3d8cc69e	0.06873821
88	0xbc402898	-0.011728428
89	0xbdb25aa2	-0.08708693
90	0xbc6412b0	-0.013920471
91	0x3cbed500	0.023294926
92	0xbce7d194	-0.028298177
93	0xbd1366c8	-0.03598669
94	0x3d86cf22	0.06582476
95	0x3a42f180	0.0007436499
96	0x3d598d84	0.053113475
97	0xbdacb34e	-0.08432637
98	0x3d9f3ab8	0.077748716
99	0xbd36b0ea	-0.044602312
100	0x3d908d20	0.070581675
101	0x3c4ab010	0.012371078
102	0xbdd96db1	-0.10616625
103	0x3dd81710	0.10551274
104	0xbda60352	-0.08106102
105	0xbd61fe8e	-0.055174403
106	0xbb9b8850	-0.0047464743
107	0x3d6e6d60	0.058209777
108	0xbd3f8252	-0.046755143
109	0x3d45ea0c	0.048318908
110	0xbdbf2ed7	-0.09335106
111	0x3ddd5fc2	0.1080928
112	0xbd83b57b	-0.06431099
113	0x3c4afd90	0.012389556
114	0xbd8d19fb	-0.06889721
115	0xbc5c8790	-0.013460055
116	0x3c2599a8	0.010107435
117	0x3dd68124	0.1047385
118	0x3b971c90	0.004611559
119	0x3d9c83b8	0.07642311
120	0x3d7afbac	0.06127517
121	0x3b2734e0	0.0025513694
122	0x3db1f2c2	0.086888805
123	0x3d42ef60	0.047591567
124	0x3c80dd98	0.015730664
125	0x3dce56da	0.10075159
126	0xbdd8333f	-0.105566494
127	0x3dcf0080	0.10107517
128	0x3d84710e	0.06466876
129	0x3d4cc00c	0.049987838
130	0x3da0b7fa	0.07847591
131	0x3c25ebd8	0.01012703
132	0xbd06ba2c	-0.03289239
133	0x3d087358	0.033313125
134	0x3db3f85c	0.08787605
135	0xbd88b1fb	-0.06674572
136	0x3d0a6ec4	0.03379704
137	0xbd89105c	-0.066925734
138	0xbde475e1	-0.11155296
139	0x3d32b388	0.043628246
140	0xbd550b99	-0.052013014
141	0x3d1b4dcc	0.03791599
142	0xbd4e2a38	-0.05033323
143	0xbdaab57b	-0.08335396
144	0xbd113fc8	-0.035461217
145	0xbd916b94	-0.07100597
146	0xbd6432fb	-0.05571268
147	0xbdd561e0	-0.10419059
148	0xbd418cd2	-0.047253437
149	0x3cccd940	0.025005937
150	0xbdc13bd0	-0.094352365
151	0x3d86605c	0.06561348
152	0x3d800ce4	0.06252459
153	0x3d5a1880	0.05324602
154	0xbd28d210	-0.041215956
155	0xbd4a16fb	-0.049338322
156	0xbd295aa2	-0.0413462
157	0xbc959548	-0.01825966
158	0x3da1018e	0.07861625
159	0x3dad66a2	0.08466841
160	0x3db4bd36	0.088251516
161	0xbc845474	-0.016153552
162	0xbd8d4dda	-0.06899615
163	0xbdd0ab8a	-0.101889685
164	0xbcdb81a4	-0.026795216
165	0x3d399718	0.04531011
166	0x3d2f89d4	0.042856053
167	0xbdc6b8b3	-0.09703197
168	0xbcbb151c	-0.022837214
169	0x3ab7c6c0	0.0014021024
170	0x3dbed410	0.093177915
171	0xbc958bf0	-0.018255204
172	0x3db463e2	0.08808114
173	0xbb8fbb10	-0.0043863133
174	0xbd96b586	-0.073588416
175	0xbdbd953f	-0.09256982
176	0xbca4ac18	-0.020101592
177	0x3db8c5ea	0.09022124
178	0xba0a0380	-0.0005264804
179	0x3d366984	0.04453422
180	0x3dd52e5a	0.104092315
181	0x3baf0890	0.005341597
182	0xbc9217a8	-0.017833546
183	0x3aad3280	0.0013213903
184	0x3c6c01c0	0.014404714
185	0x3d347890	0.04406029
186	0x3d308ec0	0.043104887
187	0x3d92d302	0.07169153
188	0x3dc70886	0.097184226
189	0x3b824340	0.003975302
190	0xbd577d6e	-0.052609853
191	0x3dc41202	0.09573747
192	0x3d300ad4	0.042979077
193	0xbdadda59	-0.08488912
194	0xbda4d9fd	-0.080493905
195	0xbddb40d4	-0.10705724
196	0x3d988b58	0.07448453
197	0x3d47f264	0.048815146
198	0x3b9eb8a0	0.0048437864
199	0xbd810838	-0.06300396
200	0x3d6020c0	0.054718733
201	0x3cd2ab30	0.025716394
202	0xbb305140	-0.0026903898
203	0xbd81c355	-0.06336085
204	0xbd999498	-0.07499045
205	0x3ca70fe8	0.020393327
206	0x3db9d63a	0.090740636
207	0xbd1edaba	-0.038782813
208	0x3cae3280	0.021264315
209	0x3d93b1f6	0.07211678
210	0x3d351614	0.04421051
211	0x3d04f088	0.03245595
212	0xbb6a3ca0	-0.0035741702
213	0x3dc7115a	0.097201064
214	0x3c0bce38	0.008533053
215	0xbd90a725	-0.0706313
216	0xbc857ccc	-0.01629486
217	0x3c44e010	0.012016311
218	0xbd26b17c	-0.040696606
219	0xbdadd0b4	-0.084870726
220	0x3d8df600	0.069316864
221	0xbdabe9ae	-0.0839418
222	0x3dce94d8	0.100869834
223	0xbdb1c857	-0.0868079
224	0xbdb68fd3	-0.08914151
225	0x3b068b40	0.0020529777
226	0xbcb36ee0	-0.021903455
227	0x3d0e9cb0	0.034817398
228	0xbd272fae	-0.040816955
229	0x3d055e10	0.032560408
230	0x3d6eb790	0.058280528
231	0x3db83c02	0.089958206
232	0x3d8a9002	0.067657486
233	0x3badc1c0	0.005302638
234	0xbda82974	-0.082110316
235	0x3cc346e8	0.023837522
236	0x3ddb61ba	0.10711999
237	0xbceda29c	-0.029008202
238	0x3db9cfc2	0.0907283
239	0xbd1b6dec	-0.037946627
240	0x3ddfa744	0.10920575
241	0x3dc46724	0.09589985
242	0x3da45934	0.08024827
243	0x3d044da0	0.03230059
244	0xbdc4ea46	-0.096149966
245	0xbd25cd92	-0.04047925
246	0x3db13b12	0.08653845
247	0x3dbef98a	0.093249395
248	0x3c409150	0.011753395
249	0x3dd25fec	0.10272202
250	0xbdcca6b0	-0.099927306
251	0xbdd53659	-0.104107566
252	0xbd3b2e9e	-0.045698754
253	0x3d855310	0.065099835
254	0x3c19cdc0	0.0093874335
255	0xb9c75c00	-0.00038024783

conv5.0.bias f4 [16]
0	0xbcf66568	-0.030077651
1	0xbde49b50	-0.11162436
2	0xbcc3afdc	-0.023887567
3	0x3ddd4f9c	0.108062
4	0xbd3e5884	-0.046471134
5	0x3dd6bce6	0.10485248
6	0x3d3ea498	0.046543688
7	0x3dcf8bfa	0.1013412
8	0xbdd71b51	-0.10503257
9	0xbcbd4bac	-0.023107372
10	0x3d6acddc	0.05732523
11	0x3ddfc06c	0.109253734
12	0x3c4d45a8	0.012528814
13	0xbcd09da8	-0.025465801
14	0xbb1f63c0	-0.002432093
15	0x3dbe2788	0.09284884

conv6.0.weight f4 [8, 16, 5]
0	0x3d33295c	0.043740615
1	0x3c62c390	0.013840571
2	0x3dcb1c34	0.09917489
3	0xbd84522a	-0.06460984
4	0xbd456568	-0.04819241
5	0x3dbd8a6a	0.09254916
6	0x3d72c1fc	0.05926703
7	0xbc69b480	-0.014264226
8	0x3d2d6e8c	0.042341754
9	0x3d9a8546	0.07544951
10	0x3dde70fe	0.10861395
11	0xbc1e6058	-0.009666525
12	0xbd5f1131	-0.054459754
13	0x3a024300	0.000496909
14	0xbd76518d	-0.060136367
15	0x3ca75a48	0.020428792
16	0x3dd8389a	0.10557671
17	0xbdb2b2be	-0.087254986
18	0xbda86fe5	-0.08224467
19	0x3dc2f4a6	0.09519319
20	0xbd08f1ba	-0.033433653
21	0xbc8bb448	-0.017053738
22	0x3dab2b3e	0.08357857
23	0xbda3592e	-0.07975994
24	0xbdd07792	-0.10179056
25	0x3dc3ffde	0.09570287
26	0xbde3dcdf	-0.11126112
27	0xbdd087ab	-0.101821266
28	0x3dbd5b96	0.09245984
29	0xbcc6ce14	-0.024268188
30	0x3d8b2722	0.06794573
31	0xbd7a8f9f	-0.061172124
32	0xbd8a3dc4	-0.06750062
33	0xbdc54a0a	-0.096332625
34	0xba95cfc0	-0.0011429712
35	0x3bfedde0	0.0077779144
36	0xbd6b2a14	-0.057413176
37	0x3dc6c458	0.09705418
38	0x3daa5362	0.08316685
39	0xbdd1353d	-0.102152325
40	0xba14c780	-0.000567548
41	0x3dd0711e	0.101778254
42	0xbce4f7c8	-0.027950183
43	0xbd1e881a	-0.038704015
44	0xbdbc850e	-0.09205066
45	0xbdc2a848	-0.09504753
46	0xbd8fb674	-0.07017222
47	0x3da432aa	0.08017476
48	0xbd9099ba	-0.07060571
49	0x3c3ad378	0.011402957
50	0xbde43c34	-0.11144295
51	0x3ce0d940	0.027447343
52	0xbde0c78f	-0.10975563
53	0xbd833775	-0.06407062
54	0xbdb9e755	-0.09077326
55	0xbd6d0bc1	-0.057872538
56	0xbc8b2b20	-0.016988337
57	0x3de11aac	0.109914154
58	0x3cd6f4a8	0.026239708
59	0x3d787f8c	0.060668513
60	0x3d2a81b0	0.041627586
61	0x3dcd2ad6	0.10017936
62	0xbde133b4	-0.1099619
63	0xbdb8480f	-0.08998119
64	0x3d553084	0.05204822
65	0xbde06be3	-0.10958078
66	0x3da1a020	0.078918695
67	0xbd9dcc2e	-0.0770496
68	0xbdceb37c	-0.10092828
69	0xbd833d64	-0.06408194
70	0x3d21c4a8	0.039494187
71	0x3d3a27d0	0.045448124
72	0xbcb50768	-0.022098258
73	0x3cde6f48	0.027152672
74	0x3cba4008	0.02273561
75	0x3d78277c	0.06058453
76	0x3b231700	0.0024885535
77	0x3b486fc0	0.0030584186
78	0x3cf38200	0.029725075
79	0x3cb05c68	0.021528438
80	0x3d38e8b4	0.045143798
81	0x3d5ce000	0.05392456
82	0x3d6ead00	0.058270454
83	0xbd8b554f	-0.06803381
84	0x3dc06ba6	0.09395532
85	0x3d5fd238	0.05464384
86	0xbccef16c	-0.025261603
87	0x3de2273c	0.110426396
88	0x3c01a1b8	0.007912092
89	0x3c819370	0.015817374
90	0x3ddd8ae4	0.10817507
91	0x3d9451b2	0.07242145
92	0x3d9549bc	0.07289454
93	0xbd7cbd82	-0.061704166
94	0x3da33b6a	0.07970317
95	0xbd62e8a1	-0.055397633
96	0x3d5b22d4	0.05350001
97	0xbd4eed22	-0.050519116
98	0xbd56c173	-0.05243058
99	0xbc6c7ba0	-0.014433771
100	0xbc8731f0	-0.016503304
101	0xbcf35c4c	-0.029707097
102	0xbdb7399f	-0.08946537
103	0xbd6e08eb	-0.058113974
104	0x3dc3b95e	0.0955684
105	0xbcbea5a0	-0.023272336
106	0x3dd2b70c	0.1028882
107	0x3d79db18	0.06099996
108	0xbd91ad9e	-0.07113193
109	0x3dd307ee	0.10304247
110	0x3dcdedea	0.10055144
111	0x3db04da6	0.0860856
112	0xba90ad00	-0.0011037886
113	0xbd12d13a	-0.035844065
114	0xbd753902	-0.05986882
115	0x3d332114	0.043732718
116	0x3d6e89f0	0.058237016
117	0xbd822f0a	-0.06356628
118	0x3dd6f95a	0.10496779
119	0x3c9dc5d8	0.019259378
120	0x3c7107d0	0.014711335
121	0x3c673540	0.014111817
122	0x3d9954b0	0.07486856
123	0x3d8e5e6e	0.06951605
124	0xbd9942f0	-0.074834704
125	0xbd582f61	-0.05277956
126	0x3dd85c68	0.105645
127	0xbd16bc3e	-0.036800615
128	0x3d921524	0.071329385
129	0x3db0be9c	0.08630106
130	0xbdbe1212	-0.092807904
131	0xbda280be	-0.07934712
132	0x3d9fc0de	0.07800458
133	0xbdd2cc4d	-0.102928735
134	0xbbf496d0	-0.0074642673
135	0x3a922c40	0.0011152104
136	0x3c064300	0.008194685
137	0x3d9e4638	0.07728237
138	0x3d327570	0.04356903
139	0xbd9cd13a	-0.07657094
140	0x3dc8ad76	0.0979871
141	0x3d852130	0.06500471
142	0x3d287f3c	0.041136965
143	0xbdc051e4	-0.093906194
144	0x3dcc3d3e	0.099726185
145	0x3d7e5850	0.06209594
146	0x3d3c6940	0.04599881
147	0x3d1c8650	0.038214028
148	0x3d29c930	0.041451633
149	0xbd8ac9b4	-0.06776753
150	0xbdcd615a	-0.10028334
151	0xbd6c22c5	-0.057650346
152	0xbd5d5417	-0.054035272
153	0xbdd214c1	-0.10257865
154	0xbd2c493a	-0.04206202
155	0xbd973bd8	-0.07384461
156	0xbd3ca9f0	-0.046060503
157	0x3dc8aea4	0.09798935
158	0x3ddd5028	0.10806304
159	0xbdcbaf51	-0.09945548
160	0x3dbf455a	0.093394
161	0xbca2eec0	-0.019889235
162	0x3da4f326	0.080541894
163	0x3dc221e8	0.09479123
164	0x3ca90e30	0.020636648
165	0x3d3f304c	0.04667692
166	0x3de03954	0.109484345
167	0xbd2ce0c2	-0.042206533
168	0xbdac87ce	-0.0842434
169	0x3ca85c58	0.020551845
170	0xbd48a8c8	-0.048989087
171	0xbda0aa62	-0.07844998
172	0x3d920776	0.07130329
173	0xba9c1280	-0.0011907369
174	0x3cfd2310	0.030900508
175	0xbccaf9dc	-0.024777345
176	0x3d9a044a	0.07520349
177	0x3d8932fe	0.06699179
178	0xbcdff1b4	-0.027336933
179	0xbb8504c0	-0.004059404
180	0xbd17d926	-0.037072323
181	0xbda2f8d2	-0.07957615
182	0xbdb5fc9a	-0.088860705
183	0xbd92f958	-0.07176465
184	0xbd8fa3af	-0.07013642
185	0x3dac180a	0.084030226
186	0xbd7d708f	-0.061874922
187	0xbd013e8a	-0.031553783
188	0x3d6a1b50	0.057154953
189	0x3d6d47f0	0.057929933
190	0xbd8b8099	-0.068116374
191	0xbd7d1514	-0.06178768
192	0xbcf98924	-0.030460902
193	0x3ce68ed0	0.02814427
194	0x3d467030	0.048446834
195	0x3db66016	0.08905046
196	0xbd936e57	-0.0719878
197	0x3dcf60a4	0.101258546
198	0x3d08a5dc	0.0333613
199	0x3d924d4c	0.071436495
200	0xbd19279e	-0.037391298
201	0xbd62b97a	-0.055352665
202	0x3da9c7da	0.08290072
203	0xbdc0a8a6	-0.09407167
204	0xbd1e4cd6	-0.038647495
205	0x3d8a241e	0.0674517
206	0xbd1a04b2	-0.037602134
207	0xbda216a1	-0.07914472
208	0xbda3bb97	-0.07994764
209	0x3d8e1f4c	0.06939563
210	0xbd023864	-0.03179206
211	0xbdc0959a	-0.09403534
212	0xbdab77de	-0.08372472
213	0x3d3f8648	0.04675892
214	0xbdba9d37	-0.091120176
215	0xbd416114	-0.04721172
216	0x3cad4190	0.021149427
217	0xbcc95b58	-0.024579689
218	0x3d62dd94	0.055387095
219	0x3d7ba4f4	0.06143661
220	0xbdd2d59a	-0.102946475
221	0x3d710d84	0.05885078
222	0x3d17d75c	0.037070617
223	0x3dbc485e	0.091934904
224	0xbd7d23cb	-0.061801713
225	0xbd82644f	-0.063667886
226	0x3dabe23c	0.0839276
227	0x3c2be388	0.010491259
228	0x3d55e9a4	0.05222477
229	0xbdb27024	-0.087127954
230	0xbcb5168c	-0.022105478
231	0xbcd13018	-0.025535628
232	0x3d0b2fc0	0.033981085
233	0xbd55a472	-0.05215878
234	0xbd32290c	-0.043496177
235	0x3be22a60	0.006902024
236	0x3d6da2ec	0.058016703
237	0x3d774a38	0.060373515
238	0xbd5f6b35	-0.0545456
239	0x3dc1a896	0.09455983
240	0xbd66875a	-0.056281425
241	0x3d938042	0.072021976
242	0x3de1863c	0.11011931
243	0x3dbfb364	0.09360388
244	0x3dd0a7d4	0.10188261
245	0x3d94aa9c	0.07259104
246	0x3d499e1c	0.04922305
247	0x3aed9d80	0.0018128604
248	0x3d807138	0.06271595
249	0x3d8407a2	0.06446768
250	0xbd57456b	-0.052556437
251	0xbc8d7ab0	-0.017270416
252	0x3dc793fe	0.09745024
253	0x3d4d1fa4	0.050079003
254	0x3bb1bec0	0.0054243505
255	0xbd2bacd0	-0.041912854

conv6.0.bias f4 [8]
0	0xbdde5ee5	-0.108579434
1	0x3d2e89cc	0.042611882
2	0xbd8b8f0e	-0.06814395
3	0xbd2d047c	-0.042240605
4	0x3db9fc4a	0.090813234
5	0xbd55f2cf	-0.052233513
6	0x3cf58660	0.029971302
7	0xbcb54f70	-0.022132605

fc.weight f4 [3, 528]
0	0xbc689519	-0.014195704
1	0x3b549ff4	0.0032443972
2	0x3ce2b0b7	0.027672155
3	0x3cf8515d	0.030312235
4	0xbcd3083e	-0.025760766
5	0xbd3f081c	-0.046638593
6	0xbd41a003	-0.04727174
7	0xbd8641f0	-0.06555545
8	0x3c8af3b2	0.016961906
9	0x3ce1621a	0.027512599
10	0xbb07989c	-0.0020690328
11	0x3dfeb792	0.12437357
12	0x3d9218d9	0.071336456
13	0x3b93c32f	0.0045093517
14	0xbc92db4e	-0.017926838
15	0xbcb84796	-0.022495072
16	0xbdb6fb02	-0.08934595
17	0xbdb0e12e	-0.086366996
18	0xbbd14a62	-0.006387041
19	0xbb0d50aa	-0.0021562972
20	0x3c5673ae	0.013089104
21	0xbc9b0b10	-0.018926173
22	0xbd009baf	-0.03139847
23	0x3bba7375	0.005690033
24	0xbc9d725f	-0.019219575
25	0xbb7f6db6	-0.0038975305
26	0xbd6f11d8	-0.058366627
27	0xbccc92e9	-0.024972396
28	0xbcb0bbba	-0.02157389
29	0xbcabe654	-0.020983852
30	0xbc8bdcc7	-0.017073048
31	0x3d04f4ae	0.032459907
32	0x3cba3aec	0.022733174
33	0xbc3f32a2	-0.011669787
34	0x3ce8f118	0.028435275
35	0x3a98c7e7	0.0011656255
36	0xbb24dca0	-0.0025155917
37	0xbce0680d	-0.027393365
38	0xbbaea7df	-0.0053300704
39	0xbd78da1e	-0.060754888
40	0x3c932bbd	0.017965192
41	0x3b73beb1	0.0037192518
42	0x3d2321f3	0.0398273
43	0xbbc17bc5	-0.005904647
44	0x3b429e27	0.0029696317
45	0xbcc8a88e	-0.024494436
46	0xbd33a59c	-0.04385911
47	0x3cdd37b9	0.02700411
48	0x3ad0d4ac	0.0015932522
49	0x3b5543c0	0.0032541603
50	0xbd487816	-0.048942648
51	0x3b0df92a	0.0021663406
52	0xbd31c97d	-0.043405045
53	0x3cab4343	0.020906096
54	0xbd05a15b	-0.032624584
55	0xbd78507c	-0.06062363
56	0xbcfdf26f	-0.03099939
57	0xbd54efaf	-0.051986393
58	0xba97f4fc	-0.0011593397
59	0xbd45b3e3	-0.048267256
60	0xbcf5b9ce	-0.029995825
61	0xbc991762	-0.018687908
62	0xbc4b7719	-0.012418532
63	0x3ca0334d	0.019555712
64	0x3d07fc13	0.03319938
65	0xbcbf2d57	-0.02333705
66	0xbd2898f6	-0.0411615
67	0xbd01e6a3	-0.031714093
68	0x3c48e97b	0.012262697
69	0x3b01c0a1	0.0019798654
70	0xbc3ca78c	-0.011514556
71	0x3c4448c9	0.011980244
72	0xbba6f179	-0.0050947038
73	0xbc610ab4	-0.013735462
74	0xbd9f172f	-0.07768094
75	0xbd240319	-0.040042017
76	0xbc6bad7b	-0.014384623
77	0x3c4c7846	0.012479847
78	0x3c9921f2	0.018692944
79	0x3cf38446	0.029726159
80	0xbadc076b	-0.0016786879
81	0x3c24177c	0.010015365
82	0xbd69e11c	-0.057099447
83	0xbcac34d1	-0.021021279
84	0xbc61a601	-0.013772489
85	0xbd21d958	-0.039513916
86	0xbce533b0	-0.027978748
87	0xbc075213	-0.008259314
88	0xbc11d7c7	-0.008901543
89	0x3c11dec6	0.008903211
90	0xbc465a9a	-0.012106562
91	0x3c96ec66	0.01842327
92	0x3c8e4a1d	0.017369324
93	0x397d5e2c	0.00024163042
94	0x3ca72aea	0.020406205
95	0xbb4ef2f1	-0.003157791
96	0xbc677e06	-0.014129167
97	0x3c9ea29a	0.019364644
98	0x3cb4d6b5	0.022075037
99	0xbcfd7e45	-0.030943999
100	0xbc53020b	-0.012878905
101	0xbcdf2b27	-0.027242256
102	0xbbbee31b	-0.005825413
103	0x3b3fdf8a	0.0029277527
104	0xbd28b79f	-0.04119074
105	0x3d8d6949	0.06904847
106	0xbcf25f91	-0.029586585
107	0xbd25b149	-0.040452275
108	0xbbeafcc8	-0.007171247
109	0xbcc97abb	-0.024594655
110	0xbc5aa1e3	-0.013344261
111	0x3d712b98	0.058879465
112	0xbc3a9f88	-0.011390574
113	0x3defa87d	0.117020585
114	0x3d684537	0.056706633
115	0x3c7071fe	0.014675615
116	0x3cf9322c	0.030419432
117	0xbc537973	-0.012907374
118	0xbd75e82f	-0.06003588
119	0xbd2dc8ea	-0.042427935
120	0xbd590915	-0.052987177
121	0x3cce7343	0.025201445
122	0x3d1a1645	0.037618894
123	0x3d0e24df	0.03470313
124	0xbd403784	-0.046927944
125	0xbb984851	-0.0046472927
126	0x3c099fa6	0.00839988
127	0xbc7b8a0c	-0.015352737
128	0xbd833380	-0.06406307
129	0x3d035aab	0.03206889
130	0x3c4b0e3f	0.012393533
131	0x3c9efd09	0.019407766
132	0x3c56a43d	0.013100681
133	0x3d17980d	0.03701024
134	0x3b21650c	0.002462688
135	0xba49e34f	-0.0007701413
136	0xbc0440e9	-0.008072116
137	0xbcad2351	-0.021135004
138	0x3d3e59a2	0.0464722
139	0xbc9a94c9	-0.018869774
140	0xbcd4f2af	-0.025994627
141	0x3c7221d1	0.01477857
142	0x3d711305	0.05885603
143	0x3d87bf17	0.06628244
144	0x3d3d7078	0.046249837
145	0x3ce32640	0.0277282
146	0x3cfe0df0	0.031012505
147	0xbcf390db	-0.029732158
148	0x3c392213	0.011299628
149	0xbc9985b0	-0.018740505
150	0x3bd4ff06	0.0065001277
151	0xbd2ad312	-0.0417052
152	0xbd5d0ac6	-0.053965352
153	0xbd2620d6	-0.04055866
154	0x3c1fbeeb	0.009750108
155	0xbcc4adc1	-0.024008634
156	0xbc82f8b5	-0.015987733
157	0x3b643b4f	0.003482539
158	0xbca8d0af	-0.02060732
159	0xbd371bf2	-0.044704385
160	0xbbc5ff14	-0.0060423706
161	0xbd47ec08	-0.04880908
162	0xbd12b50f	-0.035817202
163	0xba8b5d5f	-0.0010632685
164	0xbd1e1e39	-0.03860304
165	0x3c855bcc	0.016279124
166	0xbbaba187	-0.0052377614
167	0x3c8fd70c	0.017558597
168	0xbd5f0316	-0.054446302
169	0xbd106848	-0.0352557
170	0x3c20cc75	0.009814371
171	0x3c05a2e9	0.008156517
172	0x3d05642d	0.03256624
173	0x3c872346	0.016496312
174	0x3d0dcb83	0.034617912
175	0x3d7d0ee5	0.061781783
176	0x3ccfab51	0.025350245
177	0xbd60bed7	-0.0548695
178	0xbd20f6ca	-0.039297856
179	0xbb8a2f53	-0.0042170673
180	0xbbea712d	-0.007154605
181	0x3cd209a3	0.02563936
182	0x3d245a07	0.04012492
183	0xbc12b9df	-0.008955448
184	0xbd749feb	-0.059722822
185	0xbcd98044	-0.02655042
186	0xbc12ab1b	-0.008951928
187	0xbbccd2ed	-0.0062507303
188	0xbcf01875	-0.029308537
189	0xbc3a470a	-0.011369476
190	0x3c3f482b	0.011674921
191	0xbc8ee16a	-0.01744147
192	0xbd72f0b3	-0.05931158
193	0xbc7d0b23	-0.01544455
194	0x3d01a709	0.031653438
195	0xbbea3e16	-0.0071485145
196	0x3c0259e5	0.007956003
197	0xbd091551	-0.033467595
198	0xbc7a8869	-0.015291312
199	0xbd0daac8	-0.034586698
200	0xbcc511af	-0.024056284
201	0xb930f550	-0.00016876054
202	0xbbb9cf1b	-0.005670441
203	0x3ad29007	0.0016064652
204	0xbd848438	-0.06470531
205	0x3ccca339	0.024980174
206	0xbd17ff4c	-0.037108704
207	0xbda52690	-0.08063996
208	0x3d8fe942	0.07026912
209	0xbd03f094	-0.032211855
210	0x3ce1c42e	0.027559366
211	0x3d884b82	0.06655027
212	0x3c428704	0.011873011
213	0x3d7e6b02	0.06211377
214	0x3d4838b7	0.048882212
215	0xbd72ee9b	-0.059309583
216	0xbcba17a5	-0.022716353
217	0xbd41e295	-0.047335226
218	0xbdba14f8	-0.09086031
219	0xbd2c9e02	-0.042142875
220	0x3c36c5d1	0.011155562
221	0xbd92402b	-0.07141145
222	0xbc799e53	-0.015235501
223	0xbb02ccbf	-0.0019958464
224	0xbc607ce6	-0.013701653
225	0x3cdf2474	0.027239062
226	0xbd88bb0b	-0.066763006
227	0xbd4170b7	-0.047226634
228	0xbb27ec83	-0.002562315
229	0x3be1b758	0.0068883114
230	0x3b2c0d64	0.0026253099
231	0x3c23b193	0.009991067
232	0x3c43f0ff	0.011959313
233	0xbcf14936	-0.029453855
234	0x3cf5a242	0.029984597
235	0xbc0e7af8	-0.00869631
236	0xbc5dda3b	-0.0135408
237	0x3d097e80	0.033567905
238	0xbd6705b6	-0.05640193
239	0x3cd1329b	0.025536826
240	0x3c9c32e2	0.019067232
241	0xbbfd22fe	-0.0077251187
242	0x3d2a5f3b	0.041594725
243	0xbc1b7a11	-0.009489552
244	0x3d088ba6	0.033336304
245	0x3d8524cb	0.06501158
246	0xb9326bb3	-0.00017015524
247	0xbc0178f7	-0.007902375
248	0xbc5c410d	-0.013443244
249	0xbd3c30f8	-0.045945138
250	0x3bc07b71	0.0058740904
251	0xbce8d973	-0.028424
252	0xbd249ecf	-0.040190514
253	0xbd1135d5	-0.03545173
254	0x3c6fa323	0.014626297
255	0xbccb03f4	-0.024782158

fc.bias f4 [3]
0	0xbce0c1c1	-0.027436139
1	0x3d01e6ea	0.031714357
2	0xbda15128	-0.078768075
