routes/model7.pkl (torch_old, 22511 bytes, 14 tensors)

conv1.0.weight f4 [4, 1, 5]
00000000: 324f 583e 050a e63d 9e47 10be 52d3 09be
00000010: df69 84be 4625 393e 8376 a43e d3eb 0b3e
00000020: 926c dfbb f176 c2bd 4d79 53be 4c5f 7bbe
00000030: 8bb1 933d 253b cf3d ddf7 b4bc 87ce 4cbc
00000040: f4f9 003c 964c 723e cce1 883e 063f 473e
0.2112396 0.1123238 -0.1408982 -0.13459519 -0.25862023 0.18080625 0.32121667 0.13664179
-0.0068183625 -0.094953425 -0.20651741 -0.24548072 0.07211598 0.10118703 -0.022090847 -0.012500412
0.0078720935 0.23662028 0.2673477 0.19457635

conv1.0.bias f4 [4]
00000000: 75a8 4c3d bc6b 76be 45a7 8bbe 0991 983d
0.04996534 -0.24064535 -0.27276054 0.07449538

conv2.0.weight f4 [8, 4, 5]
00000000: f627 263c 08a3 75be ea87 aabc b6dc 3f3e
00000010: 626e bc3c 2504 9dbd ffbe d43c cb07 b63c
00000020: 313f 83bd 20d8 e6bd 259e 5abd fa29 44bc
00000030: d8ac b83d a3db 2b3e 7604 02be 9dd5 92be
00000040: a1b7 bdbd 1af4 adbd d5bc e9bd 8244 d6bd
00000050: 619e babd 28b4 61bd 8bd7 303d cceb b0bb
00000060: f8d1 77be 3b7f f3bd 8051 633d 696d c93d
00000070: 960e 1a3e eebf b43b c9bf aa3d 3c0b a8bd
00000080: a9ee 41ba 32c9 bd3d 5e6b 24b9 a9c1 fd3d
00000090: 4fea 783d 572e e4bd a407 aabc cd1a aebd
000000a0: 497c bf3d b800 a6ba c849 edbd 465f 57bd
000000b0: 65d0 2fbe 89b1 c5bc 97d0 593e 8289 dc3d
000000c0: 2d93 15be bb28 1a3d 396d 6b3d c0b7 1fbe
000000d0: bd9b 19be 3477 15bd 72f6 0f3e 391e 17be
000000e0: 1da6 bf3c dc8e 01be 7e8c a3bd dd2b 9c3d
000000f0: dc40 d6bd 781d 10be f4c1 4bbe 3b50 4bbd
00000100: 63e1 d3bc 91e1 d5bd 3d26 88bd 14a4 27be
00000110: 1343 ed3d 326d 83bc debe 8dbd b919 af3d
00000120: 73c7 793c 5c11 b0bd 99ee c83d f39a 463e
00000130: 9455 4abe 4dcc 7a3d 9fb8 363e 2e78 e3bd
00000140: 6162 54be 09e1 723d 8946 133d 9848 9cbd
00000150: 3c6d 73bd 7375 993d 8f6b c73c fbc3 13be
00000160: f0c1 83be e3a6 54be 72a9 b03d a02c 6936
00000170: e7f4 87bc b09c 85be 6ce3 e5bd 6f8b 063c
00000180: 3058 91be c633 3abe 8544 01be 1a21 cebc
00000190: b83b a0bd 5dbf 483e ff55 863d 156b df3d
000001a0: d6ad 6fbd 40d1 f53b 79b7 03be b8b5 d5bd
000001b0: f3b9 293e a1fd c43c bdf7 ef3c 1eae 383e
000001c0: a07b b1bd 1cdb a4bc 906d 353c dedc 1d3e
000001d0: be22 eb3d 030b ac3c 6e20 4a3d 67c4 1abe
000001e0: 6bb1 cabd 702e 35be 0537 28be 213f 5bbe
000001f0: c0d7 80be 54c2 cebd 21be 973c a037 ef3c
00000200: e15b 90bd 796e a2bd 1a4c 45be a4f6 eb3d
00000210: 55b9 f33d ae78 213d 482d efbd 423b 2bbd
00000220: cfb8 c5bc c131 09be b8e6 0abe 60bb 0c3e
00000230: 05f0 013e aa39 4ebd 093e e63b b0c4 5dbe
00000240: 3d66 dabd f471 b1ba 8e70 efbd ac97 14be
00000250: 90bf f53c 2d07 a9bb 737a f2bd 8440 873c
00000260: adcd 17bd d935 ab3d b06d 03bd 362a 293e
00000270: 9c4a 6fbe ab9b b8bd a9af f53d c2c3 34be
0.010141363 -0.23987973 -0.020816762 0.18736538 0.023001853 -0.07666806 0.02596998 0.022220513
-0.06408537 -0.11271691 -0.053373475 -0.011972899 0.09017342 0.16783004 -0.12697014 -0.286786
-0.0926354 -0.08493824 -0.1141297 -0.104622856 -0.0911224 -0.05510345 0.043174308 -0.005399203
-0.2420119 -0.11889502 0.055497646 0.098353215 0.15044627 0.005516044 0.08337361 -0.08205268
-0.0007397929 0.092668906 -0.00015680256 0.12390453 0.06077033 -0.11141651 -0.020755596 -0.085012056
0.093498774 -0.0012665009 -0.11586338 -0.052581094 -0.1716934 -0.024132507 0.21270977 0.10768415
-0.14606924 0.0376365 0.05747721 -0.15597439 -0.15000816 -0.036490634 0.14058855 -0.14757623
0.023394639 -0.12652153 -0.07985781 0.07625554 -0.1046159 -0.14073741 -0.19898206 -0.04963706
-0.025864309 -0.10443414 -0.066479184 -0.16371185 0.11585059 -0.01604328 -0.06921171 0.08549828
0.015245306 -0.08597061 0.09811134 0.19395046 -0.19759208 0.061229993 0.17843865 -0.11106907
-0.20740654 0.05929664 0.03595594 -0.07631034 -0.059430346 0.07493105 0.02434328 -0.1443023
-0.257339 -0.20766787 0.08626069 3.474568e-06 -0.01659627 -0.26096106 -0.11225018 0.0082119545
-0.28387594 -0.18183812 -0.12623794 -0.025162268 -0.078238904 0.1960425 0.06559371 0.10909096
-0.058515392 0.007501751 -0.12862958 -0.10435051 0.1657484 0.024046721 0.029292936 0.1803517
-0.08666158 -0.02012401 0.011073485 0.15416285 0.11481236 0.021001345 0.049347334 -0.15113984
-0.09897121 -0.17693496 -0.16427238 -0.214108 -0.25164604 -0.10095659 0.018523278 0.029201329
-0.070487745 -0.07931227 -0.19267312 0.11521652 0.11900584 0.03942173 -0.116785586 -0.04180456
-0.024135975 -0.13397886 -0.13564575 0.13743353 0.12689216 -0.05034796 0.007026438 -0.21657062
-0.10664032 -0.0013537989 -0.1169139 -0.14510983 0.02999857 -0.005158326 -0.118397616 0.016510256
-0.037061382 0.0835988 -0.032087028 0.16520008 -0.23368305 -0.09014066 0.11996395 -0.176528

conv2.0.bias f4 [8]
00000000: 4706 2ebe 3844 6fbb 6c10 a0bd b3b0 4bbe
00000010: 1ed1 1a3d edfb 70be 3507 f5bd a597 063e
-0.16994582 -0.0036509167 -0.07815632 -0.19891624 0.037797086 -0.23533602 -0.11964265 0.13143785

conv3.0.weight f4 [16, 8, 5]
00000000: 43ba d5bd 7fbc 913d 69a8 89bd 1c9a 1abe
00000010: 5df7 cfbd 744b 31bb 2b52 813d adaf 083e
00000020: 6c23 79bc 93ff c03d 0016 333d 0070 da3d
00000030: a8d9 77bd da18 debd ccf5 58bd a3c7 fabc
00000040: f8ce 48bc ad20 04bc 598c 84bd 6a2c d93d
00000050: 5854 d3bd 92d6 9b3c 3716 233e 45ff f63b
00000060: 8949 963d 594f c93d 6c21 d73d 837d 203d
00000070: 2d59 35bd aba9 dbbc 010d 0bbd 7602 243d
00000080: ef7e c8bd 027c cd3d 7ece 02be 7b4b b1bd
00000090: 6b5f 6fbb 7d9a a23d dad4 bbbc 92c1 26be
000000a0: e253 11bd 0a78 12be da16 ccbd 3ffe a53d
000000b0: a328 fd3c 3f77 7ebc b776 05bd eb58 24be
000000c0: 7d8e 80bd 9363 b3bd 8b43 c53d d6de 0ebe
000000d0: 33c3 62be 4bb9 52bd 1b06 373c b432 2bbe
000000e0: 52bc ed3b 7773 ddbd 3e22 0ebe 7a0a a93d
000000f0: ea2f d73d a13d f5bc 2e5d 42be bfd3 c33c
00000100: edde 0fbd 49dd 4abd 5125 4fbd 2fd8 6f3c
00000110: b5f6 cebc 9eb8 71bd d92d 07bd ebab c1bd
00000120: 9b39 20be 03a3 8c3d 9ba3 a23c ee06 a43c
00000130: d2e0 0bbe c548 10bd d14d 4b3d e461 a83d
00000140: 4886 873b 8ba2 29bb 3952 793d 3c2c d73d
00000150: a88b 98bd c137 9e3c 8088 b0bd dc9f abbd
00000160: 2045 d43d ec6b b43c 99ed 29bd 1bb2 6a3d
00000170: 53f7 e73d 71a6 64bd bc55 173d d2c9 37bd
00000180: 71d2 cf3d 216b 07bd 8158 0a3e 8a03 483d
00000190: 578b ff3b 77c1 e6bd b20a 193e 4041 133e
000001a0: b09a db3c c411 c63b 9f46 af3d 021d 0fbe
000001b0: 90fd dfbd a279 973d 6945 e6bd c689 34be
000001c0: 87a0 26bb b6ea 92bd 20b3 843d 5eb7 ee3b
000001d0: 6545 66bc 5d03 0e3e 5a71 c7bd 9a57 823d
000001e0: 4aee e9bd cd54 6e3d 698c f1bc d233 40be
000001f0: d221 02bd 1e08 523d 7aed 363d be6f 0abe
00000200: e8e6 86bd 2417 8bbd 0b97 f0bd 6007 233b
00000210: 470a 3abb 0a53 9f3d 2b7f 463d 7157 1b3d
00000220: a856 debd 438d f03d 96bb ffbd 248a 42bd
00000230: a8e5 1a3d 3b5f 1c3d 1b82 303d e6e4 ba3d
00000240: 550f 8f3d 5f3e 19be 7805 cebb 8174 d2bd
00000250: 8433 be3c afd1 3b3d d714 df3d 5d7f 813d
00000260: ef1e 14be ad20 cbbd 971d f93c 7525 d1bd
00000270: c643 533d 195c 4dbe 390e 433d 7545 b63d
00000280: d4b9 aa3d f215 cabc 2b50 1abe 9284 2cbc
00000290: 5e33 cabd e346 08be a2df ffbd 5703 9c3d
000002a0: 06f5 3abd 0f2f 233e daac c8bd 8258 353d
000002b0: fbd8 123e ad3c a23d cce3 6abd 4b5a a13d
000002c0: 37d6 95bd b9f1 58bd 7831 0bbe a446 1c3e
000002d0: f737 07be 3be0 3cbd 13bf 0cbc 0d69 febc
000002e0: c588 253e e955 efbd c90c eabc 2775 cd3d
000002f0: ad66 dfbd 4a8a 0f3b c766 1ebe 7aaa f53c
00000300: 40e6 e83b f87c c03c 8e6d b63d dcb6 eebd
00000310: 2849 a4bd de87 4dbb 95cc 943d c807 9d3d
00000320: 9bb4 b23d d4c3 3c3d 1394 243d d184 6abd
00000330: 6cf3 c0bc 3b1f febc aff4 e7bc c400 293d
00000340: c270 ef3c 06a4 9bbc f675 ad3d 98d4 023e
00000350: 0306 be3d 5a43 213e 2e4f 8abd 4ebd 9cbb
00000360: de71 e2bd 66c8 353e 7e38 293d bbb6 613d
00000370: fd52 b43d 9900 08be 9aa7 febb 67f4 cf3c
00000380: 1617 8bbd e135 303d 28de 11bc a2cb 853d
00000390: 0cd9 b3ba 7421 df3d 83b4 db3d a1fb b93d
000003a0: d695 803b 0186 2b3e e716 593d aed5 33bd
000003b0: 4d56 413c d82d 253d 34fa 0d3d 1465 86bc
000003c0: ca86 593d dda8 e63a f12c 0cbe 6245 10be
000003d0: 33db bdbd d32f 39be 69e0 1bbe 306e b3bb
000003e0: dbfe 5bbd 507e d6bd 6cdf b13b d9dc bd3c
000003f0: 14aa 50bd 7097 abbd f210 8ebc 421b d6bd
-0.10435917 0.07116031 -0.06721575 -0.1509785 -0.10154603 -0.002705303 0.063145004 0.13348265
-0.015206199 0.09423747 0.043722153 0.106658936 -0.060510308 -0.10844584 -0.052968785 -0.030612772
-0.012256376 -0.008064431 -0.06472082 0.106041744 -0.10318822 0.019023214 0.15926443 0.0075377547
0.073382445 0.098295875 0.105044216 0.039182197 -0.044274498 -0.026814302 -0.03394795 0.04004141
-0.09789836 0.10033418 -0.12774083 -0.08656975 -0.003652538 0.079396226 -0.022928644 -0.16284779
-0.035480388 -0.14303604 -0.09965296 0.08105134 0.030903166 -0.01553136 -0.03258392 -0.16049545
-0.062771775 -0.08759227 0.096320234 -0.13952193 -0.22144775 -0.05144624 0.011170889 -0.1671856
0.0072551155 -0.10813039 -0.1388025 0.08253951 0.10507186 -0.029936614 -0.18980858 0.02390468
-0.035124708 -0.04952744 -0.050572697 0.0146389445 -0.025264123 -0.059013955 -0.033002708 -0.09456619
-0.15646975 0.068670295 0.019853404 0.020022836 -0.13659981 -0.03522565 0.04963476 0.08221796
0.0041358806 -0.0025884237 0.06086943 0.10506484 -0.07448512 0.019313695 -0.08619785 -0.083801
0.10364747 0.022024117 -0.041486356 0.05729876 0.1132647 -0.055822793 0.036946997 -0.044870205
0.101475604 -0.03306115 0.13510324 0.0488315 0.007798593 -0.11267369 0.14945486 0.1438036
0.02680716 0.0060445983 0.08558392 -0.1397591 -0.10937035 0.073962465 -0.11243708 -0.17630681
-0.0025425272 -0.07173674 0.06479478 0.0072850427 -0.014054631 0.1386847 -0.09738417 0.06364365
-0.11422403 0.05818634 -0.029485898 -0.18769768 -0.031770535 0.051277272 0.04466007 -0.13519189
-0.065870106 -0.06791523 -0.11747559 0.0024876222 -0.0028387473 0.0777951 0.04846112 0.037925187
-0.10856372 0.117456935 -0.12486951 -0.047495022 0.037816674 0.038176756 0.04309283 0.0912569
0.06985346 -0.14965199 -0.006287273 -0.102761276 0.023217924 0.045854267 0.10892647 0.06323121
-0.14464925 -0.09918342 0.030409617 -0.102122225 0.051578306 -0.20054664 0.047620986 0.088999666
0.08336225 -0.024668667 -0.15069644 -0.010529654 -0.09873079 -0.13308291 -0.124938264 0.076178245
-0.04564383 0.1593592 -0.09798594 0.04427386 0.14340584 0.07921729 -0.05734615 0.0787855
-0.07316249 -0.0529649 -0.1359309 0.15261322 -0.13204943 -0.04611228 -0.0085904775 -0.031055951
0.16165455 -0.11686308 -0.02857055 0.10032111 -0.10908256 0.0021902495 -0.15468894 0.029988516
0.007107526 0.02349709 0.08907615 -0.116559714 -0.08021766 -0.00313615 0.072655834 0.076675
0.08725854 0.046085194 0.040180277 -0.05725557 -0.023553573 -0.031020751 -0.028314916 0.041260496
0.029228572 -0.01899911 0.08469765 0.1277641 0.092784904 0.15748349 -0.067533836 -0.004783309
-0.11056875 0.17752227 0.04131364 0.055105906 0.08804891 -0.13281478 -0.0077714445 0.025385095
-0.06791513 0.043020133 -0.008903064 0.065329805 -0.0013721301 0.108950526 0.10727789 0.090811975
0.003924112 0.16750337 0.053000357 -0.043904953 0.011800361 0.040326923 0.03466244 -0.01640562
0.05310706 0.0017597933 -0.13689019 -0.14088967 -0.092703246 -0.1808465 -0.15222324 -0.005475782
-0.053709846 -0.10473311 0.0054282453 0.023176597 -0.05094345 -0.08378494 -0.017342065 -0.10454418

conv3.0.bias f4 [16]
00000000: f750 7e3d 3d54 163e 4aea c43d 122f d83c
00000010: f4aa a0bd 30a4 113d 5f48 04be 62a7 4a3c
00000020: 7f3a 22be a0ca a0be c047 c73d 0968 dbbc
00000030: 8d61 8e3c f32a c0bd 5db0 84be 4f57 8ebd
0.062088933 0.14680572 0.096149996 0.026389632 -0.07845107 0.035556972 -0.12918232 0.012369009
-0.15842627 -0.3140459 0.09730482 -0.026783006 0.0173805 -0.09383192 -0.25915805 -0.069502465

conv4.0.weight f4 [16, 16, 5]
00000000: 609c aabd eabc 053d 50cd c6bd 6e81 6bbd
00000010: bf6b 603d b1da 943c d152 bdbd 9704 2d3c
00000020: 7da3 0bbd 6563 2cbd 534a afbd 7630 75bd
00000030: 484c 60bd fa69 5bbd 787d a9bd 2728 8e3d
00000040: 7b32 c53c 3b4d 1ebd d189 f9bd 6e9f 98bc
00000050: 42a1 e3bc 86c0 b6bb be0e b03d ce35 14bd
00000060: 9ee9 a2bd 14b8 8bbc 3caa 88bd 4b4b 94bc
00000070: c5bf 3dbd 8184 aabd 9427 f73c f647 a4bc
00000080: c542 653d 5c3b 993d 844f 4fbd 0511 c23c
00000090: 9978 ebbd c293 a93d 9a4e fdbb ba96 efbd
000000a0: e884 8f3d d6aa e0ba 7ded cc3d 2854 e33c
000000b0: 4091 c6bc 4319 6cbd 6672 d2bc 71ca c6bc
000000c0: e117 87bc 1628 b23b c887 9abd ae37 343c
000000d0: 3864 9bbd 1466 c63c 8559 723d 3cd9 ccbd
000000e0: e7f5 9e3d 811a 993c 9392 713b 967e 723d
000000f0: dd35 213d 9929 9bbc f816 a6bd fb2f 1bbd
00000100: 125c e13d 86fb 1ebd 8131 003d 210e 63ba
00000110: 7bd1 8a3d 7a51 7bbd 2d47 1ebd a2f7 04be
00000120: 3964 063c 0a1c bf3d 23b3 aabd 4ac2 f53a
00000130: 7bf6 bcbd 6ddc da3d bd68 92bd 5623 aabd
00000140: 6ab8 58bd e618 87bd 3fc4 0cbc d4da adbd
00000150: 7c94 f33c dd8f 84bb 3819 6f3b 45ea 92bb
00000160: 9fa3 903d e6d7 ef3c 8aab babd 2a66 833b
00000170: 2283 91bd 6bb5 f33c 5ac6 f93c 4540 4abc
00000180: 4773 56bd 0718 3c3d 3f4e c53d 3f71 0dbd
00000190: ae7c b2bd 496c ebbc cda0 babd ae4c 8abd
000001a0: 1b82 39ba 5394 ecbc bd94 6aba 98b4 1cbd
000001b0: 2c5b 563d b4da 3fbd 8f43 a4bc a69e 36bc
000001c0: 3db5 0ebd 9c58 82bd 3bac 7cbd 3c6d a93d
000001d0: 5f08 db3c 3375 be3b 1570 a63d 0880 ad3c
000001e0: b46d 643c b34a aebd 183c 46bd 24a3 17bd
000001f0: c2be d33d 70a5 8ebd b129 48bc 4770 0c3d
00000200: 20c1 07bd 55cf b93c 93da 39bd 29d3 3cbd
00000210: 3b0d a7bd bef0 153d 7554 1a3d 143c 20bd
00000220: 05ca 303c dac8 2cbc 9353 a73d 92e9 85bc
00000230: d893 0a3c a6c5 6bbd fdef 13bd 3ad9 16be
00000240: 3573 0b3d b231 19bd bb75 09bd 858c ba3c
00000250: 6fcc 87bb ed14 763d ee15 913d 5a9b c4bd
00000260: c2d5 1dbd 0d78 f4bc a060 853c 85fc 3abc
00000270: 8c01 91bd 79fd 1bbc 2aaa b13c e2f6 5abc
00000280: cc09 23bd 9239 42bd a4d4 3bbd f028 973d
00000290: 15ba c93b 9466 9abd 958f 97bd 362f 49bd
000002a0: c119 af3c a37e d73b 3108 9dbc 0217 ccbd
000002b0: 7022 803d 944e 673d 0698 cf3c dd94 bcbd
000002c0: ce82 1d3d 979e 993d 2564 2b3d 845e 87bc
000002d0: a6f3 b5bd 8787 afbc 99f0 fd3c 25e0 773d
000002e0: 59bf 4ebd a426 fcbc a15e b7bc c8c6 323d
000002f0: c460 8a3c 82ca d5bc 777c cabc 1e30 263c
00000300: d28c 81bd 7f4d 41bc 8286 c8bd 2fa7 dbbc
00000310: 025f 4cbd 8592 5d3c d512 5c3c 9562 983d
00000320: 4495 353c de31 c7bd 24db 613c 084b 5cbc
00000330: 0c07 cb3d dda3 d0bc 4812 393b ce02 103d
00000340: 70be f63c 651e 48bc 079b 42bc 8c16 ae3c
00000350: 16c3 5fbb 1228 803c 469c e8bd 0419 84bd
00000360: 0289 04bd 68eb febd 6899 66bd 7169 973c
00000370: f550 faba 21fd 00be 0187 823d 6fdc c2bc
00000380: 573c 5fbb 0596 c8bd e3c8 bfbc 7d03 12bd
00000390: 565f 9f3d b99e d73d 73b3 463c 7a4c 72bd
000003a0: 3c8e 8dba c544 c83c 0ee4 d0bc a722 c5bd
000003b0: df2e 9a3c 2e14 673a 1ed8 973c 31d0 b7bc
000003c0: 8c84 603c 7c5e bfbd 7f25 76bd 3e8f 823c
000003d0: 0b6a db3c 1f3c 8fbc b12e c0bd 1cd1 2d3d
000003e0: 0037 943d d825 fabc c098 4cbd fa51 b0bd
000003f0: d3b8 4cbc 74a0 3b3d b0af fe3c fd51 a3bd
-0.083306074 0.032650866 -0.09707129 -0.05749648 0.054790255 0.018170686 -0.092443116 0.010560176
-0.03409146 -0.042086978 -0.08559098 -0.05986067 -0.054760247 -0.053567864 -0.082758844 0.06941252
0.024071923 -0.03864787 -0.121844895 -0.01863071 -0.027786855 -0.00557715 0.08596562 -0.036184125
-0.07954715 -0.017055549 -0.06673095 -0.018102309 -0.046325464 -0.08326054 0.03017024 -0.020053845
0.05597188 0.07482025 -0.05061294 0.023689756 -0.114976116 0.08280136 -0.0077303173 -0.11698671
0.07007772 -0.0017140757 0.10006235 0.02775009 -0.024239182 -0.05764128 -0.025689315 -0.024266453
-0.016490879 0.0054369075 -0.075454295 0.010999603 -0.075874746 0.024218597 0.059167404 -0.10002372
0.07761746 0.018689396 0.0036861047 0.059202753 0.03935801 -0.018940734 -0.0810985 -0.037887555
0.11003889 -0.03881409 0.03129721 -0.0008661468 0.067782365 -0.061357 -0.038642097 -0.1298509
0.008202606 0.0933152 -0.08334949 0.0018749919 -0.092267 0.10686574 -0.071488835 -0.08307521
-0.052910246 -0.06596546 -0.008591711 -0.08489004 0.029733889 -0.00404547 0.0036483537 -0.0044834935
0.07062458 0.029277753 -0.0911475 0.0040099816 -0.0710509 0.029749593 0.03049009 -0.012344425
-0.05235603 0.04592135 0.09634065 -0.034531828 -0.08715187 -0.028738158 -0.091127016 -0.06752907
-0.0007076577 -0.02887932 -0.00089485553 -0.038258165 0.052333042 -0.04683943 -0.020051746 -0.011146223
-0.03484081 -0.06364557 -0.06168769 0.08272788 0.02673739 0.005812311 0.08126847 0.021179214
0.013942171 -0.085103415 -0.048397154 -0.037020817 0.103391185 -0.069651484 -0.012216971 0.034286764
-0.033143163 0.022681871 -0.045374464 -0.046099816 -0.081568204 0.036606543 0.0376782 -0.039119795
0.010790353 -0.010545934 0.081702374 -0.016346727 0.0084581 -0.05756154 -0.036117543 -0.14731303
0.034045417 -0.03740091 -0.033559542 0.022772083 -0.0041442434 0.06007855 0.07084261 -0.095999435
-0.038533933 -0.0298424 0.016281426 -0.011412744 -0.07080373 -0.009520882 0.021687586 -0.0133645255
-0.039804265 -0.047418185 -0.045857087 0.07380855 0.006156216 -0.075390965 -0.07400433 -0.04911729
0.021374585 0.0065763756 -0.019168945 -0.09965326 0.062565684 0.056471422 0.025341045 -0.09208081
0.038454823 0.07500952 0.041843552 -0.01652456 -0.08884363 -0.02142693 0.030998515 0.060516495
-0.050475452 -0.030780144 -0.02238399 0.043646604 0.016891845 -0.02609754 -0.024717553 0.010143308
-0.063256875 -0.011798262 -0.0979128 -0.026813118 -0.049895294 0.0135237025 0.013432224 0.07440678
0.011082951 -0.09726308 0.013785157 -0.013445623 0.099134535 -0.025468761 0.0028239656 0.035158925
0.030120105 -0.012214278 -0.011877782 0.021250986 -0.003414338 0.015644107 -0.11357932 -0.06450084
-0.032357223 -0.12447244 -0.056298643 0.018482896 -0.0019097613 -0.12596561 0.06373406 -0.023786752
-0.0034063065 -0.09794239 -0.02341122 -0.035647858 0.07781856 0.10528321 0.012127745 -0.059154965
-0.0010799835 0.024446854 -0.02549937 -0.0962575 0.018821178 0.00088149577 0.01853567 -0.02243814
0.013703477 -0.09344193 -0.060094353 0.015937444 0.026783964 -0.017484723 -0.09383906 0.04243575
0.07237053 -0.030535623 -0.04995036 -0.08609386 -0.012495237 0.045807317 0.031089634 -0.079746224

conv4.0.bias f4 [16]
00000000: d388 d7bd e1e1 85bd 7314 1cbe 6f2d f53d
00000010: ce34 213d 4456 613d c76d 223d 9fd4 9b3d
00000020: 44f0 a9bd 5e29 9e3d ce1c 123d 8f52 08bd
00000030: d521 e03c 8627 e4bd 16f2 e43c c821 083e
-0.10524144 -0.065372236 -0.15242176 0.119715564 0.039357 0.05501391 0.039655473 0.07608914
-0.0829778 0.07722734 0.035672 -0.03328186 0.027359882 -0.11140351 0.027947467 0.13294137

conv5.0.weight f4 [16, 16, 5]
00000000: 20ad c3bc 9b81 64bd 08a2 a43c a8d1 a9bc
00000010: 0a9f a7bd c054 8a3c 7c3d 5c3d 000f 08bc
00000020: 482c 95bd 24f1 babc 6e94 cd3d 508e b73d
00000030: be66 dabd 9872 9abd 8c8e a43d 638d 5cbd
00000040: 603e b0bd d07c 093d ff61 ddbd a0ba 60bc
00000050: 9dd2 e3bd d76f d0bd 30ba 17bd 8cbc 33bd
00000060: 9828 de3c 9014 84bb d6e5 913d 6426 26bd
00000070: b89b 9e3c f058 90bd 600c f33c fcc4 75bd
00000080: 381c 903d a4c2 6e3d fcad 7e3d f33b b0bd
00000090: 8435 8fbc 709f 14bc e03b 4fbc 18b0 d23c
000000a0: 466b b63d 7454 b8bd aaed 7abd 3808 683d
000000b0: b8c8 073d 004b e7b9 0601 ad3d 8c2a 8abd
000000c0: 9a29 b6bd b433 dc3d b0bd e53c e020 00bb
000000d0: 80eb eabc a4ac 86bd f872 323c 8224 90bd
000000e0: a878 52bd 80d6 d5bd 3899 04bd 50fb 5d3d
000000f0: e849 e73c 3320 b3bd a71d 7abd a0af 4e3d
00000100: ac9c 6e3d 50e2 8f3c 5c08 5e3d d8c7 7f3d
00000110: 78ad 1ebd e009 5fbc 824a b93d d818 be3d
00000120: f664 af3d 30cc d43b b4f6 e7bc 1095 903d
00000130: 4d86 a3bd fcc6 c6bc 28fc 9a3c c055 743d
00000140: 9a2c a93d a02a b73c 9902 abbd c04b df3a
00000150: a8c9 68bc e023 57bd b8a2 05bd a3ac 8cbd
00000160: 0160 61bd 0066 c0bd 50d9 aabd dcb8 89bd
00000170: 1209 df3d 50ca 38bc 4899 d33c 12c0 983d
00000180: f230 c73d c2f6 de3d 28f5 5ebd 303e 653c
00000190: bc07 eebc ee46 39bd 30ea 92bb 64df b73d
000001a0: c420 8ebd 82c7 873d f048 eb3b a237 a33d
000001b0: 9659 6ebd ecf5 4a3d e1ff 75bd 77b5 9dbd
000001c0: fcb8 a93d 48df 6d3d 7db6 dcbd 6e96 aebd
000001d0: 7b35 9fbd d0ae d4bb a6dd b0bd 2072 923b
000001e0: 5687 a7bd e026 1b3d e981 e2bd 8f0c 5abd
000001f0: b84e ac3d a002 e7bb cf5c 90bd 143d 99bd
00000200: 8885 a33d c760 4cbd 5cd7 183d 6400 96bd
00000210: 2762 b5bd 622e 913d 70eb a33d 197e 73bd
00000220: fcab 14bd ba37 9abd 30d7 223c a945 debd
00000230: 3e68 8c3d 5036 abbb 7075 023d 1007 8dbd
00000240: 6a31 c33d 2040 d43b f074 49bd fb9e b9bd
00000250: 247f 753d 7ce5 80bc 2846 26bd e0a6 033b
00000260: 0027 e33c 6686 b6bd 643b 4cbd 9820 5e3d
00000270: 5049 593d 6ac6 e13d ccbe 15bd 76a8 49bd
00000280: b678 04bd e0ec c33d 30ae 513d 8da2 d4bd
00000290: a6e0 d53d f062 fbbb 55c1 dbbd dc5f 49bd
000002a0: bec3 c3bd 1231 32bd dc15 b9bd 8837 3f3d
000002b0: 8932 cbbd c2fe a03d 184e 2b3d 0891 a0bd
000002c0: 826a 75bd ded9 a6bd 4e14 be3d 02df 84bd
000002d0: a22e dbbd 600f e43c 760e 2dbd d030 6e3c
000002e0: 700b 823c 80ff 343d 7997 b0bd a087 a13b
000002f0: a05e 64bd 44f7 3b3d 30c2 bfbd a0c0 d93d
00000300: f22a 44bd 34a8 6c3d 8d2f 4bbd 78e0 6d3d
00000310: e402 a13d 506c cdbd 453f d0bd 9892 b93c
00000320: 92a6 be3d d8f9 ddbd 827a c6bd 2c1c 853d
00000330: c848 d3bc b698 d73d 8033 19ba dcce 9dbd
00000340: 0c29 7cbd 48d7 a83d c042 4c3d 40c5 e4bc
00000350: af25 89bd 84d8 a53d a84c ba3d 60bd da3d
00000360: a0b2 043d dce6 103d 2028 6f3d f413 cd3d
00000370: 7878 fd3c 20bb 95bd 7085 eabb a6d5 32bd
00000380: e26c 983d 00dc de3d 9cda 2cbd 3879 443c
00000390: 7473 a23d 6dc6 c1bd 6cbb 4c3d 54a6 b23d
000003a0: cbd6 98bd c0c3 9d3b 5445 bc3d 94dc d73d
000003b0: b8f9 85bd 7071 723d aa4c d93d 59dc 93bd
000003c0: f88d 41bd 40f0 75bb bc62 b03d a007 a5bc
000003d0: d0ba 803c d072 f0bc ec4d 82bd 9299 ca3d
000003e0: 0d2e 66bd 7484 44bd 0cef 573d 80f8 d7bd
000003f0: 0a18 8dbd 184b 2dbc 589c f0bc 5ac5 14bd
-0.023886263 -0.055787664 0.020096794 -0.020729855 -0.08184631 0.016886115 0.053769574 -0.0083043575
-0.072838366 -0.022820063 0.10038076 0.08962691 -0.10664128 -0.07541388 0.08035001 -0.053845774
-0.08605647 0.033566296 -0.10809707 -0.01371637 -0.11124156 -0.10177582 -0.037042797 -0.043880984
0.027118966 -0.0040307716 0.07123916 -0.040563956 0.019361362 -0.070482135 0.029668987 -0.060002312
0.07036632 0.058291093 0.062177643 -0.086051844 -0.017481573 -0.009071216 -0.012648553 0.025718734
0.089071795 -0.09000483 -0.06126181 0.056648463 0.033150405 -0.00044115633 0.08447461 -0.067463964
-0.088946536 0.10752049 0.028044552 -0.0019550845 -0.028676748 -0.06575897 0.0108916685 -0.07038213
-0.051384598 -0.10441303 -0.032372683 0.05419475 0.028233483 -0.08746376 -0.061063435 0.050460458
0.058254883 0.017563969 0.05420719 0.062446445 -0.03873965 -0.013613194 0.09047414 0.09282082
0.08564179 0.0064940676 -0.02831588 0.070596814 -0.079846 -0.024264805 0.018919066 0.05965209
0.0826046 0.022359192 -0.08350105 0.0017036125 -0.014208235 -0.052524447 -0.032625884 -0.06868865
-0.055023197 -0.09394455 -0.0834223 -0.06724712 0.10890402 -0.011278704 0.025829926 0.074585095
0.097261325 0.10886909 -0.054433018 0.013991877 -0.029056422 -0.04523366 -0.0044834837 0.08978155
-0.06939843 0.0662985 0.0071803257 0.079695955 -0.058190905 0.049550936 -0.06005848 -0.07700627
0.08287236 0.058074266 -0.107769944 -0.08524786 -0.077738725 -0.006490566 -0.08636026 0.004469171
-0.0818011 0.03787887 -0.11059935 -0.053234633 0.08413452 -0.0070498735 -0.07048952 -0.07482353
0.079844534 -0.04989698 0.037314758 -0.07324293 -0.08856612 0.07088925 0.080038905 -0.059446428
-0.03629683 -0.0753016 0.009939 -0.1085313 0.0685582 -0.0052249804 0.03185028 -0.06886113
0.09530909 0.006477371 -0.049183786 -0.09063526 0.059935704 -0.015734427 -0.04059425 0.002008848
0.027728558 -0.08912353 -0.049861327 0.054230303 0.053048432 0.110241726 -0.03655891 -0.049232922
-0.03234168 0.09566665 0.05119151 -0.103825666 0.10443239 -0.0076717064 -0.107302345 -0.049163684
-0.09558819 -0.04350383 -0.090373725 0.046683818 -0.09921748 0.07861091 0.041822523 -0.078401625
-0.059916027 -0.081470236 0.092812166 -0.06487848 -0.10702254 0.027839363 -0.04225012 0.014538005
0.015874594 0.044188976 -0.08622641 0.004929498 -0.055754304 0.045890108 -0.0936321 0.106324434
-0.04789252 0.0577776 -0.049605895 0.0580754 0.078618795 -0.100304246 -0.10168318 0.02265291
0.093091145 -0.108386695 -0.09691335 0.06499514 -0.02579154 0.10527174 -0.0005844161 -0.07705471
-0.061562583 0.08244187 0.049868345 -0.027926087 -0.06696641 0.08097938 0.09096652 0.10680652
0.032396913 0.035376415 0.058387876 0.100135714 0.030941233 -0.07311082 -0.0071570203 -0.043660782
0.07442643 0.108818054 -0.04220067 0.011991791 0.07932177 -0.09461675 0.049983427 0.08723131
-0.074628435 0.004814595 0.09192911 0.10540119 -0.06541771 0.059190214 0.10610326 -0.07219762
-0.047254533 -0.0037527233 0.08612582 -0.020145237 0.01571408 -0.029351622 -0.06362519 0.098925725
-0.05619626 -0.04797788 0.052718207 -0.105454445 -0.06889351 -0.010576986 -0.029371426 -0.03632102

conv5.0.bias f4 [16]
00000000: 5676 a3bd 2691 0fbd 40c5 113d 8c59 7b3d
00000010: d82b 263d 3804 9cbd 7876 b13d d45a 3fbd
00000020: 2083 7c3b 2473 1e3d 44cd c63d d622 c33d
00000030: dcd7 cd3d ad6d dcbd 98fc e7bc 109f b4bb
-0.07981555 -0.035050534 0.035588503 0.061364695 0.040569156 -0.07617992 0.08665174 -0.04671748
0.0038530305 0.038684025 0.0970712 0.09528129 0.100509375 -0.107631065 -0.028318688 -0.005512126

conv6.0.weight f4 [8, 16, 5]
00000000: 346e 9e3d f486 a5bd 741f bcbd c22b 923d
00000010: c0a2 f33c 2c89 40bd 5876 66bd 88d2 623d
00000020: 002b cd3c 6865 d3bd f4be 88bc 5626 883d
00000030: 9ae5 8cbd aa5b b4bd 2015 d03c 426b b43d
00000040: c0f2 9b3a 3023 1fbc 98eb 92bd 36b9 d23d
00000050: ac47 d93d f468 a6bd ea3b 20bd 3cb5 f4bc
00000060: 5552 bdbd 70eb 6b3c 6040 753b 34bf 833d
00000070: 7237 91bd 6400 243d dcb9 7e3d 005f 89b9
00000080: c8a7 2c3d 32ee b2bd 001f 46bb c145 50bd
00000090: d81e e33d 90a6 e03b 0caf 91bc 2a10 9ebd
000000a0: 005c 2f3b e067 ed3b 8842 293c 88d7 f4bc
000000b0: 08ec ad3c 94ae c9bd 20d0 033d 64f7 313d
000000c0: 3833 04bc 76ed ae3d 6c4a 7b3d b841 143c
000000d0: 0078 eb3c 9095 10bc f0cf 893c 6059 d8bd
000000e0: c839 963d 78d2 74bd 80dc 043c 2c51 8d3d
000000f0: aa14 a23d dcc8 d23d 60fc 30bb 9936 73bd
00000100: 50e6 e43b 4601 c83d b479 abbc 02df 11bd
00000110: c045 41bb 1001 b63b 04e3 c3bd 80d3 a83b
00000120: bac3 c73d 4eda ab3d 7c8c 453d e476 8d3d
00000130: 6d18 cdbd ce12 dc3d d5c1 4abd a629 af3d
00000140: 8944 5dbd c037 c93a e8cf cd3c 6e51 05bd
00000150: a441 b1bc 0c58 ac3d 103a 9c3c bc73 d0bd
00000160: 88a5 d9bc f0b0 543d 00b1 0d3b bc89 833d
00000170: ba51 99bd d58e e4bd 18ef 933c 3054 833b
00000180: 35f8 dfbd 2c7e 973d d004 cebd 9693 cabd
00000190: 20ed f83b dcd7 b6bc 98a1 b1bd 6308 5fbd
000001a0: b02c 923d 2648 9e3d c0f2 55bc 18c3 0c3d
000001b0: 4cd5 d33d d085 233d d4f8 a43d 54ae d2bc
000001c0: 8096 613d 3c65 97bc 3049 fdbc f8fa 54bd
000001d0: aaef 6dbd a4be 87bd e899 3a3c e28a c23d
000001e0: 1406 053d d62f a7bd c487 be3d 78f7 bfbc
000001f0: fcc9 cdbd 72db cc3d 34cb b23d 0084 923c
00000200: ec3b 44bd a6c0 8dbd 73b0 5bbd d6be 14bd
00000210: ffe0 7fbd 7407 523d 4e68 25bd 621a a4bd
00000220: d41d 063d 0cc5 7f3d e8a5 e73c 6824 933d
00000230: b811 823c 3282 98bd 34c0 ffbc d03a e73c
00000240: 608d 7abc e024 8bbb 6a9b db3d 5afb 9ebd
00000250: 10c2 ab3c e077 0e3c 7073 99bc 929d b13d
00000260: 0028 68b9 c03e 2abc 2a40 be3d b653 99bd
00000270: 6855 aebc cc69 043d 785d 41bc 1ca3 92bc
00000280: f10e 7ebd b34d d3bd 206c debc 3af3 9dbd
00000290: 0983 c8bd 18c8 e33c 80bc dabd c6ad a93d
000002a0: c454 a23d 9819 aabd e815 0e3c 6e02 83bd
000002b0: 1a8e 21bd 78a1 933d cc17 a33d c0ae c33a
000002c0: 38a7 263c 00e7 6bba ebcc d8bd 4870 233d
000002d0: 6467 573d b8e4 063d 988c 78bc f378 89bd
000002e0: 46e9 de3d 7cae 47bd b8df a5bd 8f72 cfbd
000002f0: 27e6 78bd 90ad 923d c2ea 9e3d 8024 013d
00000300: fa9f 2fbd 081c f23c 438b e3bd 087b c93c
00000310: cc5e 9cbd 58fc 38bd 3260 e43d fc59 aebd
00000320: 7042 48bc 7e74 ae3d 9ce2 8a3d e8b0 7a3d
00000330: c880 e33c 3e13 dc3d 889e 9ebd 4a94 17bd
00000340: a9d3 6ebd dd9c 93bd e0d6 a93c f217 91bd
00000350: 80ed 6b3c 8a74 a93d 1e9c 2fbd ca62 27bd
00000360: 1ca3 9fbd b8df d9bd 4677 d83d ec97 7d3d
00000370: 688a 96bd e071 c4bd d88f 8c3d b8bc 21bc
00000380: b01b cabb 605a 6c3b 7013 b7bd a83d 87bc
00000390: 20b0 d73d 20aa c03c 960a 853d 44ac 8ebc
000003a0: 3842 cc3d 5d5a c9bd b877 683d 0ac1 96bd
000003b0: 9844 28bd ac69 2b3d fcc4 1e3d ace3 223d
000003c0: c2d2 06bd 1405 52bd f4ee 0a3d 6ad3 3cbd
000003d0: 6a2d dc3d d025 cc3c 7600 da3d 27dc 80bd
000003e0: b488 1c3d 52ca a93d 100f cb3c 88aa c73d
000003f0: f63f 933d e891 023c ee37 b8bd 3442 583d
0.07735863 -0.08082381 -0.09185687 0.071372524 0.029740691 -0.047005817 -0.056265205 0.05537656
0.025044918 -0.10322076 -0.016692616 0.06647937 -0.068797305 -0.08806546 0.025400698 0.0880952
0.0011897907 -0.009712979 -0.07173842 0.102892324 0.106093735 -0.08125487 -0.03911964 -0.029871576
-0.09244219 0.014399394 0.0037422404 0.064329535 -0.070906535 0.040039435 0.062188968 -0.00026201457
0.042152196 -0.087368384 -0.003023088 -0.050847773 0.11089867 0.0068557933 -0.017783664 -0.07717927
0.0026757717 0.007245049 0.010330804 -0.02988793 0.021230713 -0.09847751 0.032180905 0.04344882
-0.008068852 0.08541386 0.06135027 0.009048872 0.028743744 -0.008824721 0.016822785 -0.10563922
0.0733524 -0.05977103 0.008109212 0.06900248 0.079140976 0.10292217 -0.0027005896 -0.05937824
0.006985463 0.09765868 -0.020932056 -0.035613067 -0.0029491037 0.005554326 -0.09564784 0.005152166
0.09754129 0.08391248 0.04822968 0.06907442 -0.100144245 0.10745774 -0.04950126 0.08552866
-0.05402044 0.0015351698 0.025123551 -0.03254836 -0.021637745 0.08415231 0.019070655 -0.101783246
-0.02656819 0.051926553 0.0021620393 0.06422755 -0.07486291 -0.111600555 0.018058345 0.0040078387
-0.109360136 0.07397112 -0.10059512 -0.09891431 0.007596627 -0.022319727 -0.086734 -0.054451358
0.0713743 0.07728605 -0.013058364 0.034365743 0.103434175 0.039922535 0.08055273 -0.025717892
0.05507517 -0.01848089 -0.030918688 -0.051997155 -0.05808989 -0.06628159 0.011389233 0.09499146
0.0324765 -0.08163421 0.09303239 -0.023433432 -0.10048291 0.10002793 0.08730164 0.017885208
-0.04790871 -0.069215104 -0.053635072 -0.036314808 -0.062470432 0.05127664 -0.040382676 -0.080128446
0.03274329 0.062443778 0.028277352 0.07184678 0.01587759 -0.07446708 -0.03121958 0.028226286
-0.0152924955 -0.004246339 0.10723002 -0.07762785 0.02096656 0.008695573 -0.018731803 0.08672632
-0.00022140145 -0.010390937 0.09289582 -0.0748667 -0.02128096 0.03232746 -0.01180207 -0.017900042
-0.062025968 -0.10317554 -0.027151167 -0.077124074 -0.09790618 0.027805373 -0.10680485 0.08285098
0.07926324 -0.08305663 0.008672215 -0.06396948 -0.03944216 0.07208532 0.07963523 0.0014929399
0.010171704 -0.000899896 -0.1058596 0.039902 0.052588835 0.032932967 -0.015170239 -0.06712522
0.10884337 -0.048750386 -0.080993116 -0.10129272 -0.060766365 0.07162011 0.0775962 0.03152895
-0.042877175 0.029554382 -0.111105464 0.024594799 -0.076352686 -0.04516253 0.1115116 -0.08513257
-0.012222871 0.08518313 0.067815036 0.061203867 0.027771369 0.10745858 -0.07745081 -0.037006654
-0.058307324 -0.07207654 0.020732343 -0.07084645 0.014399886 0.08274181 -0.042873494 -0.040865697
-0.077947825 -0.10638374 0.105696246 0.061912462 -0.07350618 -0.095920324 0.068633735 -0.009871654
-0.0061678514 0.003606461 -0.08939254 -0.016508892 0.1053164 0.023518622 0.0649616 -0.017416127
0.09973568 -0.098316886 0.056754798 -0.07361038 -0.04108104 0.041848823 0.038762078 0.039767906
-0.032915838 -0.051274374 0.03391929 -0.046100058 0.107508495 0.024920374 0.10644619 -0.06291991
0.038216308 0.08290543 0.024787456 0.09749323 0.07189934 0.007969357 -0.08995043 0.05279751

conv6.0.bias f4 [8]
00000000: c4d2 603d 40bc 8fbd b088 973c 52ba 90bd
00000010: ae34 43bd 10ef eb3c dae6 c5bd 3ae1 2dbd
0.0548885 -0.07018328 0.018497795 -0.07066788 -0.04765766 0.028800517 -0.09663172 -0.04245112

fc.weight f4 [3, 336]
00000000: 7fcd b8bb 4751 493c 0b00 06bc 82c9 fcbc
00000010: d1cc 883d cc1a 0fbd b67e 0abc 3a3e f63c
00000020: 9600 29bc 4139 1cbd 5d08 fc3c 8c19 55bd
00000030: 2f58 0d3b 4936 e9bc e702 893d e0c2 b5bd
00000040: 4edf a3bb 4e92 febc f4ef f73a 377f f1bb
00000050: 9e0e 3b3d 08be f03c fbd5 88bb 6003 82bc
00000060: 9cbc 0a3d b753 62bd 3103 c43b dd39 6c3d
00000070: 137d 0e3d 1c29 34bc 2da9 0e3d 72b8 1b3d
00000080: a30f 10bd 6a80 e8b9 666e 45bd f6cc 14bd
00000090: 338f 18bd afe1 b63d 6d91 11bd 6c0f 92bd
000000a0: 2dc8 be3d d0e8 6f3d 7e01 7e3d 7141 57bc
000000b0: 7ecc 103d fa12 09bd 53a1 f4bb 2ba8 12bb
000000c0: bc77 06bd e7e9 703c 8a03 db3b d4a6 3a3d
000000d0: 97d9 343d e86f 7abd 82f4 a6bc abbc d9bc
000000e0: 9f2e 87bc 539f a4bd 7aeb c0bc 5c3f 59bd
000000f0: f510 443d 63d5 8bbd 1e79 ab3c 430a 543c
00000100: c378 c33c 9ba5 d73c 6a44 823d 3ff2 4abd
00000110: 5288 5ebd 3ac4 bdbc cfeb ab3b ccd0 17bd
00000120: 0bd5 ce3d d805 aabc 7968 82bd f2b6 313c
00000130: 3276 9cbc e704 4ebd a5ff ed3b 81f8 1f3d
00000140: 5b96 943c c221 77bb 714e 11bd 0b51 a2bd
00000150: e5de 523d 7a37 6bbd 8d25 3e3d a861 8ebd
00000160: ba91 b53c 779a 5c3d eb30 1d3d 87e9 a5bd
00000170: d887 833d 8a70 92bb 11cc 883b 244a 4e3d
00000180: bcfe 873c 6cff aebd 1710 debc 2d0c 5c3c
00000190: d3cb 533b e9c1 c0bd 7685 713d 64aa d4bd
000001a0: 6cd0 173e 1a58 913d 9488 703d bc56 dfbc
000001b0: 1787 4f3b f1d6 a43c ab76 883b c58f 75bd
000001c0: 7415 883d eec3 4bbc 0e11 0e3c 261c 5f3d
000001d0: cbaa 883c dea0 2b3d 9888 15bd 3515 83bc
000001e0: fe99 543d 30b4 5e3d d40f 6fbc 0cca 16be
000001f0: 2c4f de3d d727 673d a041 dc3c e697 a03c
00000200: 45c3 123c dd9b 16bd b508 ed3c 5b5a 2b3b
00000210: f366 d83c e223 ca3c d9fe 113b 515a c0bc
00000220: 1ab0 18bc 6cbd d0bc 01b5 3dbd 73d3 a93d
00000230: 193c c6bd 9e2d 95bd 19c3 f1bc 3511 2fbd
00000240: 6a84 92bd f757 073d 8e08 ab3d 2ed3 94bd
00000250: e6a5 203d 5768 9f3b 4381 db3c d1c1 d5bc
00000260: 4348 edbc cfef b23a a05c eebc b54e 0b3d
00000270: 34c9 54bd 90ed 2c3c 2eaa 58bd f7c2 64bd
00000280: 4b73 c73a 2b13 813d 7174 1b3d a85a 243d
00000290: 3a5e 933c 6be0 da3d 43da d63d 7055 af3d
000002a0: a1ca aebb b24e 7abd d98f 43bd d545 ce3c
000002b0: 9a6b 9b3b 0eac 513d 0c44 e2bc 6230 debc
000002c0: e773 42bc eaa3 703c 941f 923c f81f 123c
000002d0: a226 3bbc e5bd 23bd ef54 6abd 5407 223d
000002e0: 9416 36bd 1027 10bd f4a7 1bbc ed3f 4e3d
000002f0: 8b6d 80bd 5cdc b1bc 4969 123c dc21 6c3b
00000300: 5c23 21bb 8459 06bd e898 b0b8 5d69 1f3d
00000310: 0faa 80bd 8221 2a3d c111 d5bc faee b63c
00000320: fdb3 d6bc 4323 70bd 3ad4 8c3c 85f1 1e3d
00000330: 540a 34bb a6aa 62bc 48c6 2a3d 8b76 06be
00000340: 0868 b3bd 7254 b6bc f240 3c3d 419f edbb
00000350: fa35 3b3d cc4f 723c 6134 8ebd cef7 f6ba
00000360: f01a cbbc 5f63 033d 2fd0 abbb 155b 373c
00000370: 92d5 4a3c 04d1 bebd fdc1 6bbd 5498 ba3d
00000380: c042 a3bc 90dd 05be 097f 873d 1957 583c
00000390: fffb 543c 43fd c83d 4a08 12bc 294e 18bd
000003a0: e564 4f3d c1a1 75bc 3a96 0e3a 3224 0ebc
000003b0: c5ff 93bc 26d7 fdbb 215e 673d 9ece 9cba
000003c0: 2244 d6bc 78b3 f83c 1ae3 a0bc 462d 76bc
000003d0: 851f febc af00 c53b 516e 2fbd 6577 4bbb
000003e0: c0ab 6a3d 96f6 c33c c27f 0bbd 1ac6 a73c
000003f0: b9c5 263d 8366 96bc 6299 353d 131f ebbc
-0.0056397314 0.012287444 -0.008178721 -0.030857805 0.06679691 -0.034937665 -0.008453062 0.030058969
-0.010315081 -0.03814054 0.030765707 -0.052026317 0.0021567454 -0.028468268 0.06690007 -0.0887506
-0.005000985 -0.031075623 0.0018916116 -0.0073699015 0.045668237 0.029387489 -0.004175899 -0.01587075
0.03387128 -0.055255618 0.0059818258 0.05767237 0.03478725 -0.010996129 0.034829307 0.038017698
-0.035171162 -0.00044346164 -0.048200987 -0.03632828 -0.03724594 0.089297645 -0.03553908 -0.07131848
0.09315524 0.058571637 0.06201314 -0.013138161 0.03535127 -0.033465363 -0.0074655204 -0.0022378068
-0.03282903 0.014704204 0.0066837715 0.045569256 0.044152822 -0.06114188 -0.020380262 -0.026579222
-0.016501723 -0.08038201 -0.023549784 -0.05303894 0.047867734 -0.0682781 0.020931777 0.0129419
0.023861295 0.026324084 0.06360705 -0.04954743 -0.054329224 -0.023164857 0.0052466164 -0.03706436
0.100992285 -0.02075474 -0.06367583 0.01084684 -0.019099329 -0.050297644 0.007263141 0.03905535
0.018138101 -0.003770933 -0.0354752 -0.07925614 0.0514821 -0.057425953 0.04642253 -0.0695222
0.022164214 0.053858247 0.03837673 -0.081011824 0.064223945 -0.004468982 0.0041747172 0.050363675
0.016600959 -0.085448116 -0.027107282 0.013430637 0.0032317534 -0.094119854 0.05896517 -0.10384062
0.148256 0.07096882 0.058724 -0.027263038 0.0031666213 0.020122023 0.004164537 -0.059951562
0.06644717 -0.01243685 0.008671058 0.054470204 0.016683003 0.04190146 -0.03650722 -0.016001323
0.05190467 0.05437106 -0.014591176 -0.14725512 0.108549446 0.05643448 0.026886761 0.01960368
0.008957689 -0.036769737 0.028934816 0.0026146385 0.026416278 0.024675313 0.0022277145 -0.023480566
-0.00931933 -0.025480948 -0.046315197 0.08292284 -0.096794315 -0.072840914 -0.029511975 -0.04274102
-0.07154162 0.033042874 0.08351241 -0.07266842 0.039220713 0.004864733 0.026795035 -0.026093395
-0.028965121 0.0013651791 -0.029096901 0.034010608 -0.051949695 0.010554686 -0.05289667 -0.055849995
0.0015216855 0.06302484 0.037952844 0.04012552 0.017989267 0.106873356 0.10490849 0.08561218
-0.005334214 -0.061110206 -0.047744606 0.025179783 0.0047430517 0.051189475 -0.027620338 -0.02712268
-0.011868454 0.014687518 0.017837323 0.008918755 -0.011422785 -0.03997602 -0.057209905 0.03955777
-0.044455126 -0.035193503 -0.009500492 0.050353933 -0.06270894 -0.02171152 0.008936235 0.0036030924
-0.0024587726 -0.032800213 -8.420815e-05 0.03891884 -0.06282436 0.04153586 -0.026009442 0.02233075
-0.026208872 -0.05862738 0.017191041 0.03880455 -0.0027471976 -0.013834631 0.041693002 -0.13131158
-0.08760077 -0.022257064 0.045960374 -0.0072516506 0.045705773 0.014789533 -0.06943584 -0.0018842162
-0.024793118 0.03207719 -0.0052433233 0.011191149 0.012380021 -0.0931721 -0.05755805 0.091110855
-0.01992929 -0.130728 0.06616027 0.013204359 0.012999534 0.09813931 -0.008913109 -0.037183914
0.05063333 -0.014992178 0.00054392556 -0.008675622 -0.018066296 -0.007746595 0.056486253 -0.0011963432
-0.026155535 0.030359015 -0.01963954 -0.0150254425 -0.031020889 0.0060120444 -0.042829815 -0.0031046506
0.0572927 0.023921292 -0.034057386 0.020480204 0.040715907 -0.018359428 0.04433573 -0.02870134

fc.bias f4 [3]
00000000: cb41 e03c 36f8 4d3d 34d7 9abd
0.027375123 0.05028554 -0.07560578
