routes/model11.pkl (torch_old, 22127 bytes, 14 tensors)

conv1.0.weight f4 [4, 1, 5]
00000000: 88db 923d 7058 7fbe b32e a93e 4409 a7bd
00000010: f1dc 093e 403e 493e 2262 6fbd c985 81be
00000020: 84a2 6a3d e709 42bd b11a 103e f283 393e
00000030: 58e6 5f3e 700f a2bd a726 48be 948f 6ebe
00000040: adc8 c53d 8ecf 473d 67f7 893d 79ba e3bd
0.071707785 -0.2493608 0.3304344 -0.08156064 0.13463189 0.19652653 -0.058443196 -0.25297382
0.057283893 -0.047372725 0.14072682 0.1811674 0.21865213 -0.07913101 -0.19545995 -0.23296958
0.096574165 0.048781924 0.067366414 -0.11119551

conv1.0.bias f4 [4]
00000000: e33f 34be d60c d1bb 394a ca3e 9b81 ce3e
-0.17602496 -0.006379704 0.39509752 0.40333256

conv2.0.weight f4 [8, 4, 5]
00000000: d1f4 2b3e 42c4 1abd 0721 813d 0165 e3bd
00000010: 70f1 323d d433 48be 1f14 b9bd c771 b43c
00000020: b343 56be 9099 d63d 0f3a e1bd 5b6e d3bd
00000030: 3d45 cd3d 0565 77be 7ba0 cbbd fd6e 22be
00000040: 7d7f f83d 06d9 703d 1f8e e93d 5078 26be
00000050: 6904 323d c5c7 0d3e 2fc5 b5bd 1d4a d4bd
00000060: 77be ccbd 8326 1cbe 79d7 d33d 9de4 953d
00000070: a340 a83d a6ff 693d 0445 74bd 4b62 48be
00000080: 1e5d 863d 24d1 0f3e f73c 4f3e 4285 c0bc
00000090: 75b8 07be 0de9 f4bd be18 2a3e c99f cb3d
000000a0: 7270 dd3b 1292 6dbe 1f5e 873d c58a 4abd
000000b0: e401 ae3d f3d5 203e 16fa b33d c3ab df3d
000000c0: 985c 0e3d 8fec a53d 89fe 113e cdaf e23b
000000d0: e43d 133d 093c 4abe 8476 45be 2c32 26bd
000000e0: 33f1 83be 1267 493c 7e85 76bd dc4a 76bb
000000f0: 57c6 50be ba79 113b 4d18 29be 15c1 7abe
00000100: ab04 49be d53a 19be 00a3 283e bee6 6abe
00000110: fd8a bdbd 8978 60be eac2 0fbd 33bd 1cbe
00000120: f1c7 4abd 2966 df3d f13b 1a3d 35d0 0c3e
00000130: 89cf adbd beec 683d 268c 05be f64b ff3d
00000140: c368 ab3d e8b7 0fbd 5ca0 0a3e 5a7d f53d
00000150: 7734 893c 4b23 7e3d f10a eebd 0c4d fc3d
00000160: a1d3 0cbc d3d2 02be 74e4 4f3d aa4f 8e3c
00000170: 6a26 a03d a9d0 a7bc 3be9 71bd 2c43 d03d
00000180: 0a6a 133e 8b54 353d 6a79 18be a17d 993c
00000190: 6757 693d a823 87be 0a4c 603c 262e 513d
000001a0: c0f4 44be ca14 15be cd7e 2bbe ca30 5c3d
000001b0: b714 4dbe ba82 0f3e c6ad ec3d dff5 d73d
000001c0: 3c4d d73d 5452 7b3d 4305 e83c 8ed8 033e
000001d0: 0b4d f7bd 7fda b63c af85 903d ddbf f23d
000001e0: a6e0 e8bc f3be 98bd 2da8 2d3d 5bd6 713d
000001f0: 3052 7e3d c237 ef3c 2f02 c73d b398 97bd
00000200: 3038 bb3d 358f 2bbe 1dd4 ec3d 2937 5c3d
00000210: 8d49 343e f4a1 27be 5dfb 8a3d 140e 043e
00000220: da68 4b3b ec68 f5bd 8e0d d0bd a4b5 ba3d
00000230: e882 723d 7019 36be 44fd ebbc ddc8 e9bd
00000240: 5773 833c 3e8d 44bd 7e51 37bd f758 ebbd
00000250: d701 163e d167 11bd df3c eb3d 848c 49bd
00000260: d4c1 0dbd a9e9 babc 7b60 70bb 46d5 cdbd
00000270: 4842 e53d a7c0 30bc dd56 033d 259e 87be
0.16792609 -0.037784822 0.063051276 -0.11103249 0.043687284 -0.19551021 -0.09037041 0.02202691
-0.20924263 0.104785085 -0.10997402 -0.10323783 0.10022972 -0.2415963 -0.099427186 -0.15862651
0.121336915 0.05880072 0.114040606 -0.16256833 0.043461237 0.13845737 -0.088755004 -0.103656985
-0.09997266 -0.15249066 0.103438325 0.07318995 0.082154535 0.05712857 -0.05963613 -0.19568746
0.065607294 0.14044625 0.202381 -0.023501042 -0.13253959 -0.119585134 0.16611001 0.09942586
0.0067577893 -0.23200253 0.06609749 -0.049448747 0.08496454 0.15706615 0.087879345 0.10921433
0.034756273 0.081017606 0.14257254 0.0069179297 0.035947695 -0.19749464 -0.19283491 -0.04057519
-0.25769958 0.01229264 -0.0601859 -0.003758124 -0.2038816 0.0022197799 -0.16513176 -0.24487717
-0.19630687 -0.14963849 0.1646843 -0.22939584 -0.092550255 -0.2192098 -0.035097994 -0.15306549
-0.049507085 0.109081574 0.03765482 0.137513 -0.0848685 0.0568664 -0.13041744 0.1246566
0.08369591 -0.035087496 0.13537735 0.119867995 0.01674865 0.062045377 -0.11623181 0.12319383
-0.008595378 -0.12775736 0.05075498 0.017371971 0.07819827 -0.02048524 -0.059060317 0.10169062
0.1439592 0.04427008 -0.14890066 0.018736662 0.05696812 -0.2639439 0.013690004 0.0510694
-0.1923399 -0.14558712 -0.1674759 0.053757466 -0.20027433 0.14014712 0.11556582 0.10544943
0.10512778 0.06135781 0.028322821 0.12875578 -0.12075242 0.022320984 0.07056748 0.11853001
-0.028427433 -0.07458296 0.042396713 0.059042316 0.0620901 0.029201392 0.09717213 -0.07402172
0.09141576 -0.16753848 0.11563895 0.053763542 0.17606182 -0.16370374 0.06786225 0.12895995
0.0031037838 -0.11982903 -0.10158835 0.091166764 0.059206873 -0.17783141 -0.02880729 -0.11415265
0.01604621 -0.04798626 -0.04475545 -0.11491578 0.1464914 -0.035499398 0.114862196 -0.04920627
-0.034608677 -0.022816496 -0.00366786 -0.10050444 0.11194283 -0.010788119 0.03206526 -0.26487842

conv2.0.bias f4 [8]
00000000: cdc6 00be 82d6 e2bb b25a b9bd b201 e0bc
00000010: 6c31 2fbe e91e d5bd 2e2f b83b cab1 9fbd
-0.12575836 -0.006922544 -0.09050502 -0.027344558 -0.17108697 -0.10406286 0.0056208586 -0.077975824

conv3.0.weight f4 [16, 8, 5]
00000000: e5e3 50bd cad1 ba3c 21ae 773d b91e e83d
00000010: 47df 17be b2b7 debc 8630 2bbe bebf f83d
00000020: 02f0 fcbd 7fac a73d dc98 43bc 3f24 603d
00000030: 0417 1fbe 495a a43b 0afe b23d 6ae1 ec3d
00000040: 96ef a5bc 25a3 2dbe 446f c0bd c2ee c6bd
00000050: 36db adbc 18b8 91bd c5f7 13bc f180 f9bd
00000060: 5553 d6bd bc8e c93d 4d0e 0fbc 41ee f1bd
00000070: cdd5 37bd cd16 fa3c ea2c 3dbe 4214 00be
00000080: 1777 c1bd 4f52 9b3d 958c 78bb 7292 5bbd
00000090: 9010 4f3d 34e5 913a 422e acba 2545 20be
000000a0: aec8 eb3d 26e4 bfbc 9ea4 0fbe 2838 013d
000000b0: 4535 8a3d e1c5 603d b18e 69bb d177 b23d
000000c0: 293a 7e3d 2a1e 49bd 7323 e53d 7d26 d93b
000000d0: beb9 39bd d70c 1d3c 6ed7 bc3d 8c4e c5bd
000000e0: 6fd1 913d bd31 a83d 5ead 97bd a1af e53c
000000f0: aa4f 4c3c b83f f4bd 6063 15bd 9c80 04be
00000100: 5b2c c43d adf6 9cbd f09c be3c f337 24bd
00000110: 4ee0 44bd b8b2 89bc 0286 b83b 4311 cc3d
00000120: 5482 02bd 66ac 4b3d 2981 c83d 22a0 bcbd
00000130: 608d 713d 8c53 8cbd 6c7c a93c d737 df3d
00000140: 323c 37be 4aaf 2bbe 0538 1ebe a91c cfbd
00000150: 60bb 75bd 9d62 a73d 08ea e13d 0956 ff3d
00000160: 6726 94bd 5e5a c0bd 7c19 cabd 610b 6d3d
00000170: 6e57 0bbe c7d3 cd3d e7ed dabd 81db b1bd
00000180: 8584 cebc c929 0dbe 5e08 be3d 3474 af3d
00000190: 91dc 11be bf65 9d3d 6545 e9bd 45f1 d2bc
000001a0: ade3 acbd 536d 163d 90c6 f7bd 4f90 0bbd
000001b0: d08d cbbd 95d6 023e 9c11 4f3d f7d9 8f3d
000001c0: de77 1cbe c7b6 29be 6943 e53d 184c eebd
000001d0: 75a8 ebbc 8fc6 41bd 2bb9 843d 7eab b03d
000001e0: 5846 2a3c 3302 ddbd d677 033e f92f 67bd
000001f0: 307f 31be 1365 30bd 111e bd3d b2f0 28be
00000200: ae5a 06bd 05ff e6bd 73e8 89bd 2136 a03d
00000210: f1f7 343d efe1 0b3e 0784 ac3d 43d6 f1bd
00000220: 4897 fbbd 1e23 573d 743b f3bd 9d31 db3d
00000230: de34 bebd 6348 be3c b7f6 c9bc 258d 5dbc
00000240: 1f12 31be e9d1 54bc 8d67 a1bd dbcb 113d
00000250: f158 42bd 820e 903c 0206 bcbd 8acd 3abd
00000260: 3442 22be b4a9 17be cadc 2cbe 7888 aabc
00000270: 7ea5 dd3d 679a 5dbd a103 b3bd d9cc 983d
00000280: f976 2ebe bfc4 dabd dd80 f73b f7ce d5bd
00000290: 98f0 0b3b df5e e73c a15c 2b3d 894a c3bd
000002a0: b76f 7b3d b074 73bc 6c70 2bbc da21 34bd
000002b0: 4705 75bd 8b13 6e3d 3baa e5bd 5809 ddbd
000002c0: 97ae 7b3d 45e1 6bbd cff1 bb3d c145 b33d
000002d0: 10c4 bf3d a97e 51bd 3821 00be 426a 0dbe
000002e0: f5cd 8a3d db06 583d 6809 a13c 0bf9 fa3b
000002f0: 4c37 25bd 3be3 ccbd 0b83 c1bd e669 cdbd
00000300: f7c7 933d 9924 083d a771 753d cf15 66bd
00000310: 7ebb 123e bdaf dfbd 4e14 2abe 48a0 563d
00000320: e46a 0abc 6723 6ebd 2c9e 033e 5bb7 d0bd
00000330: ad93 b93c e095 f33d 3eac 703d 4301 093e
00000340: cae2 bebd 5fcc 443d 8d0f 593d 30f5 783d
00000350: 8f73 773d cac6 403d c409 c63d 49ec 29be
00000360: e5e9 353d 35e6 f73c 4c3f ed3d e811 4abe
00000370: 2d71 f0bd 782b d13d 5a14 733c d70f cb3b
00000380: 9d11 adbd a3a4 1f3c 3c15 943d e979 cfbb
00000390: d078 08be 6dc0 043e 1e22 a93c b8ce 60bd
000003a0: 9ede 1d3e 7422 7bbd d1da 08be 0610 efbc
000003b0: 56aa c43d 6f6f deba b59a c83c d595 903c
000003c0: 82b2 e93c 160a 343c 5fa9 1cbe 1f4a 26bd
000003d0: 8493 b63d 68f0 f4bd 26c7 dbbd 00b3 57bd
000003e0: 7d30 273d 8317 52bd 3249 673d 13b2 01be
000003f0: 61ed a5bd 43ee 153d 70a9 673d 0b99 f33d
-0.050998587 0.022805113 0.060468797 0.11333985 -0.14831267 -0.027187202 -0.16717729 0.12145947
-0.12350465 0.08187198 -0.0119383 0.054722067 -0.15536124 0.0050156456 0.0873986 0.11566432
-0.020255845 -0.16956766 -0.09396222 -0.09713508 -0.021222692 -0.07115191 -0.009031241 -0.12182797
-0.10465113 0.098416775 -0.008731437 -0.118130215 -0.04488163 0.03052845 -0.18474165 -0.12507728
-0.09446543 0.075840585 -0.003792559 -0.053606458 0.050552905 0.001113093 -0.0013136344 -0.15651377
0.11512886 -0.02342422 -0.1402764 0.031547695 0.067484416 0.054876212 -0.003563803 0.087142594
0.062067185 -0.049101032 0.11188402 0.0066269026 -0.045343153 0.009585581 0.092207775 -0.09634122
0.071200244 0.08212612 -0.07406114 0.028037848 0.012470165 -0.11926216 -0.036471725 -0.12939686
0.09578773 -0.07664237 0.023268193 -0.04009242 -0.048065476 -0.016808853 0.0056312094 0.0996423
-0.03186257 0.04972496 0.0979026 -0.092102304 0.058972716 -0.06851873 0.020689212 0.108993225
-0.17894056 -0.16766086 -0.15451057 -0.10112888 -0.059993148 0.08173106 0.11030966 0.12467582
-0.07233887 -0.09392236 -0.09868142 0.05787218 -0.1360757 0.10050159 -0.106899075 -0.08684445
-0.025209675 -0.13785471 0.0927894 0.08567086 -0.14244296 0.07685422 -0.11390189 -0.025749812
-0.08441863 0.036725353 -0.1209842 -0.03407317 -0.09939158 0.12777169 0.050553903 0.07023995
-0.152801 -0.1657363 0.11194498 -0.116356075 -0.02876685 -0.0473085 0.064806305 0.086264595
0.010392748 -0.10791435 0.12838683 -0.056442235 -0.17333674 -0.043065142 0.0923425 -0.16498068
-0.032801323 -0.1127911 -0.06733789 0.07822824 0.044181768 0.13660406 0.0842362 -0.11808445
-0.12284714 0.052523725 -0.11876574 0.10702822 -0.09287427 0.023227876 -0.024653776 -0.013522421
-0.17292069 -0.0129895 -0.07881079 0.035594802 -0.047448102 0.017585043 -0.091808334 -0.045606174
-0.15845567 -0.1481083 -0.168811 -0.020817026 0.10822581 -0.054102328 -0.087409265 0.074609466
-0.17037572 -0.106820576 0.0075532035 -0.10439866 0.0021353122 0.02824348 0.041836385 -0.09535701
0.061385836 -0.014859363 -0.010463815 -0.043977596 -0.059819486 0.058124106 -0.112141095 -0.10792798
0.0614458 -0.05758788 0.09176981 0.08753539 0.09363568 -0.051146183 -0.12512672 -0.13810065
0.067775644 0.052740913 0.019657806 0.0076590828 -0.04033594 -0.10004278 -0.094488226 -0.10029964
0.07215875 0.033238027 0.05992284 -0.056173142 0.14329335 -0.10922191 -0.16609308 0.05239895
-0.008448336 -0.05813923 0.12853307 -0.10191222 0.022653425 0.11893821 0.058758013 0.13379388
-0.093206 0.048046466 0.052993346 0.060780704 0.06041294 0.04706458 0.096698314 -0.16594042
0.044412512 0.030261138 0.115843385 -0.19733393 -0.117403366 0.10213369 0.014836395 0.0061969566
-0.08450625 0.009743842 0.07230613 -0.0063316715 -0.13327336 0.1296403 0.020646151 -0.054884642
0.15416953 -0.061312154 -0.13364722 -0.029182445 0.096028015 -0.0016970466 0.024487833 0.01764957
0.028527502 0.010988733 -0.15298985 -0.04059803 0.08914855 -0.11959916 -0.10731344 -0.052660942
0.040817726 -0.051291954 0.05646629 -0.12665586 -0.08101917 0.036604177 0.056558073 0.11894425

conv3.0.bias f4 [16]
00000000: 0d71 b03d 0b09 f8bd b39f 31be 82ac 26bd
00000010: 768a c8bb 07ea acbd 2f4e 6a3d 7df0 ed3d
00000020: 4496 8e3d bba3 3a3d 4b88 3b3d 12e0 643d
00000030: c2d6 7d3d 5c24 babd 5011 813d e206 543d
0.08615313 -0.121111 -0.17346077 -0.04069186 -0.0061200215 -0.08443075 0.057203468 0.11618135
0.06962255 0.0455663 0.045784276 0.055877753 0.061972387 -0.09088966 0.0630213 0.051764376

conv4.0.weight f4 [16, 16, 5]
00000000: f244 213d 9d7f 1d3c 2fbe c93b c99b 053c
00000010: dda0 9a3c 8e72 6ebd 2c98 9a3c 1978 353d
00000020: bb5b 023d 85a3 d33c 99d5 55bd a9d6 20bd
00000030: f30a b3bd 62fc 9fbd b7f5 36bd 89ab 5ebd
00000040: 92aa 7cbd aa0a 953d 49dc 683d fa28 c53d
00000050: 3974 103d c3db 8bbd 3804 b9bc fe6e a33c
00000060: c15b d43c 0b25 b4bc e381 ab3d 41a9 44bd
00000070: 277a a2bd 6570 263c 4f39 dc3c d99e caba
00000080: c958 edbc dd69 65bd 0ae5 5c3c 365f a7bc
00000090: e08b 2dbd 109d 78bc fc90 18bc 7a2d 8abd
000000a0: 0ebb 49bd ea5e 243d a6b3 153d accc 63bd
000000b0: c8cb a63d c287 5cbc 3ae7 013d 3235 453c
000000c0: 7a6d b0bd b637 00bc 29b8 bdbb aacc 46bd
000000d0: fb2f ccbc 7586 dabd 4b90 e53d 8fd8 43bd
000000e0: 56a5 41bd 3669 b8bd 2d01 c23c 0276 b9bd
000000f0: 9c64 313d d796 b2bd 5a90 3cbd 3ab0 233d
00000100: 47a0 1d3d 7936 cb3c 6a01 343d d18c 773d
00000110: d794 bc3c ea1c a4bd f384 953c 39aa 49bd
00000120: 2e1e 3d3d e2b6 88bd a80c 43bd 4a39 8abd
00000130: 0749 8abd 328d f5bd 0fde d3bd 2341 853c
00000140: d5cc a13d b998 13bd a801 263d 5670 3a3b
00000150: 51e6 7bbd 5bcb babd fbed 8bbd 7616 ac3a
00000160: c29a 84bd d482 6d3d 91ed 7cbd d577 06bc
00000170: 7c01 843d d367 9e3c ab6e 7c3d ea1f 2d3c
00000180: a255 3c3d b72f 87bd 468a 90bc 5837 46bd
00000190: ba4a b33d 875d 4e3b aa7b cfbd 4779 90bd
000001a0: 6d60 fa3c 13fa d4bd 022a ef3b faa5 d43c
000001b0: 3b51 9abc b630 853a db7d a53c 0793 f83c
000001c0: b81b 2fbd 7190 08bc 5bed 8a3b 336d 12bd
000001d0: 1769 663d 437d c2bd 594d a33c 401e b1bc
000001e0: 82fc 8dbd 157c b9bd 4e27 74bd 5352 cabd
000001f0: 590f a5bd daa5 93bd 3b92 c0bc 6c6c 11bd
00000200: 7df1 2bbc 3f12 acbd 7fd6 8b3d 4ddc c4bd
00000210: 5838 093d 5da4 5e3d d741 f73c 9213 f53d
00000220: 0a53 b03c f8ec eb3c c1c1 aebc 753c 3b3d
00000230: ee6e 223d ba8d a03d ef80 8e3c 7eb6 96bb
00000240: d762 60bd 3f20 d7bc 3516 653c 0071 3c3d
00000250: 59c2 38bd a01b a03d a361 653d 1824 49bd
00000260: 2d36 193d ace8 9b3d 0387 26bd 453c 153d
00000270: 2e70 5abd 0e1e a7bd f9df b7bc 9ae0 57bd
00000280: bab4 273d 08e5 abbc c2ae 87bd 7368 513c
00000290: 15a4 8e3d d4c1 5cbd 4481 ddbd ca31 433d
000002a0: c38a 743b e587 783c 3d5d 0ebd 0591 03bd
000002b0: 2bc7 063d 20f9 c5bd c995 51bc d007 81bd
000002c0: ac6e debc 3c00 9abd 61cc d4bc f91f 993d
000002d0: a1a0 a3bd 2bf2 efbd 790e 8b3d 428b 2f3d
000002e0: d03f afbc 5dc5 e837 dfe7 e3bd 4a92 0a3d
000002f0: d788 08bd 417b bebd 4bf9 22bd a9aa 82bd
00000300: 33a8 c63c b9a0 c0bb 84b0 423d 6a0d 79bd
00000310: 8c39 cbbc 1096 a23d 2797 1c3d 6aca a73d
00000320: b677 5b3d de24 9f3d e42b 73ba 5665 603d
00000330: 52d1 49bb 6b04 73bd b484 6ebd 2a6e 7c3c
00000340: 1f6c e23c b8a4 f1bd f8b0 06bd 71cc e2bd
00000350: febc a1bc e070 92bd e94d e23c 59e6 81bd
00000360: 7ef3 893d dbd2 19bd 22ae b8bc 3944 6ab8
00000370: 0562 76bd b76a 97bd 39ee 863c 8d67 933c
00000380: 07df 23bc e32f 583d bfc0 503c 1cfa 9cbd
00000390: c409 3cbd b02d e73c 8abb 893d 6a4a 07be
000003a0: d63d 883d 8ba4 37bd 2c32 8abd 2b31 89bd
000003b0: c37e 643d 7886 10bd 0fbe 68bd 0deb eabd
000003c0: 8816 8abc 0be0 183d f56d 4f3d 8a45 db3c
000003d0: c7b6 92bb 245f 96bd 62f8 093b c72e 46bc
000003e0: aa1a cd3c e46c d7bd ff94 8fbb 9aaf 813d
000003f0: 03ea a93d b6c1 8c3d c3d6 29bd 7602 28bd
0.039372392 0.009612945 0.006156705 0.008154818 0.018875534 -0.058214717 0.01887139 0.044303987
0.031825762 0.025834808 -0.052205656 -0.039267216 -0.08742323 -0.0781181 -0.044667926 -0.054362807
-0.061686106 0.07277425 0.056850705 0.09626956 0.03526709 -0.068290256 -0.02258502 0.019950386
0.025922658 -0.02199032 0.08374383 -0.048012976 -0.07933455 0.010158633 0.026882796 -0.0015458717
-0.028973 -0.056009162 0.013482342 -0.020431142 -0.042369723 -0.015174165 -0.009311911 -0.06746955
-0.049250655 0.04012958 0.03654828 -0.055615112 0.08144337 -0.013460102 0.031714655 0.0120366085
-0.08614631 -0.0078257825 -0.005789776 -0.048535027 -0.024925223 -0.10670177 0.11209162 -0.04781395
-0.047276817 -0.090044424 0.023682201 -0.09055711 0.04330884 -0.08720177 -0.046036102 0.039962985
0.03848293 0.024806248 0.04394666 0.060437027 0.023020191 -0.080133274 0.018251872 -0.049234603
0.04617136 -0.06675507 -0.04761949 -0.06749208 -0.0675221 -0.119898215 -0.10345089 0.016266411
0.07900397 -0.03603432 0.040528923 0.0028448305 -0.061498944 -0.09120818 -0.068325005 0.0013129252
-0.0647483 0.057986096 -0.06175 -0.008207281 0.064455956 0.019336617 0.06162898 0.010566691
0.045980103 -0.06600898 -0.017644059 -0.048392624 0.08754487 0.0031488852 -0.10131009 -0.07054382
0.030563558 -0.1039926 0.007298709 0.02595805 -0.018837562 0.0010161612 0.020201614 0.030343546
-0.042751044 -0.008335219 0.0042397208 -0.03574867 0.056252565 -0.09496548 0.019934343 -0.02162087
-0.06932928 -0.0905687 -0.059607796 -0.09878983 -0.08059568 -0.07209368 -0.023507228 -0.03550379
-0.010494587 -0.08401918 0.06828021 -0.096123315 0.033501 0.054355968 0.030182762 0.11966623
0.021523971 0.028799519 -0.021332623 0.045711953 0.039656572 0.07839532 0.017395465 -0.0045993915
-0.05478176 -0.026260493 0.013982345 0.046006203 -0.04510722 0.07817769 0.056001317 -0.049106687
0.03740518 0.07612738 -0.0406561 0.03643443 -0.05332964 -0.08160029 -0.022445666 -0.05270443
0.04094384 -0.020983234 -0.06625129 0.01278125 0.0696489 -0.053895786 -0.10815671 0.047654904
0.0037314154 0.0151691185 -0.034756888 -0.032120723 0.032904785 -0.096666574 -0.012792059 -0.06300318
-0.027152382 -0.07519576 -0.025976362 0.074768014 -0.07989622 -0.11716112 0.0678987 0.042857416
-0.021392733 2.774846e-05 -0.1112821 0.03383092 -0.033333626 -0.093008526 -0.039788526 -0.06380207
0.024250126 -0.0058785346 0.04753162 -0.06080381 -0.024807714 0.079387784 0.038230088 0.08192904
0.053580962 0.07770704 -0.00092762546 0.05478414 -0.003079493 -0.059330385 -0.058232024 0.0154071245
0.027639447 -0.11798996 -0.032883614 -0.1107415 -0.019743439 -0.071504354 0.027625041 -0.063427635
0.067358956 -0.037554603 -0.02254397 -5.5853485e-05 -0.060152072 -0.07393401 0.016471015 0.017993713
-0.010001904 0.052780043 0.012741267 -0.07664892 -0.04590775 0.028220028 0.06725223 -0.1321198
0.06652419 -0.044834655 -0.06747851 -0.06698831 0.055784952 -0.03528449 -0.05682188 -0.11470614
-0.016856447 0.03732304 0.050641973 0.026766557 -0.004477355 -0.073423654 0.0021052589 -0.0120961135
0.025037128 -0.10518816 -0.0043817754 0.063323215 0.08296587 0.06872885 -0.04146458 -0.041017972

conv4.0.bias f4 [16]
00000000: 2933 b43c 7808 0bbd 5010 02bd 7d24 36bd
00000010: fec3 623e a6e4 173e b791 003d 4feb 073e
00000020: 850a 303e 29e4 67bb 3e38 18be f5dd 72bc
00000030: d48d 53bd cd06 48be 21fb f4bd 77d0 49be
0.021997051 -0.033943623 -0.031753838 -0.04446839 0.22145078 0.14833316 0.031388965 0.13273357
0.17191513 -0.0035383797 -0.14865205 -0.0148234265 -0.05164893 -0.19533844 -0.119619615 -0.1970843

conv5.0.weight f4 [16, 16, 5]
00000000: 68bb d23d 4226 acbd 48c5 a9bc 94a9 223d
00000010: de5e 8d3d 0859 983c c7e7 8ebd 8063 2ebc
00000020: 0040 e43d 2214 8abd eca3 b6bc c409 9c3d
00000030: 3061 d8bb 60f8 853c bb6a cebd 9219 86bd
00000040: 8098 843c 8030 493d 709a 44bc bcc7 503d
00000050: e86f 163d d8ac 523d 4061 033d 7eb1 0bbd
00000060: c070 a9bc d45e 063d f398 8bbd 46ca a53d
00000070: ba4a c0bd c4b5 6d3d 42fd e3bd 9212 c73d
00000080: 885c 5c3d f069 8f3d c4d4 033d bc01 d7bd
00000090: 09f7 d5bd 4453 873d 8828 9c3d 985a d43d
000000a0: 082b ba3d 9c48 d3bd c4c4 b7bc 0c99 cfbd
000000b0: 003f e7bc 40e7 3a3d 48c7 2abd e0e3 71bc
000000c0: 4e75 d43d e0fd 7bbb 30f4 163d 8c4e bdbc
000000d0: 94be 86bd 1acb d53d 7ce3 e43d 5878 4b3d
000000e0: 74c4 813d 20cc 553d 48f0 d3bd 007d c73c
000000f0: bcb2 09bd a848 3d3c 0822 3abd 6420 0fbd
00000100: 0475 97bd f8e9 063d 40bb 7d3c 2e13 6fbd
00000110: 5002 b3bb 84d4 963d 1c80 afbc c0cc 503c
00000120: 4b63 e4bd a08a 633d dcf5 1f3d 88c3 643d
00000130: 2028 f53c b867 cf3c 5ce1 69bd 5c07 8d3d
00000140: 666f 01bd 4e92 84bd ce97 a1bd b826 81bd
00000150: 39b4 c5bd f6fb b7bd 3b1c 6cbd bc46 b4bc
00000160: bca6 b03d 26e4 08bd 04ad 163d a5d9 cdbd
00000170: 18c0 193d 4053 cf3c 2468 c7bd a06f 633b
00000180: 06f1 bb3d a21c d83d 16b5 77bd 8d94 60bd
00000190: e178 a0bd 19e7 b3bd e84e 0f3d 4042 b53d
000001a0: 0ecc debd e0bd 9d3c e038 95bb ae3d b3bd
000001b0: 7ce3 3bbd 0028 24b9 80b7 433d f415 eebc
000001c0: c8b2 853c 40d9 773d 0805 353d f4cc 183d
000001d0: c8c0 513c bc1e 9fbc b7c7 d9bd 30ce 093d
000001e0: 1c9c 84bd f094 92bc b09d c1bd dffb 61bd
000001f0: bc6e a3bc 6895 9ebc ecce 133d d8f8 d63d
00000200: d4be 813d cc54 d33d 9b71 91bd ecb9 81bd
00000210: ea76 e33d 9d02 d9bd c816 a0bd f03b 92bc
00000220: 1de1 73bd c01b d43d f86f 2e3d f8f4 62bd
00000230: 7ebe d1bd 303d 60bc 0813 f53c c7fa d7bd
00000240: f8c8 8bbd f498 2d3d 5164 7dbd 60e8 553d
00000250: f88f 0fbd 34fc b1bd 1089 14bd 6ec1 a5bd
00000260: 9c3f 523d 10c1 01bc 0c8e 323d d4e6 7e3d
00000270: d010 913b 8c8f 793d f02b df3d d4a5 93bc
00000280: f887 9fbc b419 92bd 32d7 bdbd 8486 0a3d
00000290: 2809 893c 984a 193d 5c57 753d ee12 d73d
000002a0: a01f e33c 25ce 9dbd 0a50 adbd 9e43 3bbd
000002b0: 68fe e6bc 78a7 9dbc f89e e63c d896 59bd
000002c0: 48ba fbbc 3841 d93c 2c21 183d 28ce 1cbc
000002d0: fc98 993d 64c1 d13d 2825 07bc c32e 7dbd
000002e0: 18bc 9f3d 90c6 22bd 84a3 6e3d 845a a9bd
000002f0: c0b3 b2ba d657 d23d fcaf 42bd 5417 953d
00000300: f726 c0bd 5c6a 04bd 846c b43d 94b1 cfbd
00000310: 2e78 b6bd 58d2 f03c 8444 213d 1023 b9bd
00000320: 803c afbd e86f 7e3d 8399 bfbd 308c 2e3d
00000330: 9a47 77bd a262 bf3d 80d0 f7bb c85b 7c3d
00000340: 5890 8abc 20a5 113b 608c 6fbb c8df d6bc
00000350: 44e0 adbd 6aa9 92bd 2465 cbbc 40a5 49bd
00000360: a09f c33b c64d c13d c5a7 dbbd f647 d0bd
00000370: 0c78 a8bd fccb a93d accb 5e3d 5f6b 9bbd
00000380: c4cc de3d c6ea a53d e88f aabd ac2c 5d3d
00000390: 1482 8ebd fe8a c63d 6ff7 4ebd 14f0 aabc
000003a0: 543d 84bd e045 683c 4ef7 973d 5430 b43d
000003b0: 4ce1 763d a8e5 3dbd 8c83 2e3d 769a 70bd
000003c0: 7694 1fbd 0a3c 9f3d c874 423d 648c e2bd
000003d0: c47f 393d 7e2d 23bd 6011 3e3d 5c2c 97bc
000003e0: 7c02 e1bc e8da 2bbd 4a1c c43d 08d8 28bc
000003f0: d09e 763c 96a6 d1bd bc19 ad3d 961e 0cbd
0.10289651 -0.084057346 -0.020723954 0.039712504 0.0690286 0.01859714 -0.06977802 -0.01064384
0.111450195 -0.06742121 -0.02229496 0.0761905 -0.0066033825 0.016353786 -0.10078951 -0.06547846
0.016185999 0.04911852 -0.011999711 0.05097173 0.036727816 0.051434368 0.032075167 -0.034104817
-0.020683646 0.03280528 -0.06816282 0.08095221 -0.09389253 0.058034673 -0.111322895 0.09720339
0.053799182 0.07002628 0.03218533 -0.10498378 -0.10447509 0.066076785 0.07624918 0.10368842
0.09090239 -0.103165835 -0.022432692 -0.10136613 -0.028228283 0.045630693 -0.041693956 -0.014763802
0.103739366 -0.0038450882 0.03685397 -0.023108743 -0.06579319 0.10439129 0.11176202 0.049675316
0.063362986 0.052196622 -0.103485644 0.024351597 -0.03361772 0.011552967 -0.04544261 -0.034943
-0.07395366 0.032937974 0.015486538 -0.0583679 -0.005462922 0.07364753 -0.021423392 0.012744129
-0.11151751 0.055552125 0.03905283 0.055850536 0.02992636 0.025318012 -0.057099685 0.06886169
-0.03160038 -0.06473218 -0.078902826 -0.06306213 -0.09653515 -0.089836046 -0.05764411 -0.022006385
0.08625552 -0.033420704 0.036786094 -0.10051278 0.03753671 0.025308251 -0.0973666 0.0034703985
0.09176831 0.10552336 -0.06047543 -0.05482917 -0.07835556 -0.08784313 0.03498736 0.08850527
-0.10878764 0.019255579 -0.004553899 -0.08751999 -0.045871243 -0.0001565516 0.04778242 -0.029063202
0.016320601 0.06050992 0.04419425 0.037304834 0.01280231 -0.019423835 -0.10633796 0.0336439
-0.06475088 -0.017893285 -0.09453905 -0.055171844 -0.019950263 -0.019358352 0.036086008 0.10496682
0.06335226 0.10318908 -0.07101747 -0.0633429 0.111066654 -0.105962016 -0.07816845 -0.017850846
-0.059540857 0.103568554 0.04258725 -0.0554094 -0.102414116 -0.013686463 0.029916301 -0.10545879
-0.06825441 0.042382196 -0.061863247 0.052223563 -0.03504941 -0.08690682 -0.036263525 -0.080935344
0.051330194 -0.007919565 0.043592498 0.062231854 0.004427053 0.060927913 0.10897052 -0.018023409
-0.019474015 -0.07133809 -0.09269561 0.03381969 0.016727999 0.037424654 0.059897766 0.105016574
0.02772504 -0.077053346 -0.08462532 -0.04571878 -0.028197482 -0.019244894 0.028151974 -0.05312237
-0.030728474 0.026520357 0.03714101 -0.009570636 0.074998826 0.102419645 -0.008248605 -0.061812174
0.07799548 -0.039740145 0.05826141 -0.082692176 -0.0013633892 0.102706596 -0.047531113 0.0727984
-0.09382432 -0.032327995 0.0880976 -0.10141292 -0.08909641 0.029397175 0.039371982 -0.09039891
-0.08556461 0.06211844 -0.09355452 0.042614162 -0.06037102 0.093449846 -0.007562697 0.061610967
-0.016914532 0.0022223666 -0.0036552176 -0.026229754 -0.08490041 -0.071612194 -0.024828501 -0.04922986
0.0059699565 0.09438662 -0.10725359 -0.101699755 -0.08226022 0.0829086 0.054393455 -0.07588839
0.108789 0.0810142 -0.08328229 0.05399768 -0.06958404 0.096944794 -0.05052894 -0.020866431
-0.0645701 0.014176816 0.074202165 0.0879828 0.060273454 -0.046361595 0.04260592 -0.058741055
-0.038959943 0.077751234 0.047474653 -0.11061934 0.045287862 -0.039838307 0.04640329 -0.01845377
-0.027467005 -0.041956812 0.09575708 -0.010305412 0.015052512 -0.10236852 0.08452174 -0.034208857

conv5.0.bias f4 [16]
00000000: cb91 a8bd 98ec 9d3d 60d5 b03d ec52 a53d
00000010: 1563 5bbd 0479 8abd 8037 c33d 6854 9c3d
00000020: 1069 cf3c ed78 88bd a0f4 793b e07e 19bc
00000030: 7c17 14bd f163 c0bd 6634 abbd e545 8fbd
-0.08230933 0.07711142 0.08634448 0.08072457 -0.05356129 -0.06761363 0.0953207 0.07633287
0.025318652 -0.0666369 0.0038140193 -0.009368628 -0.03615521 -0.09394062 -0.083596036 -0.06995753

conv6.0.weight f4 [8, 16, 5]
00000000: 0e0f 8d3d 9218 d83d a9d0 82bd d021 123d
00000010: 90ea fcbb c284 91bd eaf1 c7bd c026 0b3b
00000020: 8804 ed3c d4f3 c73d acd4 2e3d 1e28 90bd
00000030: 08bc ecbc c88f 8f3c fcf3 c73d ee9f 9dbd
00000040: f40c bbbc 2432 743d 7669 b33d 00ad 3f3d
00000050: 8b9e b3bd ced1 bfbd df2e b9bd 963a c43d
00000060: 4a31 11bd c490 96bd 14eb 893d a037 763b
00000070: 5453 563d 9c32 47bd b830 7cbd f822 67bd
00000080: c6f5 6ebd 2edb 1bbd 6a85 d23d f63f 9dbd
00000090: 901b dfbb 02e7 923d 7831 6ebc 20c4 b83c
000000a0: f868 3a3d e722 dcbd 3046 6e3c f0a6 c83d
000000b0: 70d5 643c e103 53bd 6ab6 9bbd 30c8 b53d
000000c0: 50b6 a7bd a263 aebd 5889 a7bd 70fe 2f3d
000000d0: c09e 1e3b 24ad 12bd 98c4 e63c ce02 ab3d
000000e0: ae20 943d 5cf3 913d ccab a3bc c04f 9e3c
000000f0: 8006 f6ba be86 c53d fcf8 aabc e0a2 ac3b
00000100: 20f8 af3c 834f bebd 5a06 973d 3405 003d
00000110: 885e c7bd 5fd1 7ebd 5cbb 1f3d 78da 933c
00000120: ec03 1b3d 0c6b a3bd 17b9 4dbd 124c 9bbd
00000130: 609d 513b 9979 88bd 185d 85bd 03ca e0bd
00000140: 0063 ad3c c029 60bd c225 85bd 801b 793d
00000150: 18f5 513d c4c1 de3d 6d92 a3bd 90a1 323d
00000160: 98d5 7bbc 8c23 9e3d a6ca 80bd a4d8 dbbd
00000170: 9eee 92bd f823 b23d 8883 bdbd e8ed bdbd
00000180: 0977 b7bd e8bc 083d 0076 b03d 537d 71bd
00000190: 84a2 533d 2634 41bd 742d 8ebc 28b8 5abc
000001a0: 926a 803d 183e 2e3c 6e0d cf3d 9cbb 063d
000001b0: 688b 8d3c 847a 9b3d 12f7 c73d d8b9 f23c
000001c0: 8e23 883d 549f 513d c0cb c83b 184e 1c3d
000001d0: ee28 99bd 3c87 a4bd 6ca4 563d 8602 863d
000001e0: e0db db3c 2074 a83c e806 463c 643a e1bd
000001f0: 6086 763c b602 c63d 5898 82bc 5c8f f4bc
00000200: 7269 9e3d e7fd 72bd 684b 963d 4669 8cbd
00000210: b85e c33c a4c3 c83d d6ae d63d 305f 66bc
00000220: 1453 a23d 7a3f c13d 60cd 0ebd 3421 d3bc
00000230: 7833 32bc d2f8 c23d 2aa9 29bd 70d8 a23c
00000240: 4abf a0bd 866d b6bd d7a7 e3bd f6dc b1bd
00000250: 8808 44bd fbdd 54bd 4603 88bd 305c a0bc
00000260: de75 b73d f245 c43d 2886 463d f081 c4bb
00000270: 8010 9fbb fdda a5bd e318 5bbd 785a bf3c
00000280: 68f3 213d 88c2 90bd 7094 ddbb 3694 a63d
00000290: 9886 243d 380a 7ebd 58d9 3f3d 0883 54bd
000002a0: 48b4 3fbc 3074 a2bd 28bf 873d b42c edbc
000002b0: e933 70bd bc01 bb3d c850 d4bc e301 cfbd
000002c0: fc21 393d 8241 b63d 7c65 8dbd dc7b 1cbd
000002d0: 6e2c 12bd fc11 21bd 287c 2fbc 89c9 6abd
000002e0: 12c2 8e3d f0cc 46bd f082 de3d 48d6 1a3d
000002f0: 7e45 8f3d 4616 7bbd 7072 a83d 705b 8cbd
00000300: 9fa8 9dbd c0f1 2cbc a0ef 6f3b ace1 94bc
00000310: f6ac 0bbd 98a0 da3c 50d4 c83c 4cbf 823d
00000320: feb3 843d b47a dc3d 60d5 10bc b419 813d
00000330: 1680 e13d ce14 dabd 5a41 c5bd 7644 9a3d
00000340: 12df 07bd 220f 10bd 0043 c9bb 9027 f63c
00000350: ecc4 9fbc f138 94bd ca4b 4fbd 16ef a2bd
00000360: cc70 97bd 4601 6dbd ea33 8b3d 7c70 113d
00000370: f09b f6bb 5806 803c 40a8 cfbd a177 7bbd
00000380: 9e57 12bd fc77 93bc 783f e03c 6076 5b3d
00000390: 0826 d1bc b131 dabd c13a 99bd 8050 583c
000003a0: 0e72 cabd f3a1 83bd c867 3f3c 54e0 5bbd
000003b0: 0892 02bc 965e d73d 7822 323d 7da5 7fbd
000003c0: 495d e0bd e49c 0c3d b0e5 bc3d 8018 97bd
000003d0: 98c3 b33d f4a6 073d 6084 d03d 846b 47bd
000003e0: 70cb 113c da1b c5bd b8ee c93c fc5b ba3d
000003f0: c06e 5f3d 0eee e4bd a682 2dbd e217 c33d
0.06887637 0.105515614 -0.06387455 0.035676777 -0.0077183917 -0.071054 -0.09762938 0.0021232814
0.028932825 0.097633034 0.04268329 -0.07038902 -0.028898254 0.017524615 0.09763333 -0.0769652
-0.022833325 0.05961813 0.087603495 0.046795845 -0.08770474 -0.09366189 -0.09042143 0.09581487
-0.035447396 -0.073518306 0.06734291 0.0037569776 0.05232556 -0.04863225 -0.0615699 -0.056429833
-0.058339857 -0.038050823 0.10279353 -0.07678215 -0.0068087056 0.071729675 -0.014538161 0.022554457
0.045510262 -0.107488446 0.014543101 0.09797466 0.013966903 -0.05151737 -0.07603152 0.08876073
-0.0818907 -0.08515097 -0.08180493 0.04296726 0.002420351 -0.03580965 0.028169915 0.08350144
0.07232796 0.07126495 -0.01997938 0.019325137 -0.0018770248 0.09644841 -0.020870678 0.0052684397
0.02148062 -0.092925094 0.07374258 0.031254962 -0.09734827 -0.06221139 0.03899704 0.01804851
0.037845537 -0.07979402 -0.050225344 -0.07582869 0.0031984672 -0.06663818 -0.06511897 -0.10976031
0.021165371 -0.054727316 -0.06501342 0.06081724 0.05125913 0.108768016 -0.07986913 0.04361111
-0.015370749 0.07721624 -0.06288652 -0.1073468 -0.07174419 0.08698267 -0.09253603 -0.09273893
-0.08958251 0.03338328 0.08616257 -0.05895741 0.05166866 -0.047168873 -0.017355658 -0.01334957
0.06270327 0.0106349215 0.101099834 0.032893762 0.017278388 0.075917274 0.09763922 0.029629633
0.066474065 0.051177338 0.0061278045 0.038160414 -0.0747851 -0.080336064 0.0524029 0.0654345
0.026838243 0.020563185 0.0120866075 -0.10997465 0.015046686 0.09668486 -0.015941784 -0.029853515
0.07734956 -0.05932417 0.07338601 -0.06856017 0.023848876 0.098029405 0.10482566 -0.01406078
0.07926002 0.09435935 -0.03486383 -0.025772668 -0.010876529 0.09520115 -0.041421093 0.019878596
-0.078489855 -0.08907609 -0.11115997 -0.08684723 -0.0478597 -0.05196951 -0.06641249 -0.019575208
0.08958028 0.095836535 0.048467785 -0.005996935 -0.004854262 -0.08098409 -0.05349053 0.023358569
0.03953877 -0.07068354 -0.00676208 0.08133738 0.04016742 -0.062021464 0.046838135 -0.051882774
-0.011700697 -0.07932317 0.06628257 -0.02895198 -0.058643255 0.0913119 -0.025917426 -0.10107782
0.045198426 0.088992134 -0.06904122 -0.03820406 -0.035686903 -0.03932379 -0.0107107535 -0.057321105
0.0697061 -0.048535287 0.10864818 0.03780201 0.069956765 -0.06130054 0.08224952 -0.06853378
-0.076981775 -0.010555685 0.0036611333 -0.018174015 -0.034100495 0.026687905 0.024515301 0.06384143
0.06479643 0.10765591 -0.008839935 0.063037306 0.110107586 -0.106484994 -0.096316054 0.07532589
-0.03317172 -0.03517068 -0.00614202 0.030048162 -0.01950308 -0.07237423 -0.050609387 -0.07955758
-0.07394561 -0.057862543 0.06797011 0.035507664 -0.0075259134 0.015628025 -0.10139513 -0.061393384
-0.03572809 -0.018001549 0.027374014 0.053579688 -0.02553083 -0.10654009 -0.074819095 0.013202786
-0.098850355 -0.06427374 0.011682458 -0.053680733 -0.007969387 0.10516088 0.043489903 -0.06241368
-0.10955293 0.03432931 0.09223497 -0.0737772 0.08777541 0.033118203 0.101814985 -0.04868652
0.008898601 -0.09624453 0.024649963 0.09099576 0.05454898 -0.11178218 -0.042360924 0.0952604

conv6.0.bias f4 [8]
00000000: 287f 28bc 0af5 72bd 0c3e 9ebd 7e89 9f3d
00000010: 166e bfbd dac9 49bd 4c1b 60bd 5a4b 83bd
-0.010284223 -0.05931572 -0.07726678 0.077898964 -0.09347169 -0.049264766 -0.054713532 -0.064108565

fc.weight f4 [3, 304]
00000000: 11fb 2d3d c856 91bd 6404 ba3b 9a49 653a
00000010: 0fc9 8739 0dec 1cbd 5d10 64bd 6e13 cf3c
00000020: a4f0 03bd a822 7abc 5125 2fbc f3ce afbc
00000030: d9d7 423d 6ed2 693c 42bd 82bd 0fc8 fdbd
00000040: fcdd ce3c 4f13 fd3d 86f9 d43c 1c7e a9bd
00000050: b20e 623c e515 03bd c3a4 803b 8519 133b
00000060: a24f 98bc 0ae9 b4bc 9910 903b e6d3 a83c
00000070: 506f 193c cdde 193c ca85 0fbd 51a9 25bd
00000080: ad97 d1bd 34d6 98ba 3059 0dbc 440c be3c
00000090: 4116 63ba c378 f4bc f607 d03b d316 0cbd
000000a0: 8bb8 043d b8d7 48bc 3ee2 903a 2616 23bd
000000b0: 63c6 13bd 69b1 b63c dc6a 98bc 32fc 8dbc
000000c0: 6a4d aebc 163c 01bd 72be 133c 01c9 9c3d
000000d0: 5308 8a3d 821f 933c 862e 14be ad8b 36bd
000000e0: af20 b53d 4997 3f3b be28 993b f9df 9abc
000000f0: a9d6 2b3d 8a97 59bd ad8c fabc d7eb aa3b
00000100: efdc 01bd 32ee a1bd 9b63 4cbb 3f75 afbc
00000110: 477a 86bd 65ee 11bc 21e0 883d 572b 4c3c
00000120: c8bd 7f3d 733a 8ebd b423 5bbd 0120 b93c
00000130: b5f8 233d 0766 06bd 98ec ea39 4abe 51ba
00000140: ca02 cc3c 9f75 143c 1c37 713c f8dc 7abc
00000150: cac7 d63c bd23 2cbc dd5a 5f3b 2b0b e13b
00000160: 1776 e73a 2155 3f3d 89fc a13c 2f53 943d
00000170: 71f2 73bc 917e d43d 6d06 193e a61a 00bd
00000180: 4b73 44bd 4c14 5d3d 41cf dabc 258d a53c
00000190: 6170 e03c 297f 383d 85c7 1abc 9ed4 33bd
000001a0: 70b6 cf3c e83b 97bb 7945 6cbd 336c a83d
000001b0: 12a6 813d 40de 8d3d bf00 cbbd 7852 e23b
000001c0: 7d56 173e 4a99 973d 82bd bdbb ab07 e13c
000001d0: 49b7 993c 55fb 7a3d f2c9 503d 87d3 88bd
000001e0: 1767 143c 6e8b 683a 2a19 31ba 0613 a53c
000001f0: 4624 8ebc 5174 01bd 497c a63a 6317 6a3c
00000200: bc12 94bd 661d a3bd c0b9 033e 19e7 d93d
00000210: dba8 b43c d6f0 8fb9 f98b 3abb 6361 6f3d
00000220: 07ce b2bc cb52 563c b56f 683d 86cc 4cbd
00000230: 17a6 9bbc cbc0 31bd a720 453b 5504 1ebd
00000240: d7de 013d ac4c 333d 92a1 ae3d 400b 17bd
00000250: 50ec 2dbc 22ea e3bc b8e2 fd3d 42d4 c63d
00000260: 2712 e2bb 72e6 123d fdd1 91bc 7136 2dbd
00000270: 7f3f 183d 8348 593b a546 0fbd 0c22 55bc
00000280: 91a2 293c 83c0 633c 4fce c4bb 303d 64bc
00000290: e09f 003d afcc 323d 65f1 8e3d 9ec1 4f3d
000002a0: b2f0 f0bd 054b fb3c 35ef c43d 70f4 db3c
000002b0: 90c9 593c 0b65 e93c 145c 0a3c 472a 723c
000002c0: e00e 87bc b8d0 843c fd6a 6f3b c696 2dbd
000002d0: d733 24bd 9ce2 873d 3a9c 763d 298a 7abd
000002e0: b5a1 23be 94bb 23be e4fb 5bbd 6d24 893e
000002f0: 4fd5 843e 4f04 d03d bf67 d73c ab3b 0d39
00000300: 1f23 5ebd 152b 8b3c 89c9 14bd de88 b9bc
00000310: 0283 223c 34c3 94ba ccd7 243c 29d5 313b
00000320: 4c64 873d 6946 523c 1e88 65bc 7696 95bb
00000330: e9b6 1c3d 8f94 013e 9786 95bd c1cb 16be
00000340: d35a 0bbe e931 d03c fe63 293d 0981 aabc
00000350: 0aba 753d 7959 1cbd c138 ebbc a179 123d
00000360: 673a 35bd dd95 83bd 2701 9dbc c848 93bc
00000370: fb7a 3e3c 4146 1a39 d073 bf3d 52a0 d63d
00000380: 1a5c fd3d f844 32be d284 5bbe 8a06 00be
00000390: 4c83 45bd 3fb2 5d3c 2653 5c3c 9478 57bd
000003a0: f3cf 0d3d 658f c83c ea85 b63c 8804 033d
000003b0: 602d 27bc 9fda 063d 95db 6a3c 3707 7abd
000003c0: c71b 833c 7cd6 97bd 9dcc 9cbd 68e9 0dbe
000003d0: 7225 193e d609 883d ebb9 85bd 90fb 3b3d
000003e0: 9825 8cbc 3d1e acbc ac60 71bc 9906 dabc
000003f0: 50be 2dbd f5d4 1bbc f5ec d1bc 0b2f c33c
0.042475764 -0.0709663 0.005676793 0.0008746624 0.00025899007 -0.038311053 -0.055679668 0.02527782
-0.032211915 -0.015267052 -0.010690049 -0.021460986 0.04756913 0.014271362 -0.06383754 -0.12391674
0.025252335 0.123571984 0.025997888 -0.082760066 0.013797449 -0.032003302 0.003925891 0.002244563
-0.01859266 -0.022083778 0.00439651 0.020608854 0.009364918 0.009391499 -0.0350397 -0.040444676
-0.10234008 -0.0011660517 -0.008627221 0.023199208 -0.0008662679 -0.02984274 0.0063486053 -0.034201454
0.032402556 -0.012258463 0.0011053754 -0.039816044 -0.03607787 0.022301393 -0.018605642 -0.01733217
-0.021277148 -0.031551443 0.009017574 0.07655526 0.06739869 0.01795936 -0.14470872 -0.0445668
0.088441245 0.002923446 0.0046740463 -0.018905627 0.041952763 -0.053123035 -0.030584658 0.0052161026
-0.03170484 -0.0790676 -0.00311873 -0.021418212 -0.06566291 -0.008906935 0.06683374 0.012461505
0.06243685 -0.06944742 -0.053500846 0.022598268 0.040032107 -0.032812145 0.00044808234 -0.00080010726
0.024903674 0.009061246 0.014722612 -0.015311472 0.026218314 -0.010506568 0.0034081258 0.0068677864
0.0017659095 0.046712045 0.019773738 0.072424285 -0.0148893455 0.10375703 0.14943857 -0.031275414
-0.047961514 0.053974435 -0.026710154 0.020208905 0.027397336 0.045043144 -0.009446983 -0.04390394
0.025355548 -0.0046152957 -0.05768344 0.08223762 0.063305035 0.069271564 -0.09912252 0.0069068037
0.14779086 0.074022844 -0.0057904134 0.027469477 0.018764155 0.061274845 0.05097384 -0.06680971
0.009057782 0.00088708743 -0.0006755764 0.020150673 -0.01735128 -0.03160507 0.0012701835 0.014287802
-0.07230136 -0.07964592 0.12863827 0.106397815 0.022053173 -0.00027454522 -0.0028464778 0.058442485
-0.021826757 0.013081263 0.056747157 -0.049999736 -0.019000096 -0.043396752 0.0030079277 -0.03857835
0.031706657 0.043774292 0.08526911 -0.036875963 -0.010615423 -0.027821604 0.12396759 0.09708454
-0.0068991366 0.0358643 -0.017800326 -0.042288247 0.03716993 0.0033154793 -0.03497948 -0.013008606
0.0103537 0.013900879 -0.006006039 -0.013930604 0.03140247 0.043652233 0.06979636 0.050721757
-0.11764659 0.03067542 0.096159376 0.026849955 0.013292685 0.028490564 0.008444805 0.0147805875
-0.016486585 0.016212806 0.0036532276 -0.042380117 -0.0400885 0.06635019 0.060207583 -0.061166916
-0.15979655 -0.15989524 -0.05370702 0.26785603 0.25943992 0.10157072 0.026294587 0.00013469036
-0.054232713 0.016988317 -0.03632501 -0.022648271 0.00991893 -0.0011349679 0.010061216 0.002713511
0.06610927 0.01283417 -0.014009504 -0.0045650555 0.038260374 0.12654327 -0.073010616 -0.14726163
-0.13608865 0.025414424 0.041355126 -0.020813482 0.059991874 -0.038171265 -0.028713586 0.035760526
-0.04424515 -0.064250685 -0.019165589 -0.01797904 0.0116260005 0.00014712756 0.09348261 0.104797974
0.123710826 -0.17409122 -0.21437386 -0.12502494 -0.048220918 0.013531267 0.0134475585 -0.052605227
0.034622144 0.024482438 0.022280652 0.031986743 -0.010203689 0.032923337 0.014334579 -0.061042037
0.016004456 -0.074139565 -0.076562144 -0.13858569 0.1495569 0.06642501 -0.06529602 0.045894206
-0.01710777 -0.021010512 -0.014732521 -0.026614474 -0.042417824 -0.009511222 -0.025625685 0.023826143

fc.bias f4 [3]
00000000: 1158 163e a7b4 943c 6a1c 20be
0.14682032 0.018152548 -0.15635839
