routes/model20.pkl (torch_old, 21357 bytes, 14 tensors)

conv1.0.weight f4 [4, 1, 5]
0	0x3d5b4fcc	0.053542897
1	0xbda5d2be	-0.080968365
2	0xbc965017	-0.018348737
3	0xbe44a4cc	-0.1920349
4	0xbe626947	-0.22110473
5	0xbe3f635b	-0.18690245
6	0xbeaab574	-0.33341563
7	0xbed7f0d8	-0.42175937
8	0x3e444de5	0.1917034
9	0x3d66b279	0.05632255
10	0xbeb561aa	-0.35426074
11	0x3e01ca4c	0.12674826
12	0x3e48eab9	0.1962079
13	0xbe3cd7d0	-0.18441701
14	0x39e81f60	0.00044273864
15	0x3e61ae93	0.22039251
16	0x3d977f90	0.073973775
17	0x3d73d26a	0.05952684
18	0x3dd91820	0.106003046
19	0xbe0bb5cd	-0.1364357

conv1.0.bias f4 [4]
0	0xbec42e85	-0.38316742
1	0x3eaf9f8b	0.3430141
2	0x3eb977cc	0.3622421
3	0x3e13e85c	0.14444107

conv2.0.weight f4 [8, 4, 5]
0	0x3dd6d391	0.10489572
1	0xbda04615	-0.07825867
2	0x3c98305c	0.018577747
3	0xbdff6f82	-0.1247244
4	0x3dce2168	0.100649655
5	0xbdc804d7	-0.09766548
6	0xbd9e7e42	-0.077389255
7	0x3e079b11	0.13242747
8	0xbe47fbeb	-0.19529693
9	0xbdd807bb	-0.105483495
10	0x3df7d752	0.12101616
11	0xbe5d544d	-0.2161419
12	0x3ca9014f	0.020630507
13	0xbcf48270	-0.029847354
14	0xbe74966f	-0.23885511
15	0xbe30907f	-0.17242621
16	0xbe58e732	-0.21181944
17	0x3e071268	0.13190615
18	0xbe1821d0	-0.14856648
19	0x3cb21f14	0.021743335
20	0xbe532262	-0.20618585
21	0x3e1a8838	0.15091026
22	0x3c9b6dde	0.018973287
23	0x3e04177b	0.12899582
24	0x3b4a0038	0.0030822884
25	0xbe32ed29	-0.17473282
26	0xbe33deae	-0.17565414
27	0xbd664839	-0.05622122
28	0xbe120392	-0.14259174
29	0xbdab22f8	-0.08356279
30	0xbe606257	-0.21912514
31	0x3d0dd617	0.034628
32	0xbe41621b	-0.1888508
33	0xbdd6a87d	-0.10481355
34	0x3d8926af	0.066968314
35	0xbd6371de	-0.055528514
36	0xbcd762bd	-0.0262922
37	0x3ccc7f0c	0.024962924
38	0x3de8304c	0.11337337
39	0x3bd7989c	0.0065794718
40	0x3d881a24	0.06645611
41	0x3d078fe4	0.03309621
42	0x3d30ef82	0.043197162
43	0x3d79e950	0.06101352
44	0xbe09b575	-0.13448127
45	0x3e359d6e	0.17735836
46	0xbe16f1c4	-0.14740664
47	0xbe6661f3	-0.22498302
48	0x3df98103	0.1218281
49	0xbcbb2eec	-0.022849523
50	0x3ca93273	0.020653939
51	0xbbc550d1	-0.006021597
52	0xbe7a9a69	-0.24472965
53	0xbe3c06db	-0.1836199
54	0xbcdeb8e8	-0.02718778
55	0xbe24e5bd	-0.16103263
56	0xbab0fee4	-0.0013503698
57	0xbdbdf1fe	-0.09274672
58	0xbe8e3c3d	-0.27780333
59	0xbc85ce2d	-0.016333664
60	0xbb1fe12e	-0.0024395692
61	0xbe5473f9	-0.20747365
62	0xbe42c976	-0.19022164
63	0x3e4d55d9	0.2005228
64	0xbe406e3e	-0.18792054
65	0xbe7ae125	-0.24499948
66	0xbdcfb73c	-0.10142371
67	0xbcde945c	-0.027170353
68	0xbca32ded	-0.01991936
69	0xbdb8659e	-0.09003757
70	0xbde418fe	-0.111375794
71	0xbd8b9b5a	-0.0681674
72	0xbe1f4172	-0.15552309
73	0xbd900848	-0.070328295
74	0xbe0dbce0	-0.13841581
75	0xbe1e976c	-0.1548745
76	0x3db71856	0.089401886
77	0x3b953e1e	0.004554524
78	0x3e4558a4	0.19272095
79	0xbad89387	-0.0016523459
80	0x3aa301c4	0.0012436439
81	0xbcf704b8	-0.030153617
82	0x3d5d7c92	0.054073878
83	0x3e2ab619	0.16671027
84	0xbe229e7d	-0.15880771
85	0x3e29056f	0.16505979
86	0xbcb94374	-0.022615172
87	0xbe1bc2f8	-0.15211093
88	0xbd77f085	-0.06053211
89	0xbdb83028	-0.0899356
90	0x3d58be9a	0.052916147
91	0x3bafb970	0.005362682
92	0xbe4dc073	-0.20092945
93	0xbde4ecf5	-0.111780085
94	0xbce601a0	-0.028076947
95	0xbe6d525b	-0.23175947
96	0xbde1c224	-0.110233575
97	0x3c9a9c89	0.01887347
98	0xbd9a0d8d	-0.07522116
99	0xbe9b0fc4	-0.30285466
100	0xbe0f8ac8	-0.14017785
101	0x3cf67818	0.030086562
102	0xbdb25d90	-0.08709252
103	0x3d887f07	0.066648535
104	0x3d380391	0.044925276
105	0xbdeb6801	-0.114944465
106	0xba43b439	-0.0007465515
107	0xbd61e4d4	-0.055149868
108	0xbd808fab	-0.062774025
109	0x3c98b71f	0.018642006
110	0x3e10b25c	0.14130539
111	0xbcc8b2c2	-0.0244993
112	0xbe07fb7d	-0.13279529
113	0x3d8d5ebe	0.06902836
114	0xbe2b4629	-0.16725983
115	0xbdd5b1da	-0.10434313
116	0x3de9352b	0.11387094
117	0xbde63ad6	-0.11241691
118	0xbd791179	-0.06080768
119	0xbd42b54b	-0.047536176
120	0x3c95c115	0.018280545
121	0xbd00c397	-0.03143653
122	0x3d723994	0.059136942
123	0xbcb9c8b3	-0.022678709
124	0xbe8143d5	-0.25247064
125	0xbd5ad9fe	-0.05343055
126	0x39d1bc74	0.00040003995
127	0xbe8e6f8c	-0.2781948
128	0x3ad712a8	0.0016408758
129	0xbe89c85d	-0.26910678
130	0xbe8787ef	-0.26470897
131	0x3df2cb40	0.11855173
132	0x3e02bddc	0.12767738
133	0x3dee3171	0.11630524
134	0xbdc4ff41	-0.09618998
135	0x3c2c22ce	0.010506345
136	0xbdc6b370	-0.09702194
137	0x3d2ebb66	0.042659186
138	0xbe1a6837	-0.15078817
139	0xbc882ea9	-0.016623812
140	0xbda7a3df	-0.08185553
141	0xbe00989d	-0.12558217
142	0xbe0f627b	-0.14002411
143	0xbd1f0e79	-0.03883216
144	0x3d3b5595	0.045735914
145	0xbe7f5c4d	-0.24937554
146	0xbc8b85d5	-0.01703159
147	0x3dccf1cc	0.100070566
148	0xbe422673	-0.1895998
149	0xbd8c30c1	-0.068452366
150	0x3cc39537	0.023874862
151	0xbd4b4951	-0.049630467
152	0xbe01d868	-0.12680209
153	0xbe5b1c55	-0.21397527
154	0x3d9be734	0.07612458
155	0x3de93e59	0.11388845
156	0xbe37bdaf	-0.17943452
157	0xbcd25f6d	-0.025680268
158	0xbdea2916	-0.11433618
159	0xbe81655e	-0.2527265

conv2.0.bias f4 [8]
0	0x3e01e520	0.1268506
1	0xbd1bd3b9	-0.03804371
2	0x3d3652b9	0.044512484
3	0x3e39d274	0.18146688
4	0xbda9bfca	-0.08288534
5	0xbe0773c5	-0.13227756
6	0x3dbeba3d	0.09312866
7	0x3dbb9107	0.09158521

conv3.0.weight f4 [16, 8, 5]
0	0x3d8e0cf3	0.069360636
1	0xbdf274a4	-0.11838654
2	0xbe2ec69e	-0.17067954
3	0x3ce90966	0.028446864
4	0x3e13a2da	0.14417592
5	0x3dcd168c	0.10014066
6	0xbd412662	-0.047155745
7	0x3c2cff30	0.010558888
8	0xbe374fa9	-0.17901482
9	0x3d59b31e	0.053149335
10	0x3d202fe1	0.03910816
11	0xb7d971d8	-2.5921428e-05
12	0xbc136770	-0.008996829
13	0x3da64f83	0.081206344
14	0xbd8c9bec	-0.06865677
15	0xbdf2f3d7	-0.11862915
16	0xbe173285	-0.14765365
17	0x3d730927	0.0593349
18	0x3d7e1a4c	0.062036797
19	0xbe06cffa	-0.13165274
20	0x3d54854e	0.05188494
21	0xbdd99d0e	-0.10625659
22	0xbbf92b94	-0.007604072
23	0x3daa0495	0.08301655
24	0x3dbf629e	0.093449816
25	0x3c2f3cc0	0.010695636
26	0x3d831abd	0.06401584
27	0x3df08227	0.117435746
28	0xbae9e8fe	-0.0017845926
29	0x3ac61006	0.0015110977
30	0xbe2e1528	-0.17000258
31	0xbd7ca1a2	-0.061677583
32	0xbe1d3f47	-0.1535617
33	0xbd36b2f0	-0.04460424
34	0xbd88cc68	-0.066796124
35	0xbddead33	-0.10872879
36	0xba03a0b2	-0.0005021199
37	0xbd92733e	-0.07150887
38	0x3d749292	0.059710093
39	0x3db66bd7	0.089072876
40	0xbdb7a0f8	-0.08966249
41	0xbd7b43b9	-0.061343882
42	0x3dcd92cc	0.10037765
43	0x3d606d49	0.054791722
44	0x3c5dfc10	0.013548866
45	0xbd5b2e12	-0.053510733
46	0x3d7f5d17	0.062344637
47	0x3d67abdb	0.05656038
48	0xbcf1e2d0	-0.029527098
49	0x3d4057bc	0.04695867
50	0xbc9a1673	-0.018809533
51	0x3dc9fe11	0.098629124
52	0xbe17b3bb	-0.14814655
53	0x3c88a59d	0.016680533
54	0xbdf9059c	-0.12159273
55	0xbe22a639	-0.15883721
56	0x3c280562	0.01025519
57	0x3e135252	0.14386871
58	0xbcbd49b6	-0.023106437
59	0x3e2a0474	0.16603261
60	0xbd89c5fc	-0.06727216
61	0x3dbc90dd	0.09207318
62	0x3da297db	0.079391204
63	0x3d1d74fb	0.03844164
64	0xbe1629af	-0.14664339
65	0x3d91ed57	0.07125347
66	0xbd5a169c	-0.05324422
67	0xbddaa4db	-0.10675975
68	0x3d0dd499	0.034626577
69	0xbd9255cf	-0.07145273
70	0xbe117aa6	-0.14206943
71	0xbdfac10b	-0.12243851
72	0x3cf34890	0.029697686
73	0x3b1e4766	0.0024151444
74	0xbd8ba128	-0.068178475
75	0x3d50453c	0.050847277
76	0x3dd26c84	0.10274604
77	0xbd84fcf1	-0.06493557
78	0x3dd89f26	0.1057723
79	0xbd420eac	-0.047377273
80	0x3c8c7584	0.01714588
81	0xbe3b8eac	-0.18316144
82	0xbd000a99	-0.031260107
83	0xbe0761b5	-0.13220866
84	0xbc46f9a6	-0.012144482
85	0xbe4925d0	-0.1964333
86	0xbdb05d8a	-0.08611591
87	0xbd85c7bc	-0.06532237
88	0xbaf7115b	-0.0018849777
89	0xbe0742fa	-0.13209143
90	0xbdfe3067	-0.12411576
91	0x3d9926e0	0.07478118
92	0xbdbe3a9f	-0.09288525
93	0x3dc6ee18	0.097133815
94	0x3dbea617	0.09309023
95	0xbe2a58e2	-0.16635469
96	0xbe1bc916	-0.15213427
97	0xbe0bea97	-0.13663708
98	0xbd704f77	-0.058669534
99	0xbcf955da	-0.030436445
100	0x3cbeb888	0.02328135
101	0xbdf6ce11	-0.12051023
102	0x3e0e7fc0	0.1391592
103	0x3b08aec8	0.002085613
104	0x3d8d0b9e	0.068869814
105	0x3e21f716	0.15816912
106	0x3d851de1	0.064998396
107	0x3cc23bb4	0.02371011
108	0xbd7f71bf	-0.062364336
109	0x3cd88c08	0.02643396
110	0x3d5fad8a	0.05460886
111	0xbc4909d5	-0.012270411
112	0xbd7dfca1	-0.062008504
113	0x3d58f00e	0.05296331
114	0xbcbec6ce	-0.023288157
115	0xbd43af62	-0.04777468
116	0x3dc1c0bf	0.094605915
117	0x3cb9a0e8	0.022659734
118	0xbd189b36	-0.037257396
119	0xbd290013	-0.041259836
120	0xbd78113b	-0.060563307
121	0x3d4134ce	0.0471695
122	0x3e06da24	0.13169152
123	0xbe0854c7	-0.1331359
124	0x3d679ede	0.056547992
125	0x3d9460c6	0.072450206
126	0x3c990e00	0.018683434
127	0xbdc0b8e9	-0.09410269
128	0x3e092183	0.1339169
129	0xbbfeee81	-0.0077798967
130	0x3d0772d6	0.0330685
131	0xbd8afb3c	-0.067862004
132	0xbdc4fe8a	-0.09618862
133	0x3c819c3a	0.015821565
134	0x3d927b49	0.07152421
135	0xbe2a2530	-0.16615748
136	0xbc5d1fb6	-0.01349633
137	0xbd494888	-0.049141437
138	0xbdc3cb02	-0.09560205
139	0xbd25ce3d	-0.040479887
140	0xbd144e35	-0.036207397
141	0xbd765a07	-0.06014445
142	0xbd21ec96	-0.039532267
143	0xbe05b2ca	-0.13056484
144	0x3a9e3f8e	0.0012073384
145	0xbe1ad266	-0.15119323
146	0xbe622c59	-0.2208723
147	0x3cc82b3d	0.02443468
148	0xbe283128	-0.16425002
149	0xbd3caeb2	-0.04606504
150	0xbd7a577c	-0.061118588
151	0x3dcebc46	0.10094504
152	0x3d5b8c52	0.053600617
153	0x3e459e4c	0.19298667
154	0x3e0611ce	0.1309273
155	0x3d75249c	0.059849367
156	0xbd976b8e	-0.07393561
157	0xbe123efd	-0.1428184
158	0x3c828c58	0.015936062
159	0xbdd1d3e5	-0.10245494
160	0x3dddd9ee	0.108325824
161	0xbdec281b	-0.11531087
162	0x3dc92503	0.098215126
163	0x3d68b7f7	0.056816068
164	0xbd00ab91	-0.03141362
165	0x3d4b8e45	0.049696226
166	0x3d3b6390	0.045749247
167	0x3d6ab58e	0.05730205
168	0x3db1908c	0.08670148
169	0x3e2a4669	0.16628422
170	0x3d81a02c	0.063293785
171	0xbe19fb7e	-0.15037343
172	0x3dad6607	0.08466726
173	0x3d8c9a57	0.068653755
174	0xbd5a3141	-0.05326963
175	0xbce10746	-0.027469289
176	0x3e2891a1	0.16461803
177	0x3d7a5c47	0.06112316
178	0x3dacbc14	0.084343106
179	0xbd855afa	-0.06511493
180	0x3cda1421	0.026620926
181	0xbd7f0101	-0.062256817
182	0xbdd150bb	-0.10220476
183	0xbdb1bfa8	-0.08679134
184	0x3db90535	0.09034196
185	0x3ddcc3ff	0.10779571
186	0x3d85a5b8	0.06525749
187	0xbda482c6	-0.080327556
188	0xbdaf647d	-0.085640885
189	0x3e1a0b64	0.15043408
190	0x3e126a3e	0.1429834
191	0xbbf710f6	-0.0075398637
192	0x3d8b6160	0.06805682
193	0x3d831dfd	0.06402204
194	0xbdd8868f	-0.1057254
195	0x3d6579a1	0.056024197
196	0xbdd82c4c	-0.10555324
197	0x3d6976df	0.05699813
198	0x3c77749b	0.0151034845
199	0xbdb5bc8d	-0.08873854
200	0x3d4aee17	0.049543466
201	0xbd916316	-0.07098977
202	0xbddcc59e	-0.1077988
203	0x3d2a9d33	0.041653823
204	0x3d8a6134	0.06756821
205	0xbdff6503	-0.12470438
206	0xbde85c36	-0.11345713
207	0x3db77cee	0.08959375
208	0xbe50cae6	-0.203899
209	0x3d0033d8	0.031299442
210	0xbe28e06c	-0.1649186
211	0xbca15049	-0.019691603
212	0xbe40a79d	-0.1881394
213	0x3d852649	0.06501443
214	0xbc7e13d8	-0.015507661
215	0xbcfc68cb	-0.030811688
216	0xbd856b45	-0.06514601
217	0xbd751fc1	-0.059844736
218	0xbcbb4379	-0.022859322
219	0x3d56e65a	0.052465774
220	0xbcf68d75	-0.030096749
221	0xbe0482b8	-0.1294049
222	0xbd688d71	-0.056775514
223	0xbdb3a8d5	-0.087724365
224	0xbe083040	-0.13299656
225	0xbe160979	-0.14652051
226	0xbaf4dee4	-0.0018682149
227	0x3946893f	0.0001893388
228	0xbe087db7	-0.13329206
229	0x3ce7f694	0.02831582
230	0x38246f04	3.920404e-05
231	0xbd0c5e91	-0.034269873
232	0xbcc39b0c	-0.023877643
233	0x3d29b014	0.041427687
234	0xbdcb36f8	-0.09922594
235	0xbe145afb	-0.14487831
236	0x3e002348	0.12513459
237	0x3c92dd28	0.017927721
238	0xbd9fac17	-0.077964954
239	0xbde686e8	-0.112562
240	0xbd4e00ef	-0.05029386
241	0x3d81d287	0.06338983
242	0x3da007eb	0.0781401
243	0xbe07c685	-0.13259323
244	0xbd5f669e	-0.054541223
245	0x3cdbfaa2	0.02685291
246	0xbde21037	-0.11038249
247	0x3d8f02f4	0.06982985
248	0xbb81a62d	-0.0039565773
249	0xbc977453	-0.018488085
250	0xbdccecbe	-0.100060925
251	0x3a3f7fe6	0.000730513
252	0x3d8e1b55	0.06938807
253	0x3bb380f3	0.0054780184
254	0x3dfc1902	0.12309457
255	0x3e32cc90	0.17460847

conv3.0.bias f4 [16]
0	0x3da41085	0.08010963
1	0xbcd3ccad	-0.025854433
2	0x3d701516	0.05861386
3	0xbe842057	-0.25805923
4	0x3bf07086	0.0073376326
5	0x3e542b69	0.20719685
6	0xbda07b57	-0.07836025
7	0x3d0dc306	0.034609817
8	0x3dbfa6e4	0.09358004
9	0xbcce8d14	-0.025213756
10	0x3d8e4bdb	0.06948062
11	0xbd4305b7	-0.047612872
12	0xbd2f1d02	-0.042752273
13	0xbd1f226c	-0.038851187
14	0xbcf2f3da	-0.029657293
15	0x3c6295ed	0.01382969

conv4.0.weight f4 [16, 16, 5]
0	0x3cbdcba0	0.023168385
1	0xbdc68761	-0.0969379
2	0xbb808ee3	-0.0039232834
3	0xbd355b39	-0.04427645
4	0x3d34c8c5	0.04413678
5	0x3d3eca35	0.04657956
6	0x3d8d0bfc	0.068870515
7	0xbd86390b	-0.06553849
8	0xbba8a3b4	-0.005146468
9	0x3c40cc47	0.0117674535
10	0x3d947ceb	0.07250389
11	0x3c36e5fa	0.011163229
12	0x3c0e0405	0.0086679505
13	0x3da8e1f8	0.08246225
14	0xbddfebdf	-0.10933661
15	0x3d0e9fb4	0.034820274
16	0x3c242806	0.010019308
17	0xbda33ca7	-0.07970553
18	0xbd9621d4	-0.07330671
19	0xbb6270d9	-0.0034552126
20	0xbd8dd886	-0.06926064
21	0x3bc9e682	0.006161512
22	0xbdb5946d	-0.088662006
23	0xbd575f7f	-0.052581307
24	0xbd98c7a8	-0.074599564
25	0x3d41512f	0.047196563
26	0xbcea4de4	-0.028601594
27	0xbd768fa4	-0.06019558
28	0x3d926b86	0.07149415
29	0x3d0fc460	0.035099387
30	0x3d1a8fdb	0.037734848
31	0xbe173414	-0.1476596
32	0xbc74f905	-0.014951949
33	0x3d27cb61	0.04096544
34	0x3d03678b	0.03208117
35	0x3da1213e	0.078676686
36	0x3dc097f6	0.09403984
37	0x3d136325	0.035983223
38	0xbd77eca8	-0.060528427
39	0xbcb95a94	-0.022626199
40	0x3d6b480a	0.05744175
41	0xbb627c42	-0.0034558927
42	0xbd2ffe9c	-0.042967424
43	0xbc5d69b7	-0.013513974
44	0xbc2e38f4	-0.010633696
45	0xbdd14c40	-0.10219622
46	0xbd32de70	-0.043669164
47	0x3c7753e7	0.0150956875
48	0xbd5c5bc1	-0.05379844
49	0xbd886f7c	-0.06661889
50	0xbe0034c2	-0.12520126
51	0x3d40915b	0.04701362
52	0xbdf1e980	-0.11812115
53	0xbda5b4df	-0.08091139
54	0x3cc96bde	0.024587568
55	0x3d6291e8	0.05531493
56	0xbbc0685a	-0.0058718147
57	0xbcd6ad91	-0.02620581
58	0xbd2085e8	-0.039190203
59	0x3d5a74f4	0.05333419
60	0x3cb58018	0.022155806
61	0x3b987a1c	0.0046532284
62	0xbdf4120f	-0.11917507
63	0xbc95f9be	-0.018307563
64	0xbd0891f5	-0.03334232
65	0xbc957a28	-0.018246725
66	0xbd80564d	-0.062664606
67	0xbcc9e712	-0.024646316
68	0xbe0e38c6	-0.13888845
69	0xbdae6946	-0.08516173
70	0x3d895a31	0.06706656
71	0xbcac557f	-0.021036861
72	0xbe01598b	-0.12631814
73	0xbd42db9c	-0.047572717
74	0xbca4c6cf	-0.02011433
75	0x3c3ca9df	0.01151511
76	0x38ee7ebb	0.0001137233
77	0xbdeb342b	-0.114845596
78	0xbce5a720	-0.028033793
79	0xbd5ba4e0	-0.053624034
80	0x3cc71edc	0.024306707
81	0x3d1a6a8c	0.037699267
82	0xbcebde6f	-0.028792588
83	0xbddbd35f	-0.10733675
84	0xbddaca67	-0.106831364
85	0x3d711159	0.058854435
86	0x3d847b5a	0.0646884
87	0xbd6919f2	-0.05690951
88	0xbbd31a6b	-0.0064423583
89	0xbd47a9b7	-0.048745837
90	0x3d87b607	0.06626516
91	0xbdc04a8a	-0.09389217
92	0xbcae7a2c	-0.02129849
93	0xbdd3f4a3	-0.10349395
94	0xbdcce1fd	-0.10004041
95	0x3c94e4f8	0.018175587
96	0x3c4a7d90	0.012359038
97	0xbdb4680c	-0.08808908
98	0xbe02e2fb	-0.12781899
99	0xbdbc2364	-0.09186438
100	0x3d0eee60	0.0348953
101	0x3cd28254	0.02569691
102	0xbe1165ad	-0.14198942
103	0xbdb1b730	-0.08677518
104	0xbe18490a	-0.14871612
105	0x3c3198fe	0.010839699
106	0x3cd58c2a	0.026067812
107	0x3c6c901d	0.014438656
108	0x3cb31fed	0.02186581
109	0xbd99e18f	-0.07513725
110	0xbcda85c1	-0.026675107
111	0xbdaa7729	-0.08323509
112	0xbdbee80b	-0.093216024
113	0xbcbeb7b7	-0.023280961
114	0x3ce324ec	0.027727567
115	0x3b7c681f	0.003851421
116	0x3d10524b	0.03523473
117	0xbdd9962c	-0.10624346
118	0xbdd6b29d	-0.104832865
119	0xbd959b3c	-0.07304999
120	0x3d8104c9	0.06299741
121	0x3bc96920	0.006146565
122	0x3c847a02	0.01617146
123	0x3c80e50f	0.015734224
124	0x3d53aef9	0.05168054
125	0x3d61f30e	0.055163436
126	0x37618880	1.34428265e-05
127	0x3d9752ad	0.07388816
128	0xbda12167	-0.07867699
129	0xbca1623b	-0.01970016
130	0xbcd349e9	-0.025792079
131	0x3d4b9c95	0.049709875
132	0xbcef0331	-0.029176326
133	0xbdacc795	-0.08436505
134	0xbd943355	-0.07236353
135	0x3d3b15c4	0.045675054
136	0x3d57ccd7	0.052685585
137	0x3b1c0879	0.002380876
138	0xbda616fc	-0.08109853
139	0xbc202e3c	-0.009776648
140	0xbc3efe00	-0.011657238
141	0x3d0de29d	0.034639943
142	0xbd97283e	-0.073807225
143	0xbd065a18	-0.032800764
144	0xbb4cf586	-0.0031274273
145	0xbbfa84b1	-0.0076452126
146	0x3cdd9f57	0.027053518
147	0xbd82fb5d	-0.063956
148	0xbd39d337	-0.045367446
149	0xbd95a7d7	-0.073074035
150	0x3ba7707d	0.005109845
151	0x3d9d24fd	0.076730706
152	0x3d50cb55	0.050975163
153	0xbcf46aaf	-0.029836027
154	0xbd8dbfd0	-0.06921351
155	0x3d200353	0.03906567
156	0xbd477fe5	-0.048705954
157	0xbe0cfb29	-0.13767685
158	0xbbd1a3b9	-0.006397691
159	0xbca6c27a	-0.020356406
160	0xbdf8a166	-0.12140159
161	0x3bbb0071	0.0057068397
162	0xbc9de129	-0.019272404
163	0xbd95aba1	-0.07308126
164	0x3d21ee2c	0.03953378
165	0xbdd14c95	-0.10219685
166	0x3c03a670	0.008035287
167	0x3d14104e	0.03614836
168	0xbdaa3fbc	-0.083129376
169	0xbcda4662	-0.02664489
170	0xbc39b304	-0.011334185
171	0xbdadb21b	-0.084812365
172	0xbd732173	-0.05935807
173	0xbca142a4	-0.019685097
174	0x3d118352	0.035525627
175	0xbe110ba5	-0.14164598
176	0xbcfff057	-0.031242533
177	0x3921a0bb	0.00015414033
178	0xbdbb913e	-0.09158562
179	0xbc880349	-0.016603129
180	0xbd976504	-0.07392314
181	0xbccddbf8	-0.025129303
182	0x3d8609bd	0.06544826
183	0xbd7da027	-0.06192031
184	0xbd51589a	-0.051109888
185	0xbd8d075a	-0.06886168
186	0xbd8b4930	-0.06801069
187	0x3b8a622e	0.0042231297
188	0xbdb261a3	-0.08710029
189	0xbd3bf8a9	-0.045891438
190	0xbcbca035	-0.023025611
191	0xbc91dcfa	-0.017805565
192	0xbca0241c	-0.019548468
193	0x3d816071	0.06317223
194	0xbcfc7458	-0.030817196
195	0xbc92083d	-0.017826194
196	0xbbeb5732	-0.0071820254
197	0x3d053c04	0.03252794
198	0xbd6a6f3d	-0.05723499
199	0x3d8f78db	0.07005473
200	0xbd6e0fc3	-0.0581205
201	0xbd761989	-0.060082946
202	0x3d2fe619	0.042944048
203	0x3b1a96e5	0.0023588475
204	0xbc65ac65	-0.014018153
205	0xbd58bd67	-0.052915003
206	0xbc679d4c	-0.014136624
207	0x3c9707a5	0.018436262
208	0xbd0ed107	-0.034867313
209	0x3dd47013	0.10372939
210	0xbde4f65e	-0.11179803
211	0xbda51e23	-0.08062389
212	0x3d0efb7d	0.034907807
213	0xbd18af14	-0.037276343
214	0xbcbe132d	-0.023202503
215	0xbd5f9810	-0.054588377
216	0x3da9f024	0.08297756
217	0xbc796937	-0.015222839
218	0xbb87dc5a	-0.004146141
219	0x3bdef3b1	0.0068039526
220	0x3b8a59f4	0.004222149
221	0xbdb5a4a7	-0.088692956
222	0x3c8f2302	0.017472748
223	0xb9c37822	-0.00037282804
224	0x3d95a439	0.073067136
225	0xbc0b7014	-0.008510608
226	0xbd310c3b	-0.043224555
227	0x3d97bfee	0.074096546
228	0xbdfc8b34	-0.123312384
229	0xbd2df663	-0.0424713
230	0xbde927c9	-0.113845415
231	0xbca7fb8e	-0.020505693
232	0x38ab5cda	8.17121e-05
233	0x3bad96bc	0.00529751
234	0x3c839d0c	0.016066097
235	0xbd0fb5da	-0.035085537
236	0xbd8fff05	-0.07031063
237	0x3bcfff48	0.0063475706
238	0xbdf27756	-0.11839168
239	0xbdd10ea6	-0.10207872
240	0xbcc7a316	-0.024369758
241	0x3d2243c6	0.039615415
242	0xbd0bc670	-0.03412479
243	0xbba4c157	-0.0050279307
244	0xbd470bf0	-0.04859537
245	0x3d4dfb5c	0.050288543
246	0xbbf65850	-0.007517852
247	0xbce33f5a	-0.02774017
248	0x3ddbb008	0.10726935
249	0xbde5bbba	-0.112174466
250	0x3c592bab	0.01325504
251	0x3dc55afd	0.09636495
252	0x3d8c4661	0.06849361
253	0x3d6fae9a	0.058516122
254	0x3ccc50fc	0.02494096
255	0xbd3f922c	-0.04677026

conv4.0.bias f4 [16]
0	0x3d874aa3	0.06606033
1	0x3c7589cd	0.014986468
2	0xbde86785	-0.1134787
3	0x3e0cf1a2	0.1376405
4	0xbdac55d9	-0.08414812
5	0x3d3d4b56	0.046214424
6	0x3e5a1022	0.21295217
7	0xbb7b09ee	-0.003830548
8	0x3e66401d	0.22485395
9	0xbda486b9	-0.08033509
10	0x3e45772f	0.19283746
11	0xbe4f6e65	-0.20256956
12	0x3cdbaafb	0.026814928
13	0x3dddce77	0.10830396
14	0x3d72b1ae	0.05925148
15	0xbd78dc09	-0.060756717

conv5.0.weight f4 [16, 16, 5]
0	0xbd5473fb	-0.05186842
1	0x3ced21a8	0.028946713
2	0x3be29a30	0.0069153532
3	0xbdd65fab	-0.10467466
4	0x3d4a1c04	0.049343124
5	0x3d2f734c	0.042834565
6	0xbd975354	-0.073889405
7	0x3d5bf28c	0.053698108
8	0xbc71e700	-0.014764547
9	0x3d9657f2	0.07340993
10	0x3dd11e0c	0.10210809
11	0x3bf07730	0.007338427
12	0x3d6cdf44	0.05783011
13	0x3d4187dc	0.047248706
14	0x3d8f6aa4	0.07002762
15	0x3d806746	0.06269698
16	0xbd09edf8	-0.03367421
17	0x3dca0db2	0.098658934
18	0xbdc601e4	-0.09668329
19	0xbd75b429	-0.059986267
20	0xbcd6e39c	-0.02623158
21	0x3d0e1864	0.03469123
22	0xbd1bfdcc	-0.038083836
23	0x3dc5cc46	0.09658103
24	0xbc338c90	-0.010958806
25	0xbd079c24	-0.03310789
26	0x3daf14cc	0.085488886
27	0x3c5ed400	0.013600349
28	0x3c9b5bc0	0.018964648
29	0x3dc0297c	0.093829125
30	0x3d4c3660	0.049856544
31	0xbaf7d540	-0.0018908158
32	0x3d44ab5c	0.048014984
33	0xbd830642	-0.06397678
34	0xbdd63ff5	-0.104614176
35	0xbd38d328	-0.04512325
36	0x3db087c4	0.08619645
37	0x3cd98b70	0.026555747
38	0x3c3d3b88	0.011549838
39	0xbddb67be	-0.107131466
40	0xbd5ae778	-0.053443402
41	0x3d522d34	0.05131264
42	0x3c5809a0	0.0131858885
43	0x3dae2afa	0.08504291
44	0x3d5706f8	0.05249688
45	0xbd45d83e	-0.048301928
46	0xbdb1a3ab	-0.08673795
47	0x3c48e568	0.012261726
48	0xbd8730c5	-0.06601099
49	0x3d02ed48	0.03196457
50	0xbca0a8dc	-0.019611768
51	0xbdd61374	-0.10452929
52	0x3d1d58bc	0.0384147
53	0x3d35788c	0.044304416
54	0xbd5a73af	-0.05333298
55	0xbca76534	-0.020434
56	0xbd8cc1d4	-0.06872907
57	0xbc6dc548	-0.014512368
58	0x3dcdc7fc	0.100479096
59	0x3d5275f8	0.051382035
60	0xbda949a5	-0.08266
61	0xbcc0bc98	-0.023527429
62	0x3b075900	0.0020652413
63	0xbd8e37a5	-0.06944207
64	0x3c6b3df0	0.014358029
65	0xbd0dbfc0	-0.034606695
66	0xbd914bc4	-0.07094529
67	0x3ca13848	0.019680157
68	0x3dc41ddc	0.09576008
69	0x3d15da84	0.036585346
70	0xbbc50110	-0.0060120896
71	0x3dd94f7c	0.106108636
72	0x3c40ed38	0.011775307
73	0x3d9f104c	0.0776678
74	0xbddeec99	-0.10884971
75	0x3d5349fc	0.05158423
76	0x3d4d975c	0.050193176
77	0xbc9ad778	-0.018901572
78	0x3d2e2408	0.04251483
79	0xbd419196	-0.047257982
80	0x3d058d04	0.032605186
81	0xbdad2b27	-0.08455496
82	0x3dc00e7a	0.09377761
83	0x3cd04fb8	0.025428638
84	0xbcc164c8	-0.023607627
85	0xbdb95482	-0.09049322
86	0xbc00e948	-0.007868119
87	0xbdd0ebd0	-0.10201228
88	0xbc5c5a40	-0.013449252
89	0x3dcd00e2	0.10009934
90	0x3d2f2e54	0.04276879
91	0xbd292204	-0.041292205
92	0x3cae17f0	0.021251649
93	0xbd914650	-0.07093489
94	0xbde09f08	-0.10967833
95	0xbdc6340d	-0.09677897
96	0x3d8273b2	0.063697234
97	0x3dafdd42	0.085871235
98	0xbda3bf3b	-0.07995459
99	0x3da942f0	0.082647204
100	0x3d805708	0.062666
101	0xbc11c088	-0.008896001
102	0x3d86cb66	0.06581764
103	0x3d60ac2c	0.054851696
104	0xbda7e4cc	-0.081979364
105	0x3d98cfac	0.07461485
106	0xbd974e5f	-0.07387995
107	0x3ddad89e	0.10685848
108	0xbc966950	-0.018360764
109	0x3dbda3be	0.09259747
110	0x3d136f4c	0.035994813
111	0xbdd79ed0	-0.10528338
112	0x3cf3da30	0.029767126
113	0xbdb1a078	-0.08673185
114	0x3cb520e8	0.022110417
115	0xbc4e5438	-0.0125933215
116	0x3ce92658	0.028460667
117	0x3d896050	0.06707823
118	0x3d72da4c	0.059290215
119	0xbd0724d6	-0.032994114
120	0x3d909262	0.0705917
121	0x3ca29578	0.019846663
122	0x3da217f6	0.079147264
123	0x3d6672dc	0.056261882
124	0x3d3f66e0	0.04672897
125	0x3d41cd14	0.04731472
126	0x3dd6afb6	0.10482733
127	0xbce8acbc	-0.028402679
128	0x3da164ac	0.0788053
129	0xbdac216a	-0.08404811
130	0x3c475d50	0.0121682435
131	0xbdaf0734	-0.08546296
132	0xbd7dd8f5	-0.061974484
133	0xbdb4a89f	-0.088212244
134	0xbdd97c36	-0.106193945
135	0x3d94588c	0.072434515
136	0xbd8ef948	-0.069811404
137	0x3d476240	0.048677683
138	0x3c967830	0.018367857
139	0x3d3a5c58	0.045498222
140	0xbcba49fc	-0.022740357
141	0x3b2151c0	0.0024615377
142	0xbba84710	-0.0051354244
143	0xbd971d62	-0.07378651
144	0x3c798180	0.015228629
145	0xbc92dd30	-0.017927736
146	0x3de43a84	0.111439735
147	0xbd2dfb26	-0.042475842
148	0xbd035402	-0.032062538
149	0x3d72fc08	0.059322387
150	0xbd51868f	-0.051153716
151	0x3cff2ca8	0.031149223
152	0xbda3437c	-0.07971856
153	0x3dc68634	0.09693566
154	0xbd2bb102	-0.041916855
155	0xbdde7c43	-0.10863545
156	0xbc4900b8	-0.012268238
157	0x3d20525c	0.039141044
158	0xbd6da95e	-0.05802285
159	0x3d84914a	0.06473024
160	0xbd657475	-0.056019265
161	0x3d010e88	0.031508
162	0xbd4d779d	-0.0501629
163	0xbdb79cf9	-0.08965487
164	0x3d84d4ba	0.06485887
165	0xbceba30c	-0.02876427
166	0x3da812aa	0.08206685
167	0x3cc08320	0.023500025
168	0xbd5c2c98	-0.053753465
169	0xbd38046e	-0.0449261
170	0x3d5148f0	0.05109495
171	0xb92afa00	-0.00016305596
172	0x3d25d28c	0.040483996
173	0xbd4f437d	-0.05060147
174	0x3dcce410	0.10004437
175	0xbdc4e7b4	-0.09614506
176	0xbd26c942	-0.04071928
177	0xbb1dd780	-0.0024084747
178	0xbdbb5894	-0.09147754
179	0xbd71eb70	-0.05906242
180	0x3cda7848	0.026668683
181	0x3d5af688	0.053457767
182	0xbdb2b77e	-0.087264046
183	0x3da258d4	0.07927099
184	0x3d49bb00	0.049250603
185	0x3cb31758	0.021861717
186	0x3db31d62	0.08745839
187	0xbcb8fbec	-0.022581063
188	0xbd9c81af	-0.07641923
189	0x3cd77520	0.026300967
190	0x3cdc2400	0.026872635
191	0x3d336ed8	0.04380688
192	0x3d0b0804	0.03394319
193	0x3dcd81e8	0.10034543
194	0xbdb7ca19	-0.08974094
195	0x3c0a4730	0.008439824
196	0x3bb50880	0.005524695
197	0x3d15e6e8	0.036597162
198	0xbc261d98	-0.010138892
199	0xbdd8fbe6	-0.10594921
200	0xbd974ab4	-0.07387295
201	0x3d232558	0.039830536
202	0xbdb07628	-0.086162865
203	0x3d32e580	0.0436759
204	0xbdc43883	-0.09581091
205	0xbd3c5fb2	-0.0459897
206	0xbcc15adc	-0.023602895
207	0xbd0914f0	-0.033467233
208	0x3da1caf6	0.0790004
209	0xbda34f22	-0.07974078
210	0xbd832353	-0.06403222
211	0x3d4b2b30	0.049601734
212	0xbd7af10b	-0.061265033
213	0x3db8105c	0.08987495
214	0xbc78ee98	-0.015193604
215	0xbcb89e6c	-0.022536479
216	0x3cef93b8	0.029245242
217	0x3d63e3b8	0.05563709
218	0xbcc0314c	-0.023461007
219	0xbd52d3ae	-0.051471405
220	0xbdd51caf	-0.104058616
221	0x3d987ecc	0.074460596
222	0x3d47c3c0	0.048770666
223	0x3ca71e20	0.020400107
224	0x3ca9e620	0.020739615
225	0xbdd97b5a	-0.106192306
226	0x3d89309c	0.06698725
227	0x3d86d288	0.065831244
228	0x3d307708	0.043082267
229	0x3dc5c432	0.09656562
230	0xbd25e3e8	-0.04050055
231	0xbd0411d2	-0.032243557
232	0xbdd0ab5b	-0.101889335
233	0x3d820256	0.06348102
234	0x3dbe1512	0.092813626
235	0xbd19bbe2	-0.037532695
236	0x3d091828	0.033470303
237	0xbdb13f4e	-0.086546525
238	0xbd8243ca	-0.06360586
239	0xbd5282fc	-0.051394448
240	0x3d0148b0	0.03156346
241	0xbd95fc2a	-0.07323487
242	0x3d9d4d36	0.076807424
243	0x3dce7342	0.100805774
244	0x3d8a8974	0.06764498
245	0x3d9b31c0	0.075778484
246	0x3da86744	0.08222821
247	0xbd271268	-0.040789038
248	0x3dae463a	0.085094884
249	0x3d19944c	0.037494943
250	0x3d6dbaf0	0.058039606
251	0x3d94ff1e	0.07275222
252	0x3d8b281c	0.0679476
253	0x3d08edec	0.033430025
254	0x3d83155a	0.06400557
255	0xbdc5c5f6	-0.09656899

conv5.0.bias f4 [16]
0	0x3d74691c	0.059670553
1	0x3da7c9e2	0.08192803
2	0xbda785be	-0.08179806
3	0xbc706e10	-0.014674678
4	0xbbb4b110	-0.0055142716
5	0xbdaadb10	-0.08342564
6	0xbcc82d64	-0.024435706
7	0xbc99fd8c	-0.018797658
8	0xbd426840	-0.0474627
9	0xbd7dd764	-0.06197299
10	0x3d625dc8	0.055265218
11	0x3d23327c	0.039843068
12	0x3c45d4c0	0.012074649
13	0x3daf2786	0.0855246
14	0x3dc87c90	0.097893834
15	0xbd75ac6a	-0.05997888

conv6.0.weight f4 [8, 16, 5]
0	0x3ac10fc0	0.0014729425
1	0xbde4c4f1	-0.11170376
2	0xbdc8e3cd	-0.098090746
3	0x3d024800	0.031806946
4	0xbce446cc	-0.02786579
5	0x3dadcaf6	0.08485977
6	0x3ba49d10	0.005023606
7	0x3d60f9e0	0.0549258
8	0x3cdc6b78	0.026906714
9	0x3dd79c58	0.10527867
10	0xbda9933f	-0.08280038
11	0xbd8aa9e3	-0.067706846
12	0xbd1e18d8	-0.03859791
13	0x3be03cb0	0.006843172
14	0xbdd43eaf	-0.103635184
15	0xbd95885e	-0.073014006
16	0xbd45cf5e	-0.048293464
17	0x3d949bc4	0.072562724
18	0xbd9a9678	-0.07548231
19	0xbd8001ea	-0.06250365
20	0x3c9ba848	0.019001141
21	0xbcf33cf4	-0.02969215
22	0x3d9b24e0	0.07575393
23	0x3dc9ca4c	0.09853038
24	0x3d041df8	0.032255143
25	0x3d0d1e70	0.034452856
26	0x3d82fbf8	0.063957155
27	0xbc9e3144	-0.019310601
28	0xba1e6400	-0.0006042123
29	0x3cb711d0	0.02234736
30	0xbd4196de	-0.04726302
31	0xbcd3e750	-0.025867134
32	0x3ba8ab40	0.0051473677
33	0xbc6d2358	-0.014473759
34	0x3d862af6	0.06551163
35	0x3d24006c	0.040039465
36	0xbd6e7330	-0.05821532
37	0x3d7103dc	0.05884157
38	0x3cf631e0	0.03005308
39	0x3c13bb38	0.009016804
40	0x3de114a2	0.109902635
41	0x3d84aa7c	0.0647783
42	0xbd919298	-0.07108039
43	0xbddfbc24	-0.10924557
44	0x3de26e40	0.11056185
45	0xbd829462	-0.06375958
46	0xbbd4a1d0	-0.006489016
47	0x3d40a6ec	0.04703419
48	0xbd067cf6	-0.032834016
49	0x3dd559f6	0.10417549
50	0x3c71cf50	0.0147589
51	0x3de3b844	0.1111913
52	0x3c90c8f0	0.01767394
53	0x3d9e50ce	0.07730256
54	0x3d91ccd6	0.071191475
55	0xbd4bad87	-0.049726035
56	0xbd34e71e	-0.044165723
57	0x3ddcfc24	0.107902795
58	0xbdbf087c	-0.0932779
59	0xbbd72680	-0.006565869
60	0x3a8fcb00	0.0010970533
61	0x3a305680	0.00067267567
62	0xbd923ecd	-0.071408845
63	0x3c23ace8	0.0099899545
64	0x3daaf27e	0.08347033
65	0x3d1c3040	0.038131952
66	0xbda38595	-0.07984463
67	0xbc40fef0	-0.011779532
68	0xbb94edf0	-0.004544966
69	0x3d53aa68	0.051676184
70	0x3d5d2104	0.053986564
71	0x3de14fd0	0.11001551
72	0xbd359cca	-0.04433898
73	0x3c81a0f8	0.015823826
74	0x3db9b672	0.09068002
75	0xbdd48c56	-0.103783295
76	0x3cd43568	0.025904372
77	0x3c3c95e0	0.011510342
78	0x3dc8f408	0.0981217
79	0xbc9dcfc4	-0.01926411
80	0xbc983c28	-0.018583372
81	0x3d9f97e2	0.07792641
82	0xbd7c03f1	-0.061527196
83	0xbd8143cb	-0.063117586
84	0x3d83904a	0.06424005
85	0xbdbc22c0	-0.091863155
86	0x3d03e5c0	0.03220153
87	0xbd1f7c36	-0.038936816
88	0xbdca6817	-0.09883135
89	0x3d937a52	0.07201065
90	0x3dd51d24	0.10405949
91	0x3d17d0f0	0.037064493
92	0xbdcc9cd0	-0.09990847
93	0xbdcb1bae	-0.09917389
94	0xbd197020	-0.037460446
95	0x3c2a13c0	0.010380685
96	0xbdb2f020	-0.087372065
97	0x3c1f43b0	0.009720728
98	0x3d465a34	0.04842587
99	0x3d4dd4b0	0.050251663
100	0xbde014e9	-0.10941488
101	0x3dbc249c	0.0918667
102	0xbd6c88c0	-0.057747602
103	0x3d479e88	0.04873517
104	0x3d212f84	0.039351955
105	0x3dcb360e	0.099224195
106	0x3dac11b4	0.08401814
107	0x3dd8eaf4	0.10591689
108	0x3cce8790	0.025211126
109	0x3cfb1790	0.030650884
110	0xbd35e2c2	-0.044405706
111	0x3b843b60	0.0040353984
112	0xbcb3832c	-0.021913134
113	0x3ce56428	0.02800186
114	0xbd0c00c6	-0.034180425
115	0x3d92a3b6	0.07160132
116	0x3d85f356	0.06540553
117	0xbd10f592	-0.035390444
118	0x3d0bbe14	0.03411682
119	0xbcaeb6a4	-0.021327324
120	0x3d30d388	0.043170482
121	0x3d7f9684	0.062399402
122	0x3d8677dc	0.0656583
123	0xbd894958	-0.06703442
124	0xbd248ad0	-0.040171444
125	0xbcf9b828	-0.03048332
126	0x3c1114b0	0.00885503
127	0x3d1054e8	0.035237223
128	0xbde203df	-0.110358946
129	0x3a0e3d00	0.000542596
130	0x3cde1cc0	0.027113318
131	0xbdae57b3	-0.08512821
132	0xbdd6063c	-0.10450408
133	0xbcf22158	-0.029556915
134	0xbd374a9a	-0.04474888
135	0x3ddd1468	0.10794908
136	0x3dcff0e8	0.10153371
137	0xbd711b18	-0.05886373
138	0x3c39eef8	0.0113484785
139	0x3d135230	0.035967052
140	0x3d70cbe4	0.058788195
141	0xbd8d7178	-0.06906408
142	0x3b440fe0	0.0029916689
143	0x3d667d40	0.05627179
144	0x3de400a6	0.11132936
145	0x3de3dcbc	0.11126086
146	0xbda486ae	-0.080335006
147	0xbd30c67a	-0.043158032
148	0x3dae2eca	0.08505018
149	0xbdd88308	-0.10571867
150	0x3cc30948	0.023808137
151	0x3da9340c	0.0826188
152	0xbdb8be0a	-0.09020622
153	0xbc9fb5dc	-0.019495897
154	0xbd641981	-0.055688385
155	0xbcab7d38	-0.020933732
156	0x3c8f93e8	0.017526582
157	0x3c2e6738	0.010644726
158	0x3dd1d35a	0.1024539
159	0x3cbe07c8	0.02319707
160	0xbd629602	-0.05531884
161	0x3d0ca784	0.034339443
162	0xbd34eee4	-0.044173136
163	0x3cd22f78	0.0256574
164	0x3dcd6daa	0.100306824
165	0x3db44202	0.088016525
166	0x3d19808c	0.037476107
167	0xbcbcca08	-0.023045555
168	0x3d410d1c	0.047131643
169	0xbc114e48	-0.008868761
170	0xbd6c7c5a	-0.05773578
171	0x3da37f80	0.07983303
172	0x3b52a1a0	0.0032139793
173	0xbd67173f	-0.056418654
174	0xbcf398c8	-0.029735938
175	0x3daca8ba	0.084306195
176	0xbda750c7	-0.08169704
177	0xbc441c28	-0.011969604
178	0xbcc8f300	-0.024529934
179	0xbde049ad	-0.109515525
180	0xbb4c8460	-0.0031206831
181	0xbdcb1a55	-0.09917132
182	0x3c0f5800	0.008749008
183	0x3da7d148	0.08194214
184	0xbdcf9a9b	-0.101369105
185	0x3d023b80	0.031795025
186	0xbda7d73e	-0.08195351
187	0x3b083020	0.0020780638
188	0xbd4d57c7	-0.05013254
189	0xbd91a4c8	-0.07111508
190	0x3a145780	0.00056587905
191	0xbbac7dc0	-0.005264014
192	0xbd809bad	-0.06279693
193	0x3ddf9b62	0.10918309
194	0xbdcc566f	-0.099774234
195	0x3dcfb804	0.1014252
196	0xbd675903	-0.056481373
197	0xbd577fa0	-0.052611947
198	0x3dbc908a	0.09207256
199	0xbcebb77c	-0.028774016
200	0xbd556857	-0.05210146
201	0xbd09d6e2	-0.033652194
202	0x3ccb4c50	0.024816662
203	0xbdae164f	-0.08500349
204	0xbdd12fc2	-0.10214187
205	0x3c9f6f68	0.019462302
206	0xbd453bba	-0.048152663
207	0xbcbe1440	-0.023203015
208	0x3d623ea0	0.055235505
209	0xbdb38fd6	-0.08767669
210	0x3c3e4460	0.011612982
211	0xbdd4b2fd	-0.10385702
212	0xbd8b1b34	-0.06792298
213	0x3dd93278	0.10605329
214	0x3dc858ea	0.09782584
215	0x3d3a12a4	0.045427933
216	0x3dd8155c	0.10550949
217	0xbdbc6111	-0.091982014
218	0x3d85e264	0.06537321
219	0x3dd095b6	0.10184805
220	0xbbb7dc70	-0.005610995
221	0xbde4bf7f	-0.111693375
222	0x3ddd4e50	0.108059525
223	0x3aacb640	0.0013176873
224	0x3dbc33e8	0.09189588
225	0x3d618cd0	0.05506593
226	0x3a543980	0.00080957264
227	0xbdb66cba	-0.08907457
228	0xbd4e4bdc	-0.050365314
229	0xbb7be1c0	-0.0038434118
230	0x3b26fee0	0.0025481507
231	0xbc98e51c	-0.018663935
232	0x3dcc8dba	0.0998797
233	0x3d1bf8f0	0.038079202
234	0xbccbdad4	-0.024884619
235	0xbdad9dfe	-0.084774
236	0x3c753470	0.014966115
237	0xbd3fe386	-0.046847843
238	0x3c425890	0.011861935
239	0xbcfa28d8	-0.030537054
240	0xbcad1014	-0.02112583
241	0xbd3adc70	-0.04562038
242	0xbd029d44	-0.03188826
243	0xbd8c0e9c	-0.06838724
244	0xbdcfc220	-0.10144448
245	0x3db3d9b6	0.087817594
246	0xbc13a770	-0.009012088
247	0x3d6c9c18	0.05776605
248	0x3db4116a	0.08792384
249	0xbdc0e172	-0.09418
250	0xbd078d30	-0.03309363
251	0xbd871226	-0.065952584
252	0x3d7479b8	0.059686393
253	0x3d085354	0.033282593
254	0xbca70070	-0.02038595
255	0xbd1efa48	-0.038812906

conv6.0.bias f4 [8]
0	0xbbc498c0	-0.0059996545
1	0xbda318f4	-0.07963744
2	0xbd991c6d	-0.07476125
3	0x3be73040	0.0070553124
4	0x3d708708	0.058722526
5	0x3d54a0f4	0.05191131
6	0xbdcc2389	-0.09967715
7	0xbd9d5867	-0.07682877

fc.weight f4 [3, 240]
0	0x3cbfd4bc	0.02341687
1	0x3cd78236	0.026307207
2	0x3c26d9ed	0.0101837935
3	0x3d08f621	0.03343785
4	0x3d09b603	0.033620846
5	0x3caee26c	0.0213482
6	0xbc0319ee	-0.008001788
7	0xbd4eb707	-0.050467517
8	0x3cbe70f1	0.023247214
9	0xbda27355	-0.07932154
10	0xbc4d52b6	-0.012531927
11	0x3d5a9632	0.053365894
12	0xbd31b79d	-0.043387998
13	0x3d50b87c	0.050957188
14	0x3d87fa51	0.06639541
15	0xbcb1ac03	-0.021688467
16	0xbb9b4e3a	-0.00473955
17	0x3cce0ebc	0.02515351
18	0x3bbb421a	0.005714667
19	0x3d0d2f60	0.03446901
20	0xbcf0ece3	-0.029409831
21	0x3c5b593d	0.013387975
22	0xbc68d211	-0.01421024
23	0x3b86b8e2	0.004111395
24	0xbd5a2070	-0.05325359
25	0xbcd7556b	-0.026285848
26	0xbd08d369	-0.03340474
27	0xbd197a86	-0.037470363
28	0xbccbe570	-0.024889678
29	0x3daf20ef	0.085512035
30	0xbcb5f00b	-0.022209188
31	0xbb849a9c	-0.004046751
32	0xbc99db92	-0.018781457
33	0x3ba0f2fe	0.0049117794
34	0x3c810e15	0.015753785
35	0xbd99d598	-0.07511443
36	0x3d642c9b	0.0557066
37	0x3cb5e8b9	0.022205697
38	0x3d0b397f	0.03399038
39	0xbc09c2a0	-0.008408219
40	0x3c5e65a3	0.013574037
41	0xbdeb617d	-0.11493204
42	0x3cc2dda2	0.023787323
43	0x3d2651a5	0.040605206
44	0xbe379207	-0.17926799
45	0xba74f7d7	-0.00093447923
46	0xbc52f7e9	-0.012876489
47	0xbd25d846	-0.040489458
48	0x3d3816ca	0.04494361
49	0x3d7db625	0.061941285
50	0xbc8f3a76	-0.017483931
51	0x3d501963	0.05080546
52	0xbceb876a	-0.028751094
53	0xbc1b7e02	-0.009490492
54	0xbdb2660d	-0.08710871
55	0x3cef755d	0.029230768
56	0x3da99dae	0.08282028
57	0x3d24ce12	0.040235586
58	0xbb612fab	-0.0034360688
59	0x3e0b9bd1	0.13633658
60	0xbd7e0f55	-0.06202634
61	0xbc59240a	-0.013253221
62	0xbc70d5fc	-0.014699455
63	0xbca9d1be	-0.020729896
64	0x3b1cb93d	0.0023914122
65	0x3c7dd159	0.015491807
66	0xbd23eceb	-0.040020864
67	0x3c9bdb0b	0.019025346
68	0x3cd1a0e3	0.025589412
69	0x3c50e591	0.012750045
70	0x3d7496c7	0.059714105
71	0x3d3ff4b5	0.04686423
72	0xbdac255e	-0.08405565
73	0x3c905d8f	0.017622737
74	0xbccff91d	-0.025387341
75	0x3bd4ff81	0.006500185
76	0x3c81952a	0.015818197
77	0xbd1a432b	-0.037661713
78	0x3c61c019	0.01377871
79	0x3ce6e2da	0.028184343
80	0x3c1837c2	0.009290637
81	0x3d2f35d2	0.042775936
82	0x3b0b775b	0.0021280858
83	0xbc23e351	-0.010002927
84	0x3dcec184	0.10095504
85	0x3ca8d709	0.02061035
86	0xbda5f672	-0.08103646
87	0x3d0d1a65	0.034449
88	0x3aa42ed6	0.0012526165
89	0xbdcb4681	-0.09925557
90	0xbd2a8401	-0.041629795
91	0x3d03bb6e	0.03216117
92	0x3c4e12f1	0.012577758
93	0xbcf061a8	-0.029343441
94	0xbcae70a5	-0.021293947
95	0x3c2553e7	0.010090805
96	0x3c13de03	0.0090251
97	0xbcd1e068	-0.0256197
98	0x3ccfe396	0.025377076
99	0x3dc87bda	0.09789248
100	0x3c352f70	0.011058673
101	0x3b2c3c5b	0.0026281092
102	0x3df1020c	0.117679685
103	0x3e0f6b5d	0.140058
104	0xbd990b82	-0.07472898
105	0x3beb23c3	0.007175894
106	0x3c892055	0.01673905
107	0x3c1fc877	0.009752384
108	0x3cfd88b0	0.030948967
109	0x3d549fc9	0.051910195
110	0x3cb3eeab	0.021964392
111	0xbd717477	-0.05894896
112	0x3aa747e6	0.0012762516
113	0xbd11646d	-0.035496164
114	0xbd7d588d	-0.061852027
115	0x3d83fa8d	0.06444273
116	0x3ddd9995	0.10820309
117	0xbe37a69e	-0.17934653
118	0xbd406cb7	-0.04697868
119	0x3e095525	0.13411386
120	0x3da8bb31	0.08238829
121	0x3cb437a8	0.021999195
122	0x3d4df7d6	0.050285183
123	0x3c414cf6	0.011798134
124	0x3cc29bb4	0.023755886
125	0x3d4d7f5c	0.050170287
126	0x3c04453d	0.008073148
127	0x3d9c366a	0.07627566
128	0x3d12159d	0.035665143
129	0xbc0b073a	-0.00848561
130	0x3cdc0536	0.026857954
131	0x3dbf3397	0.09336012
132	0xbc179a19	-0.009253048
133	0xbd3aacd4	-0.045574978
134	0x3de5a30c	0.11212739
135	0xbb0fff30	-0.0021972172
136	0x3cba3b15	0.02273325
137	0x3b3402c4	0.0027467469
138	0xbca81749	-0.020518916
139	0xbcace20a	-0.021103878
140	0xbb8e1fd0	-0.0043372884
141	0x3cd4ebee	0.025991406
142	0x3d7e8cb2	0.062145896
143	0xbcde5204	-0.027138717
144	0xbcd09491	-0.025461467
145	0xbccb0d0c	-0.024786495
146	0x3cfd7132	0.030937765
147	0x3d0e5c7c	0.03475617
148	0xbd4e7d15	-0.050412256
149	0xbdcad6ec	-0.09904274
150	0x3ddae230	0.10687673
151	0x3d4f185c	0.05056034
152	0xbba48cb2	-0.005021655
153	0x3beffc10	0.0073237494
154	0xbc8edba3	-0.017438715
155	0x3d2d5b86	0.04232361
156	0x3da7a8a9	0.08186466
157	0x3d07dbc0	0.033168554
158	0x3c3c7539	0.011502557
159	0x3cbdb24c	0.023156308
160	0xbd0a45d0	-0.033757985
161	0xbd43f0af	-0.047836956
162	0x3dedf9eb	0.11619934
163	0xbbfcdb5b	-0.007716579
164	0xbd285dfa	-0.041105248
165	0x3b754481	0.0037424865
166	0x3d2b5fdd	0.04183947
167	0xbd3d0c99	-0.046154592
168	0x3d486291	0.048922125
169	0xbd394c11	-0.04523856
170	0xbcae5693	-0.021281516
171	0x3d303fe5	0.043029685
172	0xbd0895f5	-0.033346135
173	0xbd890a0f	-0.06691372
174	0x3d30b3d3	0.043140244
175	0x3d1f9b01	0.038966183
176	0xbca7a78d	-0.020465637
177	0xbcc0c100	-0.02352953
178	0xbd571414	-0.052509382
179	0xbe2f2939	-0.17105569
180	0x3cb1e2b5	0.021714548
181	0xbc019c64	-0.007910822
182	0xbc8d4b30	-0.017247766
183	0x3d3b7b4d	0.045771886
184	0x3caaa04b	0.020828387
185	0x3cba0861	0.022709073
186	0xbc894dcd	-0.016760731
187	0x3c6be32c	0.014397424
188	0xbcfffb16	-0.031247657
189	0xbcf94078	-0.030426249
190	0x3d7b4372	0.061343618
191	0xbb801a2b	-0.0039093695
192	0xbd82984c	-0.063767046
193	0xbba2e60e	-0.0049712723
194	0x3e10c257	0.14136635
195	0x3cd7b98f	0.026333598
196	0xbc6a0955	-0.0142844515
197	0xbbe3686c	-0.0069399383
198	0x3d00d90b	0.03145699
199	0x3cdc1eb0	0.026870102
200	0xbad2ed97	-0.0016092536
201	0x3c8d055f	0.017214475
202	0xbbaedb97	-0.0053362357
203	0x3d254f73	0.04035897
204	0x3cd971d6	0.026543539
205	0x3c68fd76	0.014220586
206	0xbd2b41c5	-0.04181077
207	0x3c056a93	0.008143085
208	0xbdc89882	-0.097947136
209	0xbd65f14f	-0.056138333
210	0x3cbd5d0b	0.023115655
211	0xbd5407bb	-0.051765185
212	0x3ba4a2dd	0.0050242976
213	0x3c80701f	0.015678464
214	0xbc66a643	-0.014077726
215	0x3bfda8ac	0.0077410545
216	0x3ca60a21	0.020268502
217	0x3da2dea0	0.079526186
218	0x3cd5af96	0.026084702
219	0xbd10c07a	-0.03533981
220	0xbcd5511e	-0.026039656
221	0x3d8fd7d5	0.070235886
222	0xbdada04b	-0.08477839
223	0xbe186371	-0.14881684
224	0x3dd5d71d	0.1044142
225	0x3ce42df6	0.027853947
226	0x3ce2aa94	0.027669229
227	0xbae0abe8	-0.0017141076
228	0xbb96856b	-0.0045935414
229	0xbcf49625	-0.02985675
230	0xbd2bd7b1	-0.041953746
231	0x3ce0845f	0.02740687
232	0x3d63df5f	0.055632945
233	0x3cffea6c	0.03123971
234	0x3d45cd82	0.04829169
235	0xbd689d82	-0.056790836
236	0xbd6d7aad	-0.05797832
237	0x3d2674e1	0.04063881
238	0xbc9cf6a8	-0.019160584
239	0xbe1398d7	-0.14413773
240	0x3ca76dd2	0.020438109
241	0x3c41a030	0.011817977
242	0x3c4a2228	0.012337245
243	0x3ce1ba35	0.02755461
244	0x3d6e158d	0.05812602
245	0xbd0b0136	-0.0339367
246	0x3cab7001	0.020927431
247	0xbd1b2a85	-0.037882347
248	0x3d1cccd7	0.038281288
249	0xbc564ca7	-0.013079799
250	0xbd82be51	-0.06383956
251	0xbde5d839	-0.11222882
252	0x3dcb9167	0.09939843
253	0xbd042941	-0.032265905
254	0x3b131b50	0.00224467
255	0xbd7e4300	-0.062075615

fc.bias f4 [3]
0	0x3e067c24	0.13133293
1	0x3d059262	0.032610305
2	0xbe56c139	-0.20972146
