routes/model12.pkl (torch_old, 22127 bytes, 14 tensors)

conv1.0.weight f4 [4, 1, 5]
000000 70 a7 58 be c5 0b 00 3e ea db 57 be 99 78 f7 bd
       -0.21157622 0.1250449 -0.21079984 -0.12083549
000010 21 41 b5 3e ba bc 4e be ee f7 11 3e ee 26 c3 bd
       0.35401252 -0.20189181 0.14254734 -0.095289096
000020 08 74 2d bd 11 43 af 3e e0 73 05 3e ba 77 3b 3e
       -0.042346984 0.34230855 0.13032484 0.18307391
000030 f1 bb 76 be 3d c8 f0 bd b3 6f 90 bd 8b 52 8c be
       -0.24095131 -0.117569424 -0.07052555 -0.27406725
000040 0f be fa bd 21 4b 40 be a9 db 04 3d b0 89 2b be
       -0.12243282 -0.1877866 0.032436047 -0.16751742

conv1.0.bias f4 [4]
000000 b7 d0 f7 bd d5 82 3d bd 4c f1 87 bd 04 cc 58 3e
       -0.12100356 -0.04626735 -0.066378206 0.21171576

conv2.0.weight f4 [8, 4, 5]
000000 e1 8f 17 bc ff 7b 9a 3d a4 4b 38 be b5 a1 35 bd
       -0.009250612 0.07543182 -0.17997605 -0.04434367
000010 0b 9d 52 be 29 8d 9d 3d 04 6d 6d 3d 74 24 ac 3c
       -0.2056772 0.0769294 0.057965294 0.021013476
000020 72 4d 4f 3a b2 32 8e be 41 12 7a bd 0d e9 2d be
       0.00079079636 -0.27773052 -0.061052565 -0.16983433
000030 fd 99 7d bd 5b f9 13 3e 96 3b 9a be 93 49 db 3d
       -0.061914433 0.1445059 -0.30123585 0.107073925
000040 b5 52 cd bc 79 b9 05 bc 85 7a 1b 3e 44 d2 27 ba
       -0.025063852 -0.008161896 0.15183456 -0.00064018765
000050 db b9 3e be 29 f5 06 be 67 f7 73 be a3 f8 62 be
       -0.18625586 -0.13179459 -0.23824845 -0.2216516
000060 67 59 8b 3c eb c2 e6 3d 85 1f 8f bd 2d ec 86 be
       0.017010404 0.112676464 -0.06988434 -0.26352063
000070 8f 01 96 bd 87 d5 bf 3d d9 1b d1 3d a6 c2 6a bd
       -0.07324516 0.09366899 0.1021039 -0.057314537
000080 f1 b2 95 bd f0 bc b5 bb 4a 06 5a bd f0 0c 64 3d
       -0.07309521 -0.0055462047 -0.053228654 0.0556764
000090 dc a0 50 be 82 48 1f bd 39 41 92 3c 5b 23 03 3e
       -0.20373863 -0.03888751 0.017853366 0.12806456
0000a0 fd 94 7a be 05 89 76 be 13 df 8e bc aa 84 1f be
       -0.24470897 -0.24075706 -0.017440354 -0.15577951
0000b0 42 3d 38 bd 13 34 dc 3d 39 d4 77 bb c0 fb a5 3c
       -0.044980295 0.1075212 -0.0037815704 0.020261645
0000c0 45 6e 50 be 85 78 09 be 06 07 2c 3d ab bc 37 be
       -0.20354564 -0.13424881 0.041998886 -0.17943065
0000d0 9a 9c 8f be df a8 65 be 78 12 7c be 22 29 2a be
       -0.28049165 -0.224277 -0.2461642 -0.16617253
0000e0 85 37 d6 3b 87 c9 a5 bd 47 d2 5b be 69 8f ee bc
       0.00653738 -0.08095079 -0.21466933 -0.029121118
0000f0 b1 c3 b9 3d f7 c4 99 bd 3e c3 60 be 5a 2f c7 3c
       0.09070528 -0.07508271 -0.21949479 0.024314571
000100 d8 68 ea 3d 89 ad 26 be 99 d0 e1 bd fe 49 a9 3d
       0.114457786 -0.16277136 -0.11026115 0.08266066
000110 fb 58 06 3d 13 33 40 be 65 65 67 bd 30 a1 5d bb
       0.032799702 -0.18769483 -0.05649318 -0.0033818
000120 eb 0a 24 3e 49 af cf 3c e5 82 15 bd b8 76 fa 3d
       0.1601979 0.025352137 -0.036501784 0.12229675
000130 23 1c 59 3d 9f fd 35 be da 78 91 bd 9e 63 10 be
       0.05300535 -0.1777253 -0.07103129 -0.14100501
000140 b7 51 1c 3e d7 fb 31 bd 6b be f7 3d e6 63 58 bd
       0.15265547 -0.043453064 0.12096866 -0.052829646
000150 e7 47 5a be 82 70 a2 bc fa 08 24 be 3f b4 a0 bd
       -0.21316491 -0.019829039 -0.1601905 -0.07846879
000160 aa 13 4b 3d f4 d6 b0 bd e9 4d b6 3d 4e d6 da bd
       0.0495793 -0.08634749 0.08901579 -0.106854066
000170 50 f6 6a be 92 05 4e bd 7a 71 4c be 09 d2 5b 3d
       -0.22945523 -0.05029828 -0.19965163 0.053667102
000180 4c 43 17 3e 3f e8 fa bd 8e 9c 52 3d d4 e8 b0 bd
       0.14771765 -0.12251329 0.051418833 -0.086381584
000190 ab 01 38 be f5 b3 2b be 6d c8 05 bd a4 22 1e 3b
       -0.17969386 -0.16767867 -0.032661844 0.0024129534
0001a0 08 78 5c be 74 e3 82 bc a6 66 8a 3d d7 46 12 3e
       -0.21530163 -0.015977599 0.0675786 0.14284836
0001b0 79 3a e9 bd 05 d0 30 be 04 6f 6d 3e 6a 18 9f 3d
       -0.11388106 -0.17266853 0.2318688 0.077683285
0001c0 64 96 41 3d 6a c4 d5 39 d8 d1 0e be db c0 ec bd
       0.047262564 0.00040772866 -0.13947237 -0.11560222
0001d0 f4 65 b5 bd 3f cc 8f bc fa 53 01 3e b8 ee 46 bc
       -0.08857337 -0.017553447 0.12629691 -0.012141876
0001e0 8f 62 91 bd 05 6e 3b 3d 6c 2a cf 3c 09 87 56 be
       -0.07098877 0.04575922 0.025288783 -0.2094995
0001f0 5b bd 36 be 90 b0 40 be 20 da ba 3d 68 26 9d 3c
       -0.17845671 -0.18817353 0.09123635 0.019183353
000200 93 ad 2d be e6 01 16 3e 7f f7 09 be e3 a0 3e 3d
       -0.16960745 0.14649162 -0.13473319 0.046540152
000210 98 f5 4b be cf 1c ef 3d a9 44 ee 3d 22 91 00 3e
       -0.19917905 0.11675417 0.1163419 0.12555364
000220 9e 25 c0 3d 4b 46 79 bd 5a bd 71 3d c5 d0 08 3e
       0.09382175 -0.060858052 0.05901847 0.1336089
000230 dc 1d 0b bc e8 e6 d1 3b 4b 70 00 3e 9b 1b 56 3d
       -0.008491006 0.0064057 0.12542836 0.05227242
000240 58 ef cd 3d a9 d8 60 be fc c4 a6 bd aa 6b 04 3d
       0.10055417 -0.2195765 -0.081430405 0.03232924
000250 63 0f a2 3d 6a 55 32 be 47 7e d0 3d 63 e8 84 3d
       0.07913091 -0.17415395 0.101803355 0.06489637
000260 78 57 59 bc 0d cf cd 3d 2d 59 f8 3b f3 dc f9 bd
       -0.013265483 0.100492574 0.00757899 -0.12200346
000270 ce 24 75 3d 72 62 1a be 9e 3e 64 be 60 32 09 3d
       0.059849553 -0.15076616 -0.22289512 0.033495307

conv2.0.bias f4 [8]
000000 52 06 fa bc 87 7f 9e 3c 1f a2 80 be 1f b1 4f bd
       -0.030520592 0.01934792 -0.2512369 -0.050706025
000010 e3 82 3a 3e d5 a8 9a be 11 a4 81 be 94 3b 2f be
       0.18213992 -0.30206934 -0.25320485 -0.17112571

conv3.0.weight f4 [16, 8, 5]
000000 79 45 70 bd 13 76 a1 bd 4d c9 c7 bd fd 89 80 bd
       -0.058660004 -0.07883849 -0.09755192 -0.06276319
000010 7e 22 bd bd 56 57 b3 bd 3e de 6d bd 7d e6 fb 3d
       -0.092350945 -0.087568924 -0.058073275 0.122998215
000020 73 4e 4b bd 8b c1 0b bc 0e a1 a0 bd 69 5c 12 3d
       -0.049635362 -0.008530031 -0.07843219 0.03573266
000030 b1 34 f5 bd 72 0e 45 bd bd 37 e7 3d 1e 01 ed bd
       -0.11972941 -0.04810948 0.11289928 -0.11572479
000040 c0 68 83 bd 70 26 1f bd ce be 31 bd 75 9d 5d bb
       -0.06416464 -0.038855016 -0.043394856 -0.0033815776
000050 45 16 a0 3c 3a 7b 52 bd 37 5c d1 bd fc cc 50 bc
       0.019541869 -0.05138705 -0.10222667 -0.012744185
000060 92 1e 13 3c 9d 36 ac 3d e0 2a ea 3d 58 a6 87 3d
       0.0089794565 0.08408854 0.11433959 0.066235244
000070 65 43 86 3d d1 ae d6 3d 5d ee ae bd 0c 43 38 be
       0.06555823 0.10482562 -0.08541558 -0.17994326
000080 fe a0 40 bd 45 9a a7 bd 7d 2f 3c bd 2e ac ec bd
       -0.047028534 -0.081837215 -0.045943726 -0.11556278
000090 27 81 58 bd 26 bb 57 bd 9f 3a 93 3d ad a2 90 bd
       -0.052857544 -0.052668713 0.071889155 -0.07062278
0000a0 fd fc 17 be bc e4 ee 3b 19 24 b0 3c 2e ef 18 3e
       -0.14842601 0.007290451 0.021501588 0.1493499
0000b0 68 01 92 3d 84 f7 b0 3c 9d c4 28 bd b5 90 17 bd
       0.071291745 0.0216024 -0.04120313 -0.037003238
0000c0 1d ab 33 3c dd 31 11 bb 5a 4d 94 3d 2a 19 b3 bc
       0.01096609 -0.0022154965 0.07241316 -0.021862585
0000d0 9f 8c 8c bd 12 cd f6 bd 92 f0 96 bd 7d cd 68 3d
       -0.06862759 -0.12050833 -0.07370104 0.056836594
0000e0 2d 34 41 bd db 28 07 be d1 28 a2 3d 98 f7 78 3d
       -0.0471689 -0.13199179 0.07917941 0.060783
0000f0 28 02 1e bd a7 57 38 3d 86 32 56 bb 54 be 83 3b
       -0.038576275 0.045005467 -0.0032683923 0.0040204916
000100 b8 2e 39 3a 6e eb d0 b9 99 3a a5 bd c0 23 1a 3e
       0.00070641516 -0.0003984826 -0.08067817 0.150527
000110 2e d6 cb 3d 1d 97 0d 3e a4 35 dd bd 58 cc 14 3e
       0.09952961 0.13827176 -0.10801247 0.14531076
000120 43 bd 17 3e e8 0c 38 bd c7 b8 cb 3d 2a 50 5d 3d
       0.14818291 -0.044934183 0.09947353 0.05403153
000130 36 95 ba bd 75 74 82 3d 9f 26 17 3c 9e 5f 88 bc
       -0.09110491 0.06369869 0.009225517 -0.016647156
000140 34 f3 80 bc dd 2f 6f bd 9b 4e aa bc 96 30 f9 3d
       -0.015740968 -0.058395255 -0.020789435 0.1216747
000150 a2 06 c9 bd 14 89 c0 bc 8f c5 0a bc e7 7c 52 bd
       -0.09815718 -0.023502864 -0.008469953 -0.051388647
000160 7c bb 47 3e 20 cc 26 3e b6 75 f0 bd f1 4a 91 bc
       0.19505113 0.16288805 -0.117412016 -0.01773593
000170 b2 69 11 be 58 6f 9b 3d 9a aa cb 3b 4f f5 76 bd
       -0.14200476 0.075895965 0.0062154057 -0.06029254
000180 be 70 36 3d c6 b6 33 3d b9 fd e5 3d a3 65 87 bd
       0.044541113 0.04387548 0.112300344 -0.066111825
000190 39 da e5 3d f2 86 7b 3c 16 e6 96 3c ba 8f 8c 3d
       0.11223263 0.015351998 0.01842026 0.06863351
0001a0 73 1f 6f 3d 4b ef b5 3c 47 56 a7 3d 10 73 0b 3e
       0.0583796 0.02220883 0.08170753 0.13618112
0001b0 ea f0 c1 bc 09 30 aa bc 0f a6 8a bc 14 da 5b 3d
       -0.023674447 -0.020774858 -0.016924886 0.053674772
0001c0 b3 4a 68 bc c9 ab d6 3c bb 7b 12 3d aa 9e e0 3d
       -0.014177966 0.02620496 0.03576253 0.10967763
0001d0 34 46 be bc 8f 98 a6 bb 3c 44 93 bc 3a b5 ee bd
       -0.023226835 -0.0050841044 -0.017976873 -0.1165566
0001e0 c4 5b 28 be 02 00 16 bd d9 f7 63 bd 44 34 6e 3c
       -0.16441256 -0.0366211 -0.055656288 0.014538828
0001f0 57 a8 ee bd 5e 0a d6 3c 9e 30 e8 3c b8 06 c6 bc
       -0.11653202 0.02612799 0.028343495 -0.024173126
000200 ac 90 cc bd d0 ae 07 bc be b4 60 3d 00 31 35 bd
       -0.099885315 -0.008281425 0.05485987 -0.044236183
000210 5d f5 f3 3d 05 f8 9d 3d de 30 ce 3d 8a 13 ed bd
       0.11912034 0.077133216 0.100679144 -0.115759924
000220 49 41 80 bd f6 5e c3 bd 5f b6 bf bd 64 d1 0a 3d
       -0.06262452 -0.09539597 -0.093609564 0.033891097
000230 33 47 fc bd 9a 76 7e 3d 24 be 88 bd 33 02 5e 3d
       -0.12318268 0.062124826 -0.066768914 0.054201316
000240 3a 47 38 bd af df a9 bd ef 17 4c 3d a4 d1 fd 3c
       -0.044989802 -0.082946174 0.049827512 0.030983754
000250 c9 05 df bd 9e fc 11 be 56 91 8c 3c 3c da 42 be
       -0.10889775 -0.14256522 0.017159145 -0.19028562
000260 75 3d 37 bd ab e8 c1 3d 3c 17 b3 3c 50 39 07 3d
       -0.044736344 0.09468206 0.021861665 0.03301364
000270 e4 36 9d 3d 69 df 7c 3d f9 80 22 bc e6 db 10 be
       0.07676485 0.061736498 -0.009918445 -0.14146385
000280 c3 1d 4f be fa d1 90 3c 07 51 1e be 20 8d 06 3d
       -0.20226197 0.01767825 -0.15460597 0.03284943
000290 d6 08 92 bd 8c 19 00 3d 90 7b 43 3d 1d da bd 3c
       -0.071305916 0.031274363 0.04772526 0.023175294
0002a0 4a 26 07 be 65 a7 e8 bd 16 23 e4 bd 08 03 2c bd
       -0.131982 -0.11360053 -0.111395046 -0.04199508
0002b0 95 1c f5 3c ff a9 78 bd a8 b0 1a bb 15 97 fd bd
       0.029920856 -0.060708996 -0.002360383 -0.12382332
0002c0 eb c3 f2 bd 00 8c da bd 41 ac ab bb 96 4f a7 bd
       -0.11853775 -0.10671234 -0.00523904 -0.08169477
0002d0 38 62 08 bd c3 dd c9 bd ce f9 59 bc 52 67 0d be
       -0.033296794 -0.09856751 -0.013304187 -0.13808945
0002e0 c6 18 cc 3c 5e f9 24 be 4a 95 e4 3d 82 af 29 be
       0.024914157 -0.16110751 0.11161287 -0.16570857
0002f0 79 4a af 3c e2 f3 14 be a1 91 1c be fa e9 14 be
       0.021397816 -0.14546159 -0.15289928 -0.1454238
000300 b4 17 db 3c 4a 0a e4 3c ce fb a3 bc 55 5f 4e 3d
       0.026744701 0.027836937 -0.02001753 0.050383884
000310 ff ee ab 3d ea 8c a5 3d b8 80 97 3d c6 31 6e 3d
       0.08395194 0.08083518 0.07397598 0.058152936
000320 d5 7b a3 3c 6b a8 b3 bd 52 95 14 bd 44 bf 26 bd
       0.019956509 -0.087723576 -0.036275215 -0.04070975
000330 84 3b 90 bd f8 0e b8 bd ec 59 a7 bd b8 3b 81 bd
       -0.07042602 -0.0898723 -0.08171448 -0.063102186
000340 ed 76 08 3d 37 39 14 bd 10 a5 a8 bc 83 e8 3e 3e
       0.03331654 -0.036187377 -0.02058652 0.18643384
000350 b7 72 d2 bd 39 e6 37 bd 51 cb c1 3d c7 02 d7 3c
       -0.10275786 -0.04489729 0.09462608 0.026246442
000360 5f 5d ab 3d a9 a4 fd bd 5e a9 08 bd 12 90 4c bd
       0.083674185 -0.12384922 -0.033364646 -0.049942084
000370 ad cb e2 bd b7 0d c3 bc 41 87 98 3d 8e b5 aa 3d
       -0.11074004 -0.02381025 0.07447673 0.0833541
000380 db bd cc bd 40 03 74 3d 39 a4 00 bd ec 5d 7b bd
       -0.099971496 0.059573412 -0.031406615 -0.061368868
000390 8c 05 3e be 09 58 f4 3d 47 b3 06 3d 62 61 95 bd
       -0.18556803 0.11930854 0.032885816 -0.07293965
0003a0 12 42 fe bd f7 e1 ee bd ad af 94 bd 6d 37 99 bc
       -0.12414946 -0.11664193 -0.0726007 -0.018703187
0003b0 00 21 d5 3d cd 8a fa bd 8a 27 e4 bc 46 44 ea 3c
       0.10406685 -0.122335054 -0.027850885 0.028597008
0003c0 66 ea 98 3c b8 34 ad bc 66 e7 18 3d a4 08 0b 3c
       0.018666457 -0.021143302 0.037330054 0.008485947
0003d0 7c d0 2b 3d 8b 37 48 bd e5 33 4e be 91 57 0b bc
       0.041946873 -0.048881095 -0.20136984 -0.008504764
0003e0 c6 13 f8 bd dc cf 85 bd c0 08 f0 3c 0e ab 27 3d
       -0.121131465 -0.06533787 0.029301047 0.040934615
0003f0 f3 f5 9a 3d 4a aa 34 bd ef 86 e8 bd e1 cc 1b ba
       0.07566442 -0.044107713 -0.113538615 -0.000594331

conv3.0.bias f4 [16]
000000 82 18 fc bd ff 4b 40 bd 7a 1f 9b 3d 94 40 4a 3e
       -0.12309362 -0.046947476 0.07574363 0.19751197
000010 1e 4c b7 bd df a8 5e 3e 46 d3 1f 3e 35 81 ef bd
       -0.08950065 0.21744107 0.15607938 -0.11694566
000020 b0 cb 82 3c 45 bc 16 be 60 c3 2e 3e f6 73 8f be
       0.015966266 -0.14720257 0.17066717 -0.2801816
000030 d5 09 ec 3d 43 e0 78 3e 8d 14 bc bd 99 22 99 bd
       0.11525313 0.24304299 -0.09183607 -0.07477302

conv4.0.weight f4 [16, 16, 5]
000000 60 66 fd bc 29 fd d9 bc 37 eb 8a bc 8a a4 99 3d
       -0.030932605 -0.026609974 -0.016957862 0.075020865
000010 c8 5d d6 bc 2e 64 cc 3d bc 43 bc bd 48 b0 f7 bc
       -0.026167765 0.09980045 -0.09192607 -0.030235425
000020 22 9e 94 bc d4 b0 b6 bd d0 53 26 3d 74 d4 a8 3c
       -0.01814181 -0.08920446 0.040607274 0.020609118
000030 e3 3a b3 bd de ad ca bc 91 8d 9b 3c 1f bf 7c 3c
       -0.08751466 -0.02474111 0.018988403 0.015426426
000040 14 c3 9c bd b8 a5 4a bd a8 39 48 3d 8d 6a 57 bc
       -0.07654396 -0.049474448 0.04888311 -0.013147962
000050 9b 13 26 3d c9 e0 a5 bd b5 7e 48 3d 94 15 90 bd
       0.04054604 -0.08099515 0.048948962 -0.07035366
000060 7c 69 2b be e6 e2 5a 3d 60 5b 1a bc 5c 1f 8e bc
       -0.16739458 0.053439043 -0.0094212 -0.017348938
000070 35 29 b3 bc cc ef 16 be 75 e7 eb 3c 00 5f 63 3d
       -0.021870235 -0.14739913 0.02879689 0.05551052
000080 74 a4 ca bd 9d 89 e1 bc 63 e8 d3 bd e4 fe 32 bd
       -0.09894648 -0.02753144 -0.103470586 -0.043700114
000090 c2 42 8e 3d 5f 35 c1 3b 65 b1 48 bd 8b a4 1e 3d
       0.06946327 0.005896255 -0.0489973 0.03873114
0000a0 c6 8f 64 3d 75 6a ff bd 0e 8e 79 bc 6d 3f 61 3c
       0.055801176 -0.12471477 -0.015231622 0.013748032
0000b0 71 26 8f bc 79 da de bc 65 15 ad bd 60 2f 46 3c
       -0.017474385 -0.027203785 -0.08451346 0.012096256
0000c0 f1 e1 9b bd e0 f4 30 3c a2 1c 11 3d 05 76 d4 bd
       -0.07611454 0.01080057 0.035427697 -0.10374073
0000d0 b8 e8 f5 bd f2 d0 5e bd ad 37 64 bd 73 60 2b 3c
       -0.12007278 -0.054398485 -0.05571716 0.010460007
0000e0 5c 75 6a bc c9 6c 23 bd 0c 56 49 bc 46 db 8b bd
       -0.014310207 -0.039898667 -0.012288582 -0.068289325
0000f0 5b 2b 16 bd 3a a8 73 bc af 54 94 bd 67 ea df bd
       -0.03666244 -0.014871651 -0.072427146 -0.109333806
000100 e0 3d 1b be 91 38 e7 bc 2a 64 f5 bc b4 22 85 bd
       -0.15160322 -0.028225215 -0.029954989 -0.0650076
000110 99 38 0a bd e3 e3 d3 bd df 76 ff 3c 08 b3 2c 3d
       -0.033745382 -0.103462 0.031184612 0.042162925
000120 db 02 d2 bd 58 d9 f5 bd c7 01 c2 3c 5e 8e cf bd
       -0.10254451 -0.12004346 0.023682488 -0.10134576
000130 cf a4 49 bd 70 59 d6 bd 51 b4 ff bd 77 c5 3e bd
       -0.04922944 -0.104662776 -0.124855645 -0.046575036
000140 1e e7 db bd 00 26 e6 3c 0a 69 7c bd f9 d3 9c ba
       -0.107374415 0.028094292 -0.06162361 -0.0011965028
000150 f3 fa 71 bd e7 91 61 bd 60 33 af bd 55 c0 17 bd
       -0.059077214 -0.055070784 -0.08554721 -0.037048656
000160 f0 99 01 be f1 51 ff 3c 5c 92 31 3c 68 ff 58 bd
       -0.12656379 0.031167002 0.010838117 -0.05297795
000170 b9 19 ae bd 8a e8 92 bd aa e8 39 bd 10 8b 97 bd
       -0.08501 -0.071732596 -0.0453879 -0.07399571
000180 4d e5 4e bd 42 61 2d bd d9 13 ec bc ac 8a 80 bb
       -0.050511647 -0.04232908 -0.028818058 -0.003922781
000190 79 19 b2 3c 4c fa 5e 3b 0a 75 0f bd a7 cc cb bd
       0.021740662 0.00340237 -0.035023727 -0.09951144
0001a0 f8 86 cc 3d 21 95 1c 3d d4 a8 5d bc 5c 37 b7 bd
       0.09986681 0.038228158 -0.013529021 -0.08946106
0001b0 d2 bd f7 bd 69 e1 ac bd 38 d1 93 3c ec 26 36 bd
       -0.12096752 -0.08441431 0.0180441 -0.044470713
0001c0 9c d1 04 be 84 2c 11 3d be d6 bb 3c 08 b9 5c 3d
       -0.12970585 0.035442844 0.022929545 0.053887397
0001d0 87 2d f8 bc 31 27 b0 bc a5 0f ab bd a0 fc 35 bb
       -0.030295147 -0.021503063 -0.08352593 -0.0027768984
0001e0 90 d9 d5 3c ee 7c 94 bd 2d 62 ea 3c 8b fb 20 3c
       0.026104718 -0.07250391 0.028611267 0.0098255975
0001f0 74 c2 b6 bc d1 06 71 bd 61 f4 c7 3a 95 bd 6a bc
       -0.02230952 -0.05884439 0.0015255326 -0.014327426
000200 a7 b7 ae bd e9 20 8d bc a3 76 6a 3d 67 47 b2 3d
       -0.08531123 -0.017227607 0.057242047 0.08705025
000210 75 35 45 bd 6f 61 9d bd 08 36 d0 bd 16 7b b8 bc
       -0.048146684 -0.076845996 -0.10166556 -0.02251963
000220 91 60 ce 3a e7 c2 a2 bd 11 46 27 bd 8b ae 6f 3d
       0.0015745332 -0.07947331 -0.040838305 0.058516067
000230 64 73 85 bd ca ac d2 bb 11 09 87 3d 7c 1d 13 bc
       -0.0651615 -0.0064292895 0.06593526 -0.008979198
000240 60 4c 56 bb 77 8f 24 bd be 6c a3 39 d6 42 8f bd
       -0.0032699332 -0.04017588 0.00031170802 -0.0699517
000250 bc e1 8a bc f8 d6 e6 bc 95 18 04 3d e6 a5 f8 bc
       -0.016953342 -0.028178677 0.032250006 -0.030352544
000260 8f ae 55 bd a0 b4 44 3c ca d9 97 3c 3d 58 8e 3c
       -0.052168425 0.012005955 0.018536467 0.01737606
000270 98 55 e4 3c 1a 99 df 3a 33 2c bf 3c d2 27 6e bd
       0.027872846 0.0017059178 0.023336506 -0.058143444
000280 bb 0f 80 39 7e e1 b3 bc d8 4f 40 3d 96 3e 50 3d
       0.00024425783 -0.021958109 0.046951145 0.050840937
000290 d2 5c db 3c 72 1a d4 bd b2 1f 5d 3d 40 19 34 be
       0.026777659 -0.103566065 0.053985305 -0.17587757
0002a0 ea b9 a5 bd 02 77 eb bd 0b cb 8a bd 8e 70 8a 3c
       -0.08092101 -0.11497308 -0.067770086 0.016899373
0002b0 d7 5f a3 bb 72 7b ee 3c 5f e9 29 bd cf b8 a6 3d
       -0.0049857902 0.029111598 -0.041482326 0.08140718
0002c0 bd 2b 5f bc 3a bf e2 bd 07 99 f8 3c 9b 6d 09 3d
       -0.013621268 -0.1107163 0.030346407 0.033551794
0002d0 bf 6c c8 3d 85 c9 5f bd 40 a1 25 bd 69 65 bd bd
       0.09786367 -0.054635543 -0.040436983 -0.09247858
0002e0 45 ad 8a bd c7 8b 4f 3d a9 4f 81 bc 60 90 d5 3d
       -0.0677133 0.05067041 -0.015785055 0.10427928
0002f0 ac 2c 7b 3d af bc 17 3d 0c f7 ef 3c 29 44 21 bc
       0.0613219 0.037045177 0.029292606 -0.009842911
000300 0e 62 0c bd f9 6a 0a 3d b5 1d 4a bd 43 55 8e 3d
       -0.0342732 0.033793423 -0.049344737 0.06949856
000310 8b b1 32 3d 27 f9 3a bd 47 22 82 bc 41 fc c4 bd
       0.04362635 -0.045647766 -0.015885485 -0.09618426
000320 c4 14 db bd 05 da 59 3d 41 55 50 3b 9e 6d 27 bd
       -0.1069732 0.053186435 0.0031789097 -0.040876023
000330 b0 a3 05 bd 61 78 8f 3d 76 04 c5 3c 0b d2 87 bc
       -0.032626808 0.07005382 0.024049979 -0.016579648
000340 e8 e4 70 bd 4b 9a 0e 3d 7f d4 42 3d dd 4d 97 3d
       -0.058812052 0.034815114 0.047565933 0.07387898
000350 ba c8 91 3d 2d d1 34 bd 75 b3 68 3c 63 c2 a7 3c
       0.07118364 -0.044144798 0.014202942 0.020478433
000360 82 fb 41 3d 6d b3 0f bd 5f 52 ec 3c d0 1a c8 3c
       0.047358997 -0.035083223 0.028847871 0.024426848
000370 a2 90 6d bd 14 9a 93 bd 66 b7 cb 3a 5d 71 28 3d
       -0.05799926 -0.072071224 0.0015542328 0.041123737
000380 ef f5 c7 bd 04 52 ad bc 8e 4a 4e 3c 2a 4d 46 bc
       -0.09763705 -0.021157272 0.012591017 -0.012103358
000390 a6 79 f1 bc 21 d3 3f bd db fa 58 bd df 58 f3 3b
       -0.029476952 -0.046832208 -0.05297361 0.0074263657
0003a0 7e 19 63 3d 1f d0 a0 bc 6f fa 34 bd c3 e4 88 3c
       0.055444233 -0.01963049 -0.044184145 0.016710645
0003b0 e2 8f 38 bd c2 3c b9 bd 67 a8 e5 bd 99 4a 39 bd
       -0.045059092 -0.09044792 -0.11213761 -0.045237157
0003c0 e7 6c 14 bc 47 93 f1 3c 5e 30 cb 3d 1a 99 80 3d
       -0.0090591675 0.029489173 0.09921335 0.06279202
0003d0 b7 48 dd bc 82 56 84 bc 88 5c 88 3d b6 ca 15 3c
       -0.027012212 -0.016154531 0.06658274 0.009142568
0003e0 1b 51 5c bd 53 fa 01 bd fb 82 b8 bc 45 0e 8b bb
       -0.053788286 -0.03173287 -0.022523394 -0.0042436444
0003f0 36 78 f2 3c fa 98 06 3c 19 47 d1 3c 3a a3 67 3c
       0.029598337 0.008215183 0.025546597 0.014138037

conv4.0.bias f4 [16]
000000 67 8b 8f 3e 3c f1 00 3d 0a 34 9e 3d f9 80 1e 3e
       0.28036043 0.03148006 0.077247694 0.15478887
000010 d5 29 75 3c f9 21 09 bd 56 42 ba 3d 8c 1f 0f 3e
       0.014963587 -0.033479664 0.09094684 0.13976878
000020 03 4d 9e 3d 11 5d db 3d 0f 8a 0a bd 72 be 36 3e
       0.077295326 0.107111104 -0.03382307 0.17846087
000030 0d c1 33 bc 48 e2 28 be 97 7a 6f bc 7a b7 ef bd
       -0.01097132 -0.1649257 -0.01461663 -0.11704917

conv5.0.weight f4 [16, 16, 5]
000000 6e 5f 94 bd 24 d4 b6 3d 40 e9 30 bd c0 52 88 bd
       -0.07244764 0.08927181 -0.043191195 -0.06656408
000010 b4 88 f0 bc 58 0a 43 3d 80 d1 65 3d 62 58 c1 3d
       -0.02936206 0.047617286 0.056107998 0.09440686
000020 f9 a7 bd bd c0 77 36 3d 1b 03 97 bd 2b b2 b1 bd
       -0.09260554 0.044547796 -0.07373639 -0.08676561
000030 20 61 3d 3d 18 f8 b1 3c 66 65 a0 3d 32 65 e0 3d
       0.046235204 0.021724746 0.0783184 0.109568015
000040 3c 0f c4 bc b8 ab 81 bd 48 87 8a bc 5e 84 d6 bd
       -0.023933046 -0.06331581 -0.01691021 -0.10474466
000050 0c 6d d3 bd b4 d7 3e 3d 50 a3 e2 bc a0 81 52 3d
       -0.103235334 0.04659243 -0.027665764 0.05139315
000060 5c ac 4b 3d 4c af ec bc d8 b7 68 3d 16 68 bb 3d
       0.04972492 -0.028892182 0.056815952 0.09150712
000070 0b 8e d1 bd 3e 3e 1d bd 00 99 98 3d a2 d2 7a bd
       -0.10232171 -0.038389437 0.074510574 -0.06123603
000080 dc c4 bf bd 80 45 c9 3c db 26 68 bd 22 49 97 3d
       -0.0936372 0.024569273 -0.05667768 0.07386996
000090 bc d7 88 3d dc 74 7b 3d bc 37 bf bd a0 ce f4 3c
       0.06681773 0.061390743 -0.09336802 0.029883683
0000a0 dc e1 12 3d ae 69 d5 3d 38 1e 95 3d 66 c8 b1 3d
       0.035859928 0.104205474 0.072811544 0.08680801
0000b0 60 9a 44 3c fa fd b0 3d 5c e2 21 3d 5d 3a 5e bd
       0.0119996965 0.08642192 0.039522514 -0.05425488
0000c0 60 00 06 3b 3a 22 dd bd e6 dd 93 3d e0 6a 7a 3d
       0.0020447 -0.10797544 0.07220058 0.06113708
0000d0 aa b4 d5 bd 86 4e 53 bd 68 dc 92 bd 1f 5e 5c bd
       -0.104348496 -0.051588558 -0.071709454 -0.0538007
0000e0 c6 82 39 bd 10 10 92 3c c8 9b 3d 3c da d9 e4 3d
       -0.04529073 0.017829925 0.011572786 0.111743644
0000f0 e8 50 be 3c 10 f9 69 3d 4e 3f a9 3d 43 79 d1 bd
       0.023231938 0.05712229 0.082640275 -0.10228207
000100 f8 c7 de 3d 00 92 82 3d 68 3e 15 bc 70 e8 d9 bd
       0.10877985 0.063755035 -0.009109117 -0.10640037
000110 50 69 9b 3d 60 49 14 3c 28 c1 74 3d 45 ce e4 bd
       0.07588446 0.009050697 0.05975452 -0.11172155
000120 40 df 10 bc 2c 98 bf 3d 80 29 87 3c 58 2f 62 3d
       -0.008842289 0.09355196 0.01649928 0.05522093
000130 b0 c7 c0 bb 01 8f 82 bd 20 b5 27 bb 70 07 0f 3d
       -0.0058831796 -0.06374932 -0.0025590137 0.034919202
000140 f6 e2 21 bd 10 12 07 bc dc d3 89 bc 0c 23 8d 3d
       -0.039523087 -0.0082440525 -0.016824655 0.0689145
000150 44 40 5d 3d 1e ed c3 3d 54 4e e0 bd 78 8c 29 bc
       0.054016367 0.09566711 -0.1095244 -0.010348432
000160 40 e8 6c 3c 10 92 c2 3d 12 3a e2 3d d0 f2 9f bd
       0.01445967 0.095005155 0.11046232 -0.07809985
000170 a8 ed 93 bc 68 ce dd bc 80 03 48 3d ca b1 db 3d
       -0.01805766 -0.027075961 0.048831463 0.1072727
000180 e0 17 eb 3b 48 63 ca 3d 1e b6 cf bd 35 5a e0 bd
       0.007174477 0.09882218 -0.10142158 -0.109547056
000190 d2 7d 92 3d 14 a7 4c 3d 0a 61 ce 3d a4 89 35 bd
       0.071529046 0.049964026 0.100771025 -0.044320717
0001a0 a6 65 aa 3d e2 cd 4d bd 7d 54 bf bd c4 bd 56 3d
       0.08320169 -0.050245173 -0.09342287 0.05242707
0001b0 84 10 6c 3d 48 74 78 3d 48 d4 8d bd 10 8f cc 3c
       0.057632938 0.06065777 -0.06925255 0.024970561
0001c0 f8 a0 8c 3d d8 a4 10 3c bc 97 a0 bc 40 5e 80 bb
       0.0686664 0.008828364 -0.019603603 -0.0039174855
0001d0 48 09 1d 3d fc e4 d9 3d de 5e 81 3d 48 55 bf 3c
       0.03833893 0.106393784 0.063169226 0.023356095
0001e0 28 40 d6 3c 2e eb 80 3d d4 e2 b7 bc b0 bb 4c bc
       0.026153639 0.06294857 -0.022447027 -0.01249592
0001f0 60 73 a2 3b b0 51 f4 3c 90 fe 70 3c 00 eb c8 3a
       0.0049576014 0.029824108 0.01470913 0.0015328825
000200 67 df ae bd 1a ec bf bd 2a 81 a9 3d 10 c3 86 bb
       -0.08538704 -0.09371205 0.08276589 -0.0041126087
000210 30 2f c3 bd f0 e3 fd 3c 74 70 3a 3d a8 4c 12 3d
       -0.09530485 0.030992478 0.0455174 0.035717636
000220 80 98 e1 bd d0 1a fc 3c 52 83 b4 bd 46 cc 8f bd
       -0.11015415 0.030774504 -0.0881411 -0.07021384
000230 ec 87 d1 bc 2a 33 df 3d 74 9e 80 3d 08 58 fc bc
       -0.025577508 0.10898431 0.062802225 -0.030803695
000240 30 8e 6b 3d 7c 1d ab bd 30 d4 b8 3d e0 a8 8f 3d
       0.057508647 -0.08355233 0.090248466 0.07014632
000250 00 08 82 bd c0 a0 e8 3c 06 c9 e0 3d 57 30 e1 bd
       -0.06349182 0.028396964 0.10975842 -0.10995548
000260 58 cc a6 bd d4 09 ae bc dc cf 2f 3d 80 1e 81 3d
       -0.08144444 -0.02124492 0.04292284 0.063046455
000270 b8 a2 e4 3d 6c 0e 38 3d 28 19 87 3d 94 2a c6 3d
       0.11163849 0.04493563 0.06596595 0.0967609
000280 4b 7d 8b bd e4 cd 4d 3d d0 ab 31 3d 32 6a 90 3d
       -0.06811007 0.05024518 0.043376744 0.07051505
000290 ec c3 42 3d 16 aa a5 3d 02 ce ce 3d 41 e0 59 bd
       0.047550127 0.08089082 0.100978866 -0.05319238
0002a0 e8 84 f5 bc 7a bc 8f bd 0a b0 68 bd 19 c6 6b bd
       -0.029970601 -0.07018371 -0.05680851 -0.057561968
0002b0 28 9e 65 3d 88 2e a3 bc 60 9c 7f 3d 80 c4 2c 3d
       0.056059033 -0.019919649 0.06240499 0.042179585
0002c0 c2 1b bc bd ed 55 d9 bd 10 2f 9d bd c0 d4 d3 bd
       -0.09184982 -0.10612092 -0.07674992 -0.10343313
0002d0 ea e1 cd 3d 48 bc cc 3c 2f 15 64 bd 1a 98 b4 3d
       0.10052855 0.024992123 -0.055684265 0.088180736
0002e0 9e ec 9d 3d f4 cb a4 3d 60 05 63 bd 10 6b 17 bc
       0.07711147 0.080467135 -0.055425048 -0.009241834
0002f0 44 fb 96 bd c4 2d 45 bd 28 16 c1 3c 20 e7 9f 3d
       -0.07372144 -0.04813935 0.023570135 0.078077555
000300 96 4e 80 3d 1a fe 9b 3d 78 2a 28 bc 2e c6 9a bd
       0.06264989 0.076168254 -0.010264032 -0.07557331
000310 b1 30 6e bd f0 98 e8 bb 72 8c e4 3d a8 e7 10 3d
       -0.058151904 -0.0070983097 0.111596 0.035377175
000320 3c 65 91 3d a8 57 32 3c b6 9a e0 3d fe 3f d4 bd
       0.07099387 0.010885157 0.10967009 -0.10363768
000330 80 9c 2a 3b f6 ba be bd 10 86 4f 3c e4 be 64 3d
       0.0026033223 -0.09313004 0.01266624 0.05584611
000340 f6 d7 ce bd 60 ac bd 3c f6 54 af bd de 26 7c bd
       -0.10099785 0.023153484 -0.08561127 -0.061560504
000350 b0 02 a0 3c e0 0e d9 bb 1e 35 d3 3d 4e 63 9e bd
       0.019532531 -0.0066240877 0.10312866 -0.077337846
000360 0a 2a b2 3d 98 1f 89 3d c7 b9 d7 bd 5c 10 ac bd
       0.086994246 0.06695479 -0.10533481 -0.08401558
000370 9d c1 b6 bd 66 f4 bb 3d cb 52 ae bd b0 78 92 3d
       -0.089236476 0.09177475 -0.08511885 0.071519256
000380 6a a5 19 bd 00 bf 9b bc 21 ac 82 bd c2 84 16 bd
       -0.037511267 -0.019011974 -0.06380487 -0.0367477
000390 cc e3 94 bc 5e c0 81 3d 74 a9 6c 3d ec c0 b8 bc
       -0.018175028 0.06335519 0.05777879 -0.02255293
0003a0 bd ea 52 bd 20 2d bb bc 40 27 ae 3a 70 95 af bb
       -0.051493395 -0.022848666 0.0013286844 -0.0053583905
0003b0 30 60 02 3d ec fc 29 3d 0e 2f bd 3d a2 15 cf 3d
       0.031830013 0.04150097 0.092374906 0.10111548
0003c0 bc 72 c3 bc 10 59 a6 3d 74 1c b5 3d 08 39 8c 3d
       -0.02385842 0.08122456 0.08843318 0.06846815
0003d0 9e b5 d9 3d 5a 96 d9 3d 60 c7 81 3d c8 43 a6 3d
       0.10630344 0.106243804 0.06336856 0.08118397
0003e0 9c 9e 46 bd d3 b6 e3 bd 5c e3 cb bc d5 c3 b0 bd
       -0.048491105 -0.11118855 -0.024888687 -0.08631102
0003f0 70 e9 87 3d 3c 25 3f 3d 88 ee cc 3d a0 fb 0f bc
       0.066363215 0.04666637 0.10006434 -0.008788019

conv5.0.bias f4 [16]
000000 c0 a6 51 bb 3c c6 a2 3d fc 7f 20 3d ba 75 cd bd
       -0.003199026 0.079479665 0.039184555 -0.1003222
000010 dc 0c af 3d 30 0d 02 3d 9c 7d 03 3d dc 12 28 3d
       0.085473746 0.031750858 0.032102212 0.04103361
000020 94 78 7e 3d 48 e2 c1 bd 00 80 c6 b8 d0 a4 fc 3b
       0.06212671 -0.09466988 -9.4652176e-05 0.007710077
000030 98 0c 67 3d 92 85 bc bd 90 99 92 3d ec 2d 30 3d
       0.056408495 -0.09205164 0.07158196 0.043012545

conv6.0.weight f4 [8, 16, 5]
000000 36 52 16 bd 66 b1 26 bd c8 cd 49 3c 1f 9b d6 bd
       -0.036699496 -0.040696524 0.0123171285 -0.10478806
000010 44 e7 d9 bd d0 e3 c1 bb 58 79 a2 3d 10 c7 b9 bc
       -0.106398135 -0.00591705 0.07933301 -0.022677928
000020 86 bf b0 3d 24 c4 03 3d 30 67 f7 3b 4a 4f a2 3d
       0.0863028 0.032169476 0.0075501427 0.079252794
000030 2a 67 de 3d 30 4f cb 3c c4 49 a6 bd 10 f1 08 3c
       0.10859521 0.024818033 -0.081195384 0.008358255
000040 b8 c5 25 3d 12 62 cc 3d 68 ee bd 3d de e9 c8 3d
       0.040471762 0.09979643 0.09273988 0.098102316
000050 40 81 23 3c fe 4b bb bd 31 a3 75 bd e4 96 5f 3d
       0.009979546 -0.09145354 -0.059970085 0.05458726
000060 68 51 cc 3d 7c 43 80 bc f0 cb 66 3c ac 40 c5 3d
       0.099764645 -0.015657179 0.014086708 0.09631476
000070 94 9b 1f 3d d8 b0 90 3d b0 e3 31 3d 36 e3 d2 3d
       0.03896673 0.0706498 0.04343003 0.10297243
000080 33 d6 e0 bd 18 c2 10 3d 88 ac 38 bd 10 6e 61 3c
       -0.10978355 0.035341352 -0.045086414 0.013759151
000090 c6 5b 26 bd 50 c7 fa bb fc e2 a9 bc ae 84 4c bd
       -0.040614866 -0.0076531544 -0.020738117 -0.04993122
0000a0 97 cb c5 bd 50 93 67 3d c0 57 21 3b e0 3b bc bc
       -0.09657972 0.056536973 0.0024618953 -0.02297777
0000b0 bc e8 0e 3d 58 b3 78 3d b4 b6 ce 3d 22 b7 cd 3d
       0.03488992 0.06071791 0.100934416 0.100446954
0000c0 78 87 5d 3d 8c f5 d6 bd ec 51 9a bd a2 6f 8e bd
       0.05408427 -0.10496053 -0.075351566 -0.06954886
0000d0 48 df 2b 3d 5a a6 bc 3d 34 33 a2 3d dc 1e 6d bd
       0.041960984 0.092114165 0.079199225 -0.057890758
0000e0 a8 78 d8 3c 8c 0f 7a 3d dc ba eb bc e6 18 b3 bd
       0.02642472 0.061049983 -0.028775625 -0.087449834
0000f0 62 0f 63 bd 1f ea ab bd 00 2e 09 3d 00 29 3d bc
       -0.055434592 -0.083942644 0.033491135 -0.01154542
000100 64 6c 74 3d 80 33 79 3d 14 e4 22 bd 3e 52 47 bd
       0.05967368 0.06084013 -0.039768293 -0.048662417
000110 50 f3 57 3d 98 d6 07 bc 84 ca 10 bd f8 24 c7 3c
       0.052722275 -0.008290909 -0.035349384 0.02430962
000120 68 10 d8 bc 8a 4e a7 3d ce d7 bd bd c4 38 c6 bd
       -0.02637501 0.08169277 -0.09269677 -0.09678796
000130 06 a3 b0 3d d1 b7 5d bd 20 0f cc 3c 50 72 b3 3c
       0.08624844 -0.05413038 0.024909556 0.021905094
000140 00 4d 8e 3d 18 1a 5d 3d f0 a2 18 bd 15 0e cb bd
       0.0694828 0.053979963 -0.037264764 -0.09914795
000150 d0 a1 ff 3c 20 7a bc 3d fb 9f 9f bd 92 f4 af bd
       0.031205088 0.09202981 -0.07794186 -0.0859157
000160 20 6e 21 3c 14 db 8b bc 70 25 1e 3d b8 a3 05 3d
       0.009852916 -0.017072238 0.038609922 0.032626837
000170 8e 05 9e 3d 80 2a df bc 7c 28 5c 3d 4a ce c3 3d
       0.07715903 -0.027241945 0.053749546 0.09560831
000180 48 45 e5 3c a2 13 b6 bd fc 98 50 3d 40 1f 3b bb
       0.027987137 -0.088904634 0.050927147 -0.0028552562
000190 88 63 9e 3d 12 96 bb 3d 80 ec c9 ba d0 0e 5d bc
       0.07733828 0.09159483 -0.0015405566 -0.013492301
0001a0 58 1b 13 bc a6 fc 7c bd 4a ce 26 bd ac 0a 71 bd
       -0.008978687 -0.06176438 -0.040724076 -0.058848068
0001b0 8c b0 c0 3d b2 4d af bd 7a e7 ae bd 58 d8 84 bd
       0.09408674 -0.08559741 -0.085402444 -0.06486577
0001c0 16 2a c8 3d 20 af 85 3d 18 4b 49 3d 9c 71 17 3d
       0.09773652 0.06527543 0.04914388 0.03697358
0001d0 e4 b1 84 bc e0 c5 76 3d 98 ab 04 bd 30 04 18 3c
       -0.016198106 0.060247302 -0.032390207 0.009278342
0001e0 8e bd b5 3d 78 83 ee 3c 54 c8 b9 bc c4 39 15 bd
       0.08874045 0.029115424 -0.022678532 -0.036432043
0001f0 94 e2 29 3d f0 f8 8c 3d d0 2f a2 bd 4c 7c 39 3d
       0.041475847 0.068834186 -0.07919276 0.045284554
000200 55 6c d0 bd c6 48 af bd 60 30 ce bc 5c d0 81 bd
       -0.10176913 -0.08558802 -0.025169551 -0.063385695
000210 6c 56 e0 bd 08 af 09 bc e4 21 68 3d 6e 1c da 3d
       -0.10953984 -0.008403547 0.056672946 0.10649954
000220 44 d8 eb bc e8 d8 62 3d 3e f1 0f bd 60 43 f5 3c
       -0.028789647 0.05538264 -0.035142176 0.029939353
000230 54 f8 6d bd a5 31 df bd 02 74 cd 3d 95 b7 6d bd
       -0.058098152 -0.10898141 0.10031892 -0.058036406
000240 82 ae 83 3d f8 58 2c 3c c4 c7 ba bc 6c 83 86 3d
       0.06429769 0.010519259 -0.022800334 0.065680355
000250 b9 80 4c bd 78 7c 83 3d f2 fd 9d 3d 58 68 a9 bc
       -0.049927447 0.06420225 0.07714452 -0.020679638
000260 16 20 d8 bd 80 76 81 3d cc 15 cf 3d de 89 c7 3d
       -0.10552995 0.0632143 0.10111579 0.09743093
000270 d0 cf 26 bc 72 fd bb 3d bc 00 d8 bc 35 7a d1 bd
       -0.010181382 0.091792 -0.026367538 -0.10228387
000280 e1 8f cb bd ca 98 b5 3d 48 54 c7 3d 1a 29 83 bd
       -0.09939552 0.08867033 0.09732872 -0.06404324
000290 fe 6f 04 bd e2 84 d1 bd 0d c3 9e bd 8a 39 cd 3d
       -0.032333367 -0.102304235 -0.07752047 0.1002074
0002a0 5a 59 14 bd d8 78 20 bd 48 75 08 3d 4b 8f dc bd
       -0.036218025 -0.039177746 0.033314973 -0.107695185
0002b0 08 8d 09 3d 0c 8c b4 3d 94 ca bc 3d 70 cf b1 bc
       0.033581764 0.08815774 0.09218326 -0.02170536
0002c0 70 bf fd 3b c8 7a ff 3c f4 e7 ce 3d d8 fc cb 3c
       0.0077437684 0.031186476 0.10102835 0.024900839
0002d0 b8 59 a7 3c c2 d8 35 bd b5 d6 67 bd e0 b2 ba 3c
       0.020428523 -0.04439617 -0.056601245 0.022790372
0002e0 d0 63 e7 3c 08 b5 57 3c 80 b8 e4 3c bc ca 76 3d
       0.028245836 0.01316572 0.027920008 0.060251936
0002f0 14 92 8a bd cc 57 bc bd 20 b0 72 3c 64 ba c7 bd
       -0.067661434 -0.091964334 0.014812499 -0.09752348
000300 c0 b1 00 3d 8e 17 bb bd 20 d2 b2 bb 2e 19 10 bd
       0.031419516 -0.09135352 -0.0054571778 -0.035180263
000310 00 b0 8f 3b 5a 86 c2 bd f0 83 e9 bb f0 13 44 3d
       0.0043849945 -0.09498282 -0.007126324 0.047870576
000320 e4 c7 31 3d aa 3c e3 3d de c6 a6 3d 60 da a8 3d
       0.04340352 0.11095555 0.081434 0.08244777
000330 40 2e 81 3c be 13 9b bd 28 38 fa bc 78 18 1c 3d
       0.015769124 -0.07572125 -0.030544356 0.038109273
000340 df b8 e4 bd 7c 5c cf bc 10 f2 d9 bc d4 ce 5e 3d
       -0.11168074 -0.025312655 -0.026604682 0.054396465
000350 26 2e 31 bd 5e 1b b7 3d cd 4c 7f bd f1 11 d5 bd
       -0.0432569 0.08940767 -0.062329102 -0.10403813
000360 d0 9a 4b 3d f8 8e b7 3c 64 11 04 3d dc 2b dd bd
       0.049708188 0.02240704 0.032243147 -0.10799381
000370 30 eb 04 3c 7b 7b d7 bd 40 63 c5 bd 00 4c e3 bd
       0.008112714 -0.10521599 -0.09638071 -0.1109848
000380 82 66 a8 3d f8 d6 85 3d 80 4c e9 3b 50 5e 1b 3d
       0.08222677 0.06535143 0.007119715 0.03793174
000390 78 4e 08 bc 5e 5a b4 3d 97 6c db bd 39 e3 7b bd
       -0.00831949 0.08806299 -0.10714071 -0.061495993
0003a0 ae 26 ae 3d e8 e0 2e bd d0 c7 6d 3c ea 84 1d bd
       0.08503471 -0.042694956 0.014512971 -0.038456835
0003b0 90 08 06 bc e8 f1 a8 3c 00 d7 ce 3a b6 28 d3 bd
       -0.008180752 0.020623162 0.0015780628 -0.10310499
0003c0 a4 66 e4 bc 30 db 60 3c b0 25 40 bc 1a ba a5 3d
       -0.027880974 0.013724133 -0.011727735 0.08092137
0003d0 cc cb 2f 3d ba b1 9c 3d 60 5f 8f 3b 24 30 40 3d
       0.042918965 0.07651086 0.0043753833 0.04692091
0003e0 57 ea c7 bd 32 13 dd 3d ac 17 2a 3d fe cd 9e 3d
       -0.09761494 0.10794677 0.04152648 0.07754134
0003f0 00 1f 21 3b e8 ee dd 3d 08 19 61 3d f3 88 6f bd
       0.0024585128 0.108365834 0.054955512 -0.058480214

conv6.0.bias f4 [8]
000000 b0 62 23 3d d5 0e 84 bd 07 f7 c6 bd a4 19 ba bd
       0.039889038 -0.064481415 -0.097150855 -0.09086922
000010 62 b8 13 bd 46 41 c3 3d 29 3a 62 bd a8 08 d2 3d
       -0.036064513 0.09533934 -0.055231247 0.10255557

fc.weight f4 [3, 304]
000000 7c b7 b5 bc d2 46 15 bd 77 d6 a3 3c b1 de c9 ba
       -0.022182219 -0.036444493 0.019999726 -0.001540145
000010 88 ee 36 3c 0e 6f 1c 3c 46 b5 1d bd e9 bd a3 bc
       0.011165269 0.009547962 -0.038502954 -0.019988017
000020 c2 13 f2 3c b8 86 d6 bc cb 51 84 bd 74 97 3d bd
       0.029550437 -0.026187286 -0.06460913 -0.046287015
000030 60 03 9f 3c 30 1c 13 bc c4 96 95 3d d6 3a b0 3d
       0.019410789 -0.008978888 0.07304147 0.08604972
000040 da 10 09 3e 0b 6b 85 3d 57 bc 7e 3d 18 6e 07 bd
       0.13385335 0.065145575 0.062191334 -0.033063978
000050 63 26 2a bd c1 0f 0c bd e7 93 ae 3c 44 06 44 bc
       -0.041540515 -0.03419471 0.02131076 -0.0119643845
000060 86 40 10 bc fe df 1d 3c 97 c3 af bc 0b 7d d9 bc
       -0.008804446 0.009635923 -0.02145557 -0.026548883
000070 c7 9c d0 bb c3 f9 48 bd fb 6f 54 bd bf 91 a0 bb
       -0.0063663456 -0.049066316 -0.051864605 -0.004900187
000080 30 a6 64 3d 73 2d b3 3d 55 f8 b8 3c 0e e0 5e 3c
       0.05582255 0.08748903 0.022579351 0.0136032235
000090 79 ae d6 3b 88 c3 39 bd 16 90 5a 3a b0 17 13 3d
       0.0065515605 -0.04535249 0.00083375105 0.035911262
0000a0 1a 1c 2e bd 84 dd 3c 3d b9 d1 27 3c d8 be 53 bb
       -0.04250727 0.04610969 0.010242873 -0.0032309797
0000b0 b0 6c 9f 3c c3 1e 92 bc d3 87 a7 bc b6 2f 17 bd
       0.019461006 -0.017836934 -0.020450508 -0.036910735
0000c0 a0 98 87 3d 69 61 a0 3d b1 fd 98 3a 5d 73 66 3d
       0.06620908 0.078310795 0.0011672286 0.056262363
0000d0 e7 ba de bd 7d c9 50 bd 4f 35 95 bb da c1 06 3e
       -0.108754925 -0.050973404 -0.004553474 0.13159886
0000e0 9c ac b1 3d 3c d0 8b bb 6f 45 5c 3d 4c 42 95 bc
       0.08675501 -0.004266767 0.053777155 -0.01822009
0000f0 6b c5 88 bc 82 fe 5f bd 05 ac e3 3c 54 98 09 3d
       -0.016695699 -0.054686077 0.027791986 0.033592537
000100 1d 92 51 bc 20 48 a4 3c d2 10 d4 bc da 8b 0d bd
       -0.012791184 0.020053923 -0.025886927 -0.0345572
000110 30 5f 28 bd e6 dd 92 bd 37 b1 00 bd 0e 9b 63 3d
       -0.041106403 -0.0717123 -0.031419005 0.055567794
000120 56 3a 22 3e 6f 13 f8 3d d0 87 b5 bd 4b 27 0e bd
       0.15842566 0.12113082 -0.08863795 -0.03470544
000130 3f 0d ee bb 84 85 ae 3b 47 35 b5 3c ef fb 42 bc
       -0.0072647627 0.005325975 0.022120131 -0.011900886
000140 17 c9 e8 bb fa 35 75 bc a4 19 c9 bb eb 63 da bc
       -0.00710405 -0.014966482 -0.00613709 -0.026658973
000150 cc 09 08 bd 34 c2 16 bd f6 2e af bd 4b 86 bb 3b
       -0.033212468 -0.0368063 -0.08553879 0.005722796
000160 1d be b4 bc ef 56 47 3c e7 ea a8 bd 76 b1 4d 3c
       -0.02206331 0.012166723 -0.08247929 0.012554517
000170 7d 66 a0 3d 18 30 a7 3d f9 07 b1 3d 77 61 bb 3c
       0.07832048 0.0816347 0.08644099 0.022873623
000180 0d 8d 4f bc 9d f4 97 3c 44 da fa bc c9 9a 9e 3c
       -0.0126679065 0.018549258 -0.030621655 0.019360917
000190 54 e4 31 3d 5f 8e 5d bc 73 0d 0b bd 0a 35 33 bc
       0.04343064 -0.013522713 -0.033948373 -0.0109379385
0001a0 f3 da 90 bc f6 df 66 bc 74 f2 81 bd fd 80 53 3c
       -0.017682528 -0.014091482 -0.063450724 0.012909171
0001b0 f5 0d 93 3d f2 31 bd 3d 38 d1 e2 3d 04 96 fa bc
       0.071803965 0.09238042 0.110750616 -0.030589111
0001c0 f9 d0 06 bc 3c 19 d1 bd de 5c d7 bc 2d 5d 00 3d
       -0.008228534 -0.10209891 -0.0262894 0.03133886
0001d0 8e 29 b7 bc 31 77 5c bb a0 be 5f 3d 05 c6 82 3c
       -0.022358682 -0.003364038 0.054625154 0.015963564
0001e0 f9 56 e6 bc 49 fd 40 bd 4f b5 d8 3c 8a dc c9 3c
       -0.028117644 -0.04711655 0.026453642 0.024641294
0001f0 f9 1d 6d bb b4 e5 5e bd c4 1f c7 bd e7 03 b3 bd
       -0.0036181195 -0.05441828 -0.09722856 -0.08740979
000200 82 f1 5f bd 32 65 b1 3c 69 61 ec 3d 2c 38 1a 3e
       -0.05467368 0.021654699 0.11542017 0.1506049
000210 4a d8 e1 3d 65 e4 bf 3c 0b d9 d3 3b 72 a9 bb bb
       0.11027582 0.023424337 0.0064650825 -0.0057269866
000220 af 98 1a bd 4f 28 95 3c 4c a2 e0 3b 87 87 cf 3a
       -0.037743267 0.018207697 0.006855285 0.0015833237
000230 95 d7 15 bd 04 1b 6f 3c ca 03 86 bc 67 bf ca bc
       -0.03658255 0.014593843 -0.016359229 -0.02474947
000240 be ce 57 bd db fa d4 bd 7e bd 2a bd 19 41 af bd
       -0.0526874 -0.103994094 -0.04168462 -0.08557338
000250 97 e0 95 3c 50 25 42 3e f6 fa db 3d 68 78 33 3c
       0.01829557 0.18959546 0.107412264 0.010954
000260 c0 ef 0c bc 9c 59 8c 3b 10 14 b3 bc d0 5b 5e bd
       -0.008602083 0.004283143 -0.021860152 -0.054286778
000270 f9 34 eb bc 26 9c a1 3c 33 16 7a 39 10 63 0c 3d
       -0.028711783 0.019727778 0.00023850128 0.03427416
000280 0d a9 b3 bc 36 61 c2 bb f0 33 85 3a ec 98 17 bd
       -0.021931196 -0.0059319986 0.0010162573 -0.037011072
000290 9b cc ed bd ee 12 72 3b 2a f2 95 bc 7a 27 0b 3e
       -0.11611291 0.0036937553 -0.01830395 0.13589278
0002a0 bf b5 d0 3d 09 74 22 3d d1 b6 32 bd 5e 53 8b 3b
       0.10190915 0.03966144 -0.04363138 0.0042518815
0002b0 c2 32 8a 3c db 55 0b bd 26 fe 8e 3c 97 aa 59 bb
       0.016869906 -0.034017425 0.017455172 -0.0033213252
0002c0 6a 8e 49 bd 45 a9 77 3b 1a 6e 95 3c 18 db bd bc
       -0.049208082 0.0037790101 0.018240977 -0.023175761
0002d0 25 cc 4d bd f3 a5 1e bd 1a 2a 42 bc fb ad cf 3b
       -0.050243516 -0.03873248 -0.011850858 0.0063378788
0002e0 54 5a e0 bc a2 92 71 3c 35 88 03 bd e5 c6 8d 3d
       -0.027386822 0.014744433 -0.03211232 0.06922702
0002f0 52 15 a1 3c dc 95 cd bc 43 34 1d 3b 4d 2f 27 bd
       0.019663487 -0.025095873 0.002398745 -0.040816594
000300 8b 17 a1 ba 7c b3 07 bc 46 b8 b6 bc 54 4d 1e bd
       -0.0012290342 -0.0082825385 -0.022304665 -0.038647965
000310 16 7d 7c bd a4 9c 10 3c 96 72 54 bd 67 9c 84 3c
       -0.06164273 0.008826409 -0.05186709 0.01618786
000320 0c c0 2e bd 56 45 c0 bc ab 08 c8 3c cc 31 92 3c
       -0.04266362 -0.023470562 0.024418196 0.01784601
000330 08 ab 12 3d b0 26 0c 3d 9c 86 dd 3d 0b cf 6c 3d
       0.03580764 0.034216583 0.1081669 0.05781464
000340 e7 f1 28 bd 06 31 36 3d c4 bf 56 bd 60 ff 47 bd
       -0.04124632 0.044480346 -0.052428976 -0.04882753
000350 ba fd 4d bc 29 de f3 3c 88 db 30 3c 1b f7 73 3c
       -0.0125727 0.02976902 0.010794528 0.0148904575
000360 d2 1e 3f 3d d6 58 05 3b 44 a6 ee 3c 62 f3 16 bc
       0.046660252 0.002034714 0.029132016 -0.0092133
000370 2b b4 3b bd e2 81 0f bd 3d a6 91 3a c1 0b 4f 3c
       -0.04582612 -0.035035975 0.0011112165 0.01263708
000380 bf 60 2a 3e 81 5f 2e 3e 7a 4e f3 3d 8c 51 2b 3d
       0.16638468 0.1702862 0.118802026 0.041825816
000390 9b 5f 13 3d 74 9e 1a 3d 28 29 bd bc 58 90 91 3b
       0.03597985 0.03774877 -0.023090914 0.004442256
0003a0 60 fe 71 bd d4 2c 00 bb b5 19 e6 3c d7 9f 3c bb
       -0.05908048 -0.001955797 0.02808843 -0.0028781795
0003b0 f6 ae 84 bd 94 dd 4c bc 7f f3 0d bd bb 78 95 bd
       -0.06478684 -0.012504 -0.034656044 -0.07298418
0003c0 1b 6f 3b bc b2 7f 9c bc 4b 6e 79 3d 1a 89 14 3e
       -0.011440064 -0.019103859 0.0608962 0.14505425
0003d0 26 df a0 3d aa 13 d0 bd 00 00 5b bd 34 cc 1a 38
       0.07855062 -0.101600006 -0.053466797 3.690664e-05
0003e0 6a 02 50 bd f8 f4 4c 3d 5b 80 83 3c c4 e3 88 bb
       -0.050783552 0.050038308 0.016052416 -0.0041775424
0003f0 fb 27 ca 3c e4 14 76 3b cf 2c 6e 3c aa e9 a7 bc
       0.024677267 0.0037549073 0.01453705 -0.020497162

fc.bias f4 [3]
000000 5d 4a 8e 3c c4 06 9d 3c fc a6 51 be
       0.017369444 0.019168265 -0.20473856
