routes/model2.pkl (torch_old, 29231 bytes, 14 tensors)

conv1.0.weight f4 [4, 1, 5]
000000 b0 ba ce 3d ba c9 86 be 2b 6d 97 3d 1a 2c 46 3e
       0.100942016 -0.2632578 0.07393869 0.19352761
000010 8b 45 80 be 0b 57 45 3e a9 7e 0a 3d b7 3d 16 3e
       -0.25053057 0.19271486 0.0338122 0.1467198
000020 04 3d 71 3c 7f 32 8f bd 2d 88 88 be 75 a1 25 bc
       0.01472402 -0.06992053 -0.26666394 -0.010109295
000030 05 13 30 3e 9f dd a6 be c6 ae 99 be 6a bc 06 be
       0.17194755 -0.32590958 -0.30016154 -0.13157812
000040 e2 cf d9 bc cd ef 50 be ba 44 8f be d9 d5 a1 be
       -0.026588384 -0.20403977 -0.27982122 -0.31608465

conv1.0.bias f4 [4]
000000 57 5a 34 bd 52 64 27 be 85 af be bd 1b be 26 be
       -0.044031467 -0.16346863 -0.093108214 -0.16283457

conv2.0.weight f4 [8, 4, 5]
000000 32 25 8c 3d 67 2a a5 bd 7d 89 50 3d 69 25 7e be
       0.06843032 -0.08064728 0.05091237 -0.24818958
000010 41 42 27 bd eb 0b c8 3d f6 12 9f 3c 72 77 d4 3d
       -0.04083467 0.09767898 0.019418221 0.10374345
000020 5b 17 1b be 43 b1 1d 3d af 6c d6 3d 67 b7 08 3e
       -0.15145628 0.038499128 0.104699485 0.13351212
000030 0d e5 ec bd 26 6b 8a bd 6b 90 ec ba 01 96 3e be
       -0.115671255 -0.06758718 -0.0018048411 -0.1861191
000040 60 a7 0b be 5f 03 40 bd 58 95 62 3d 8b 06 44 bd
       -0.13638067 -0.046878215 0.055318207 -0.047857802
000050 0c 4b f3 bd e3 c9 8c be e7 84 22 3d a3 14 59 bd
       -0.118795484 -0.27497777 0.039677527 -0.052998196
000060 06 2a f3 3c 9e 3f 12 be 90 1c 91 bd 44 6e ad be
       0.029683124 -0.1428208 -0.07085526 -0.33873188
000070 1e 36 ab bd 02 cb 60 bc 89 0c 83 3d 3a 1c c3 bd
       -0.083599314 -0.013720276 0.06398875 -0.09526868
000080 46 85 32 3d ef 16 1a bd 2f fa 8c bb 80 13 57 be
       0.04358413 -0.037619527 -0.004302285 -0.21003532
000090 91 9d 84 3d a8 6d ed 3d 90 93 0c bc 36 0a f2 3d
       0.06475366 0.11593181 -0.0085801035 0.11818354
0000a0 b0 12 64 3c 70 0e 7a be 6a 29 6c be 09 03 77 3c
       0.013920471 -0.2441957 -0.23062673 0.015076407
0000b0 d2 75 bf bd e5 22 66 bc b8 92 91 3d 0c 70 01 bd
       -0.09348644 -0.014046405 0.071080625 -0.031600997
0000c0 16 9e 78 3d 8b bb c3 3c 6b 7d 37 be 1c cc 67 be
       0.060697637 0.023893138 -0.17918937 -0.22636455
0000d0 a8 03 27 3d e6 a9 e5 3d 15 d5 8f bc ba 0c f4 bd
       0.04077497 0.11214046 -0.01755766 -0.1191649
0000e0 18 ab 35 be 78 ed 0b bc 3a 11 19 3b 77 f9 39 3e
       -0.17741048 -0.008540504 0.0023356215 0.1816157
0000f0 f1 e7 9f bc fd 87 a5 bc a5 df 94 bd 20 80 55 3d
       -0.019519778 -0.020206446 -0.07269219 0.052124143
000100 8f 19 8e 3c 8c 3a 27 be a2 37 1d be bd 79 bd ba
       0.017346172 -0.16330928 -0.15353253 -0.0014455836
000110 2f f4 6d 3d 79 38 58 bd 33 29 cb 3d 00 e4 3d be
       0.0580942 -0.05278823 0.099199675 -0.18544006
000120 95 db 4f 3d 83 5c 6c 3d ef da 5f bd 48 e2 f6 3c
       0.05074652 0.057705414 -0.05465215 0.030137196
000130 ff ec cb 3d 02 61 18 bd df 77 19 3b 72 8c e2 3d
       0.09957313 -0.03720189 0.0023417396 0.11061944
000140 66 13 28 be 65 d7 e1 bd 73 79 0e be 95 8e 86 3c
       -0.1641365 -0.11027411 -0.13913517 0.01642541
000150 20 9a bd bd c6 03 0b 3e 75 8f b6 bd dd 1c 23 3d
       -0.09257913 0.13575658 -0.08914081 0.039822448
000160 aa cc da bd 6e 06 de bd 64 2b 01 be cd 9f 85 3d
       -0.10683568 -0.1084107 -0.12614208 0.0652462
000170 12 4d 26 be d3 80 d4 bd e3 d6 05 be 30 1f 37 be
       -0.16240337 -0.10376134 -0.13070254 -0.17882991
000180 f7 e2 85 bd 80 72 73 be dc 27 5f 3d 7e 94 49 be
       -0.06537431 -0.23774147 0.054481372 -0.19685552
000190 51 dd 33 3e 73 fa a4 bc 56 bd 95 bd 2b 65 19 be
       0.17564894 -0.020138955 -0.073115036 -0.14979999
0001a0 37 6d d3 bc 06 02 2e be 60 fe a7 3d 1e 8c 93 bd
       -0.025808914 -0.1699296 0.08202815 -0.072044596
0001b0 f2 aa 9d 3d 9a ba 79 3d ce 17 8b 3c f2 29 0e 3b
       0.07698621 0.060968973 0.016979124 0.0021692482
0001c0 8b c0 31 be 79 60 0c be fb c5 00 bd e7 54 e6 bd
       -0.17358606 -0.13708676 -0.03143881 -0.112466626
0001d0 3d 41 ec 3d 9e 60 2d bd 70 3c 4e be 96 51 35 be
       0.11535881 -0.04232847 -0.20140243 -0.17706904
0001e0 7e 0a 5c bd 85 eb 82 be 1f 7b d7 3d 84 6b 15 3e
       -0.053720944 -0.25570312 0.1052153 0.14591795
0001f0 a5 03 6e be 02 25 0c be 13 7e 62 be b7 90 f3 bd
       -0.23243578 -0.13685992 -0.22118406 -0.118928365
000200 9f e0 1b 3d 20 cf ec 3b 76 9b 61 be 77 ef 9b bd
       0.038056012 0.0072268397 -0.2203196 -0.07614034
000210 0b 30 0c be 1c e1 85 be 09 79 32 be 9b 5a 8f be
       -0.13690202 -0.26148307 -0.17428984 -0.27998814
000220 81 2d 06 3e ee 65 10 3e 7f a0 19 be 38 f3 d8 bc
       0.13103296 0.14101383 -0.1500263 -0.026483163
000230 65 6a bb bd 4e 86 45 bc 8c ed b5 bd 09 e0 dc bb
       -0.091511525 -0.0120559465 -0.08883199 -0.0067405743
000240 65 5c 2f bd 9b 37 29 be 9b cb d3 bd ef e6 57 be
       -0.042812724 -0.16525118 -0.10341569 -0.21084188
000250 19 09 74 bd 5b b0 f8 3c d6 7a 2b be 05 a5 5e 3d
       -0.05957899 0.03035753 -0.16746077 0.054356594
000260 c2 cc 91 3d 5d 77 02 3d df e0 3d bd 6b 19 cc bd
       0.071191326 0.031852115 -0.046357032 -0.099657856
000270 a4 3c a3 3c 9a 19 fe bd 50 31 f1 bd 14 07 c9 bd
       0.019926377 -0.12407227 -0.11776984 -0.09815803

conv2.0.bias f4 [8]
000000 9e f6 2c 3e d8 49 88 be c6 ce e2 bc 2d 6c 0a 3d
       0.16890952 -0.26618838 -0.027686488 0.03379457
000010 40 e9 46 3e 10 1c 81 3e fe dc 92 be d0 dc 63 bd
       0.19424915 0.25216722 -0.2868423 -0.055630505

conv3.0.weight f4 [16, 8, 5]
000000 dc 9c b3 bd 44 52 43 3d 2e ee eb bc cb 4a b8 3d
       -0.08770153 0.047685876 -0.028800096 0.089986406
000010 fd cd ee bd de 61 d7 3d a7 85 00 bd bd 1b 27 3c
       -0.11660383 0.105167136 -0.03137746 0.010199484
000020 66 7c 0b 3d 57 ee 84 bd c7 be c7 bd 00 dd c1 bd
       0.034054182 -0.06490772 -0.09753185 -0.094659805
000030 f8 28 c8 bd 29 21 97 bd e5 e7 01 3e 4b bd 2d 3e
       -0.09773439 -0.07379372 0.12686117 0.16966741
000040 c3 fc 7a bd e6 89 5e 3d a5 4a 96 bc 28 96 bf bd
       -0.06127621 0.05433073 -0.01834614 -0.09354812
000050 e4 f5 ae bd aa 68 db 3d 04 39 1b 3d c6 ff 64 bd
       -0.08542994 0.107133225 0.03789617 -0.055907987
000060 21 7b 65 3d 71 9e 42 3b 47 68 6a 3c b3 36 a7 3d
       0.056025628 0.002969649 0.014307088 0.0816473
000070 4c 09 c2 3c f1 34 2c bd 58 d6 cb bd 6e f4 de bd
       0.023686074 -0.042042676 -0.09952992 -0.10886465
000080 aa a8 4a bd bd 4f 53 bc ee ff 01 be 99 be 37 be
       -0.049477257 -0.012897429 -0.12695286 -0.17943801
000090 42 0f 24 be 07 6f 11 3c 7d 3c 04 3d 42 8b 83 3b
       -0.16021445 0.008876569 0.03228425 0.0040144036
0000a0 7b d2 31 be 27 1e a7 bc ba 7b 03 be a7 9b a6 bc
       -0.17365448 -0.02040012 -0.12840167 -0.020337893
0000b0 d7 44 9f 3d ab b5 49 bd a4 9c 06 3e 89 44 26 3d
       0.07776802 -0.049245518 0.13145691 0.040592704
0000c0 04 40 79 bd 43 5c a4 bd 20 48 0b be 7a cd 01 be
       -0.060852066 -0.0802541 -0.13601732 -0.1267604
0000d0 35 5d 91 3d 65 60 2f be 0e c1 57 3d 29 db 43 be
       0.07097856 -0.17126615 0.052674346 -0.19126572
0000e0 58 4e d3 3d e9 12 ac 3d 11 47 d1 3d f8 aa 04 be
       0.10317677 0.08402044 0.10218633 -0.12955844
0000f0 93 7d 18 be d4 09 d0 bc ac 38 aa 3b 5f 1f e4 3d
       -0.14891653 -0.025395311 0.005194744 0.11138796
000100 8f 4e 40 be 67 e3 f9 bd cc d0 2e be 43 19 da bd
       -0.18779968 -0.12201577 -0.17071837 -0.106493495
000110 14 39 b5 3d ba 05 99 3d 24 e8 0f be a5 21 09 3d
       0.088487774 0.074717954 -0.14053398 0.03347935
000120 ec 64 27 be c9 3f c8 3c 20 b0 5c bd 01 aa 58 be
       -0.16347092 0.024444478 -0.053878903 -0.21158601
000130 53 45 b5 3c ea 1e a9 3d 6b 8a 25 3d a1 45 46 3d
       0.022127783 0.082578495 0.04041521 0.048406247
000140 13 51 d9 bd 1d 30 b1 3d f7 5c 19 bd ee fd 3d bd
       -0.10611167 0.08651755 -0.037442174 -0.046384744
000150 d2 82 10 be 30 70 94 bd b9 3b c7 bd ba 3d a9 3c
       -0.14112404 -0.072479606 -0.09728188 0.020659316
000160 98 5d 18 be 3a ff 24 3e 04 6e 2c bd 35 bd 66 3d
       -0.14879453 0.16112986 -0.042097107 0.056332786
000170 3f 5f db 3d 5c 7b 2f 3d f4 8c c3 bb 07 23 a2 bc
       0.10711526 0.042842254 -0.0059677307 -0.019792093
000180 94 1d 39 3e ea ce 32 bb 9a 81 2e bd 77 62 c1 bd
       0.1807769 -0.0027283975 -0.042604066 -0.09442609
000190 d1 d2 ad bc d8 26 90 bd 6a cf e6 bd 55 03 ed bd
       -0.02121869 -0.07038659 -0.1127003 -0.11572901
0001a0 50 1c fc bd 8d cf 80 3c 3d 4f f5 3d 4c 25 ec bd
       -0.12310088 0.015723968 0.11978004 -0.11530551
0001b0 17 5a 37 be fc 59 74 3d 92 8b c2 bd 1f e2 f2 3d
       -0.1790546 0.05965613 -0.09499277 0.118595354
0001c0 0f f4 8e 3d 2f da a4 bc 23 8b 88 bc 5f 78 c7 bd
       0.06980144 -0.02012357 -0.016667908 -0.09739756
0001d0 e3 32 d8 3d 39 d6 d3 3c 99 08 d7 3d 82 56 05 be
       0.10556581 0.025858985 0.10499687 -0.13021281
0001e0 7c 35 f4 bd cd 89 48 bc 8e 25 20 3d 68 2c 70 bd
       -0.11924264 -0.0122398855 0.039098315 -0.0586361
0001f0 92 67 8c 3d f1 54 0e bd ed 4d a8 3d 65 ca 85 3d
       0.06855692 -0.034748975 0.08217988 0.06532744
000200 2d 17 5f bd 09 f7 a2 bd 2b 4f ca bd 6e d4 ac bc
       -0.05446546 -0.079572745 -0.09878381 -0.021097388
000210 bc d2 1f bd 25 4f cd bc d9 df 6a bd 01 ec a4 3d
       -0.03901933 -0.025062153 -0.057342384 0.08052827
000220 55 81 fe bc ec b8 40 3d 55 84 89 3d 7f 39 f3 bc
       -0.03106753 0.047051355 0.067146935 -0.029690502
000230 54 18 ac bb 73 76 26 be 8f da ad 3d 10 3c 96 bc
       -0.0052519236 -0.16256122 0.08488952 -0.018339187
000240 4b 4c 24 be c8 2d 34 3e 10 1f 0b be f3 45 40 be
       -0.16044728 0.17595589 -0.13586068 -0.18776684
000250 39 bc be bd 09 40 d9 3d ae a6 ad 3d 74 08 89 3d
       -0.093132444 0.10607917 0.08479057 0.066910654
000260 30 02 cd bd 16 0f 04 be 81 fe 1c 3e 19 6f 1b 3e
       -0.10010183 -0.1289638 0.1533146 0.15179099
000270 24 41 2d 3d fe 92 ba 3d 0d 4a c1 bd b9 ef 2a bc
       0.04229845 0.09110068 -0.09437952 -0.010433131
000280 69 b0 20 3d 43 7d 0a be b8 95 a4 3d 71 00 60 bd
       0.039230738 -0.13524346 0.08036369 -0.05468792
000290 1c 18 19 be 90 d9 a8 3d 06 0b c1 bd fd bd 2f be
       -0.14950603 0.08244622 -0.09425931 -0.17162319
0002a0 8f 82 09 3d 75 38 26 3d cf fd 79 bc 07 f0 61 3d
       0.033571776 0.040581185 -0.015258267 0.05516055
0002b0 3f cc 3d be 61 96 9b 3d 12 39 f4 3d 20 09 ed 3c
       -0.18534945 0.07597042 0.11924948 0.028935015
0002c0 4c 0b 10 be 4a 42 04 be 81 cf b5 bc 4a dc a2 bd
       -0.1406681 -0.12915912 -0.022193672 -0.07952173
0002d0 d4 f9 97 bc 82 56 f9 3c ed af f5 bd c2 ef 03 3e
       -0.018551745 0.030436758 -0.11996446 0.12884429
0002e0 2c d8 d4 3d 53 73 ed bd cf 87 de 3c de 21 61 bd
       0.10392794 -0.11594262 0.027164368 -0.05496394
0002f0 09 7f fb bc 57 d6 e1 3d 87 04 be 3d 1c 63 9f bd
       -0.030700224 0.1102721 0.09278207 -0.077825755
000300 e1 0b ab 3d aa 88 24 be 12 4d e8 bd 73 af 1a 3e
       0.08351875 -0.16067758 -0.11342825 0.15105991
000310 f5 94 0e be 5c 81 cc 3d ed 09 61 3d 14 3a a4 bc
       -0.1392401 0.09985611 0.054941107 -0.020047225
000320 ad 79 0b 3d 3f dd e2 bd 00 51 7e 3d 9a c8 5d 3c
       0.034051586 -0.110773556 0.062088966 0.013536597
000330 d0 85 b6 bd de 2f d5 bd bd 40 af 3d 66 46 76 3d
       -0.089122415 -0.104095206 0.0855727 0.06012573
000340 bb a4 19 3e 91 cb 61 3c 31 87 c0 3d fe be 3b 3d
       0.15004246 0.013781444 0.09400786 0.04583644
000350 08 1e 5a bc 90 a1 b3 3d 19 23 7e 3d 0d 6b 0b be
       -0.013312824 0.0877105 0.06204519 -0.13615055
000360 81 41 97 bc 3e 1b ae bb 2c 34 2f 3c 98 a1 8e 3d
       -0.018463852 -0.005313306 0.010693591 0.06964415
000370 86 1a bb bc 28 50 06 be 3d 36 8e ba 91 d0 98 bd
       -0.022839796 -0.13116515 -0.0010849905 -0.07461656
000380 be df 32 bd 53 b2 e4 bd 53 ed 4b 3d 00 a4 54 be
       -0.04367041 -0.11166825 0.049786877 -0.20765686
000390 25 4f 8c 3d fa dd af bd 6f 88 21 be c1 16 88 3d
       0.06851033 -0.085872605 -0.15774702 0.06644965
0003a0 34 1f 57 3d cd c6 ef 3d 75 38 1a be f2 59 62 bd
       0.052519992 0.1170784 -0.15060599 -0.05526156
0003b0 d9 b2 91 3d 54 c9 20 be 72 d6 07 be d6 d4 41 3d
       0.071141906 -0.157018 -0.13265398 0.047322117
0003c0 89 69 b3 3d c5 8a 87 bd c4 97 3c bd 67 60 87 bd
       0.087603636 -0.06618265 -0.046043172 -0.06610184
0003d0 30 5f b5 3c cb 7f 11 3d 73 6c 1f 3d c7 9a 78 3d
       0.022140115 0.035522263 0.038921785 0.060694482
0003e0 32 58 71 3d e8 b8 c4 bc ab 2b 0e 3e b4 b3 2d bd
       0.058922 -0.024013951 0.13883846 -0.042407706
0003f0 06 e6 dd bd 6e b1 8b 3c fe 74 1b 3d 5b 90 bc bd
       -0.10834889 0.017052379 0.03795337 -0.09207221

conv3.0.bias f4 [16]
000000 a4 fe 04 be af a0 12 be af 4c 81 be 8e dc 02 3e
       -0.12987763 -0.14319108 -0.25253817 0.12779447
000010 70 9a ba 3d 36 59 d0 bd 56 5c 55 ba 17 db 01 3e
       0.09111488 -0.10173266 -0.00081390643 0.12681232
000020 ac ca 44 3d 4d 1d 21 be cd 88 a5 bd 2f e5 25 be
       0.048044845 -0.15733834 -0.08082733 -0.16200708
000030 d2 46 38 3d 5b 61 09 be 83 4f 10 3d 0f e6 75 3c
       0.044989415 -0.13416044 0.03523208 0.0150084635

conv4.0.weight f4 [16, 16, 5]
000000 cb 7a ca bd a0 75 61 bd a0 04 06 bd 4b 69 3f 3c
       -0.09886702 -0.055043817 -0.032719254 0.011682819
000010 96 de 0d bd 40 89 ef 3a 26 dd 77 3c 7c ee be bd
       -0.034636103 0.0018275157 0.0151284095 -0.09322831
000020 f1 14 a5 3c 21 8f cd bd ac bc cc bd b0 80 64 3d
       0.020151587 -0.10037065 -0.09996924 0.05578679
000030 ee 15 f0 3c 03 a3 e0 ba f6 20 cf 3c 38 c0 e8 bd
       0.029307332 -0.0017138425 0.025284272 -0.11364788
000040 40 04 4c bc 4e 4a 01 bd 4a df c1 bb ed 33 b9 bd
       -0.012452185 -0.031565003 -0.0059165107 -0.09043107
000050 2f 53 75 bd 39 c5 c3 bc f6 02 9f bc 4b 1b 78 3c
       -0.059893783 -0.023897754 -0.019410592 0.015143226
000060 ee f8 91 bd 69 99 9f 3b 45 93 98 bd 72 6a 64 3c
       -0.07127558 0.004870583 -0.074499644 0.013941394
000070 6d e9 d1 bd 84 0e cd 3c 43 28 1a bd 06 42 99 bb
       -0.102496006 0.025031336 -0.037636053 -0.00467706
000080 84 ee 56 bb 64 5d 36 bd 16 62 d8 bc f0 eb 90 3d
       -0.0032795975 -0.044522658 -0.026413959 0.070762515
000090 db 8b 31 bd f5 49 e4 bc 2d 19 2a 3d 9e cf 70 bd
       -0.043346267 -0.027867297 0.041527916 -0.05879175
0000a0 4a aa 98 bd d0 08 9b bc da c6 36 bd ad f6 13 bd
       -0.07454355 -0.0189251 -0.044623233 -0.03612392
0000b0 03 9e af bb 51 fb c7 3c 23 ee c9 bb 5a c6 9a 3c
       -0.0053594126 0.02441183 -0.0061624213 0.01889341
0000c0 4f 51 08 3d b9 d1 f2 3c 6c 4f cb bd 2c bf b9 3b
       0.033280667 0.02964102 -0.09927258 0.0056685414
0000d0 d7 0b 81 bd ae e2 8c 3d 47 d7 b9 bd d7 91 c0 3c
       -0.063010864 0.06879173 -0.09074264 0.023507042
0000e0 2e 18 02 3d 13 91 cd 3c fc 6c 93 bd ed cd c3 3a
       0.03176134 0.02509359 -0.071985215 0.001493869
0000f0 98 a7 2d bc 2e d4 6d bc c5 b6 70 3d 81 f2 0c 3d
       -0.0105990395 -0.01451592 0.058768053 0.034410957
000100 6d 98 2d bd ea e9 ef bd cd 29 86 3d 08 e4 2e 3c
       -0.042381693 -0.117145374 0.065509416 0.010674484
000110 9e d4 8f 3d da ad 91 bd e1 e2 cb bd b9 a2 a7 bd
       0.070229754 -0.07113238 -0.09955383 -0.08185334
000120 85 4c fc bb 70 3d ad bc a3 bf ae bd 51 88 98 3b
       -0.0076995515 -0.02114746 -0.085326456 0.004654922
000130 08 ef c6 bd cd 45 cc 3c 33 2d 11 be 3d c3 43 bd
       -0.0971356 0.024935627 -0.14177398 -0.047793616
000140 62 5b 2f 3d e8 e3 b6 bd 59 00 d8 bc 37 59 ee bd
       0.04281176 -0.089301884 -0.026367353 -0.1163811
000150 49 7c 3c 3d cc ec f7 bc 4a 1c e2 bd 57 c8 a4 bd
       0.046016965 -0.03026428 -0.11040552 -0.08046024
000160 12 b0 00 3d e4 8c 17 3d 25 7b ca bd 9b 98 3c bd
       0.031417914 0.0369996 -0.09886769 -0.046043973
000170 63 86 36 bd 06 d7 6e 3c 3f 59 75 bd 49 b6 0e be
       -0.044561755 0.014577633 -0.059899565 -0.13936724
000180 40 df aa bc 00 f7 0c be 24 30 4d bd 0d 8e c0 bc
       -0.020858407 -0.13766098 -0.05009474 -0.023505235
000190 2c ac 21 bd fe 1d 2a be 39 6c 4a bd 7d 4b 80 3d
       -0.039470837 -0.16613004 -0.049419615 0.06264398
0001a0 a9 29 4c 3d 47 f9 d8 bd 1c b0 33 bd 43 25 fe bd
       0.049844418 -0.10594421 -0.043869123 -0.12409451
0001b0 8b 19 85 bd 51 b0 80 3d 6d 39 d6 3d 22 a3 bf bc
       -0.064990126 0.0628363 0.10460172 -0.023393217
0001c0 9d 1c 8b bd 1b 43 ab bd 44 8c b5 bd cd 9a 9e bc
       -0.06792567 -0.08362409 -0.08864644 -0.019360924
0001d0 e4 c0 2c bd 7c ec f4 bd b8 90 1f bc 3b 71 52 3c
       -0.042176142 -0.11959168 -0.0097390935 0.012844379
0001e0 b0 d6 b9 bd 4c eb 8c bc 7b f7 b3 bd 28 3f 89 bc
       -0.090741515 -0.017202042 -0.087874375 -0.016753748
0001f0 a6 f0 1e 3d a2 9f a0 bd 6a ed 30 3d 2f 55 a4 3c
       0.03880372 -0.078429475 0.043195166 0.02006015
000200 34 1c cf 3c e6 78 3e bd fc 5c 99 bc 3a 3b cf 3c
       0.025282003 -0.046502016 -0.018721096 0.025296796
000210 20 ba 41 3d c8 01 72 bd 02 0e d4 3d f9 f0 97 3d
       0.047296643 -0.05908373 0.10354234 0.07419009
000220 33 18 26 3d b6 ae 91 bd 6b 77 62 bd cf b3 9c 3d
       0.040550422 -0.071134016 -0.055289667 0.07651483
000230 2a 83 63 bd 0c 13 c7 bd fc 66 8b bd 53 d8 ba bd
       -0.05554501 -0.0972043 -0.06806752 -0.09123292
000240 d3 7e 30 3d 76 da 5b 3a 8a df 8c bd fe c0 7c 3c
       0.0430897 0.000838674 -0.06878574 0.015426872
000250 97 37 a9 bd 25 31 8f bb 26 33 78 3c d7 c3 66 3c
       -0.08262556 -0.004369872 0.0151489135 0.014084778
000260 71 67 56 be 68 37 17 be 57 3d 7b 3d 85 fa 5d 3d
       -0.20937897 -0.1476723 0.061337795 0.054193992
000270 b8 ac 58 bc c5 b5 e8 bc de ce 62 bc 82 4e a7 3c
       -0.013224773 -0.028406987 -0.013843266 0.020423178
000280 a4 07 cb bd 81 7c 9b 3c d5 92 8a bd c7 2d 25 3d
       -0.09913567 0.018980267 -0.06766287 0.04032686
000290 24 15 98 bc d2 3c 60 bd 8f 56 40 bd 81 62 83 3d
       -0.018564768 -0.054745503 -0.04695755 0.064152725
0002a0 12 17 8c bb 98 d1 ad 3d bf f6 b2 bd 47 c3 5e bd
       -0.004275211 0.084872425 -0.08738469 -0.05438545
0002b0 a3 5d 10 bc 63 a0 e6 bd 31 c6 81 3c 1e a2 02 bd
       -0.008811387 -0.1126106 0.015841575 -0.03189289
0002c0 65 a3 b5 bc 54 c4 85 3d 1d 6f 64 3b ef 5f a8 bd
       -0.02217264 0.06531587 0.0034856268 -0.08221423
0002d0 d5 d4 8a bd 01 e9 33 bc 47 4b d0 3c a0 c8 ca 3c
       -0.06778876 -0.010980845 0.02542652 0.024753869
0002e0 42 7a e0 3c 9a f2 09 3d 34 7a f8 bb ca f0 c3 bc
       0.027402047 0.03367863 -0.007582927 -0.023918528
0002f0 4e a2 9f 3d d4 8e 85 3d 08 dc c4 bd ee 7c 32 be
       0.07794629 0.06521383 -0.0961228 -0.1743047
000300 05 4e f7 bb e2 f4 ca bc 69 71 67 3d e5 db 64 3d
       -0.0075471424 -0.024774972 0.05650464 0.05587377
000310 5e 5d b5 bc c6 c8 00 be a9 13 a3 bc 21 ae 52 b9
       -0.022139248 -0.12576589 -0.019906836 -0.00020092029
000320 13 b0 95 bd 22 36 8d bd 9b 1b 47 3c 95 4f 9b bd
       -0.07308974 -0.06895091 0.012152578 -0.075835384
000330 f0 1a 11 3d da ca 0d 3d ba 7e a2 bd 81 c9 a3 3c
       0.03542608 0.034617282 -0.079343274 0.019993545
000340 60 f8 68 bd 09 83 34 3d a7 40 8b bd 3d 2e 06 bd
       -0.056877494 0.044070277 -0.06799441 -0.03275894
000350 1e 4e 1f bd e6 b8 8b bc fb 58 8d 3c 5c 27 99 bd
       -0.038892858 -0.01705594 0.017254343 -0.0747821
000360 81 a6 6c bd cc ed 30 bd 64 01 fc bc 29 65 30 3d
       -0.057775978 -0.04319553 -0.030762382 0.043065224
000370 c7 4d 46 3d 27 03 78 bd 73 6d 7c bd f7 f0 12 bc
       0.048414018 -0.06054988 -0.061627816 -0.008968583
000380 c4 4d 2c 3d 62 aa cb bc 24 02 41 bc e1 37 4f bc
       0.04206635 -0.024861518 -0.0117802955 -0.0126476
000390 cc 15 3f bc 00 55 00 3d 18 82 f2 bd 02 2a 4c bc
       -0.011662912 0.031331062 -0.1184122 -0.012461187
0003a0 6c 34 a7 bd eb a8 1f bd 42 46 b6 3c 79 c1 99 3d
       -0.081642956 -0.038979452 0.022250298 0.07507605
0003b0 f9 46 69 bb a8 53 99 bd 66 4c b9 bd 0b 63 0d 3d
       -0.0035595282 -0.07486659 -0.09047775 0.034518283
0003c0 aa e6 52 3d af d9 b7 3c 28 26 86 bc 8f f4 8b 3d
       0.05148951 0.022442667 -0.016375616 0.06833755
0003d0 7c d0 43 3d e0 54 34 3c 93 b5 50 3c b5 12 42 3d
       0.047806248 0.011006564 0.012738603 0.04738112
0003e0 99 03 7f 3b a4 45 b2 bb be 7a 3a bd c0 6c 36 39
       0.0038912056 -0.0054404307 -0.045527212 0.00017397385
0003f0 d2 7e a6 3d c9 44 9d 3c d8 d4 7b bd 4b 5f 16 be
       0.08129658 0.019197838 -0.06148228 -0.14684789

conv4.0.bias f4 [16]
000000 6c 7d 15 3d 0f 50 b6 3c f8 2e 6f bd e8 70 a1 bb
       0.036496565 0.022254972 -0.058394402 -0.0049267896
000010 7b 18 fa bc 78 c0 a7 3c c7 09 db bd 23 87 9f 3b
       -0.030529251 0.020477518 -0.10695224 0.0048684045
000020 d1 f6 b6 3b f9 d3 12 b9 52 a2 c4 3b 2c 91 ab 3c
       0.005583622 -0.00014002611 0.0060007954 0.020943247
000030 e9 6f bf bc fe 3c ee 3a c8 6e 98 bd ca ed bc ba
       -0.023368793 0.0018176136 -0.07443005 -0.0014414128

conv5.0.weight f4 [16, 16, 5]
000000 7c c7 64 3d 4f 70 df bd 50 da 8a 3c 70 51 6e bc
       0.055854306 -0.10910093 0.016949803 -0.014545783
000010 72 77 a3 bd c4 ba 09 3d c9 27 80 bd 20 64 fa bc
       -0.07981767 0.03362538 -0.062575884 -0.030565321
000020 40 81 8b bc 40 7a 24 bd fa 46 b8 bd f8 67 a2 bd
       -0.017029405 -0.04015565 -0.08997913 -0.07929987
000030 58 32 40 3d 17 7f 80 bd 7e e4 81 bd 40 da 25 bb
       0.04692301 -0.062742405 -0.063424096 -0.002530709
000040 54 dc ec bc 1c 66 e9 bc 6a 1e 88 bd ae 8f d3 3d
       -0.028913654 -0.028491072 -0.06646426 0.10330139
000050 10 46 ac 3d e0 ca 80 3d 92 54 aa 3d 44 3f 30 bd
       0.08411801 0.06288695 0.08316912 -0.043029085
000060 98 b8 a4 bd 00 5f 2e 3d 7b a5 90 bd 80 09 b5 3b
       -0.08043021 0.042571068 -0.07062813 0.005524814
000070 87 92 bc bd 20 84 91 3d 64 60 ad 3d d8 a6 ac bd
       -0.092076354 0.07105279 0.08465651 -0.084302604
000080 5e 83 80 3d 50 ff e7 3b 7c 8d 92 3d f0 83 16 3c
       0.06275056 0.007079996 0.07155892 0.00918673
000090 ab 7e cb bd 3e 92 cc bd 32 9e b4 bd 1e e2 87 bd
       -0.099362694 -0.09988831 -0.08819236 -0.06634925
0000a0 0b be af bd ee fd c2 bd 42 88 ce bd b4 0f 3d 3d
       -0.0858117 -0.095210895 -0.10084583 0.046157554
0000b0 d0 8c e2 bb 06 a6 2c bd bc 1b 67 3d f1 a7 65 bd
       -0.006913759 -0.04215052 0.056422934 -0.056068365
0000c0 b1 5a c1 bd c4 1b 2a 3d 3e 9c 81 bd 08 c9 c5 3d
       -0.09441126 0.041530386 -0.06328629 0.09657484
0000d0 88 d5 d2 bd 00 b1 06 3c d6 5d c7 3d a4 7f a4 bc
       -0.10294634 0.008220911 0.09734695 -0.020080395
0000e0 a2 a0 88 bd 68 c2 2b 3d 10 57 0b 3d 50 64 ac 3d
       -0.06671263 0.041933447 0.034018576 0.084175706
0000f0 00 4d 72 bb 78 a9 fb 3c a9 1e d9 bd 78 7f 7c bc
       -0.0036972165 0.030720457 -0.10601551 -0.01541125
000100 5e 95 55 bd 4c f6 b0 bc 44 e6 94 3d 14 9a 58 3d
       -0.0521444 -0.021601819 0.07270482 0.052881315
000110 24 c2 91 3d c6 10 d4 3d 38 fe fc 3c ee 4d 47 bd
       0.071171075 0.10354762 0.03088294 -0.048658304
000120 d8 d7 c5 3d 55 3a ab bd 8a 1a 20 bd cc e8 da 3d
       0.096603096 -0.08360735 -0.03908781 0.10688934
000130 e0 3f 15 bc ba 24 87 3d c0 db 6b 3d 70 98 f4 bc
       -0.009109467 0.06598802 0.057582617 -0.029857844
000140 96 8b be 3d 74 75 da 3d 38 40 c3 3c be f5 87 bd
       0.09303968 0.10666934 0.023834333 -0.066386685
000150 70 93 e5 3c 28 32 59 3d a4 a7 03 3d d2 0d aa 3d
       0.028024405 0.05302635 0.032142296 0.08303417
000160 26 7e ab 3d 76 99 d4 3d d6 f1 4a bd 1e 85 20 bd
       0.0837367 0.10380833 -0.04954704 -0.03918945
000170 52 5c 90 bd 50 0b a9 3c 6e 9c 0a bd 78 67 d7 bc
       -0.07048859 0.020635277 -0.03384059 -0.026294455
000180 a0 a6 cd bb 5e f0 82 3d 01 04 8d bd c4 32 f8 bc
       -0.0062759668 0.06393503 -0.06885529 -0.030297644
000190 4c 4c 3f 3d 00 a3 95 bb aa fa d5 3d e2 34 c4 bd
       0.04670362 -0.0045665503 0.10448201 -0.09580399
0001a0 82 1b be 3d d3 27 e2 bd 24 9c 8f bc 34 f8 23 3d
       0.092825904 -0.11042752 -0.017530508 0.040031627
0001b0 de 26 b0 3d 1d 0a bd bd 70 f2 98 bb 14 8f 83 3d
       0.08601163 -0.092304446 -0.0046675727 0.06423774
0001c0 50 75 35 3d c2 87 cb 3d 14 cb d7 bd bc 64 db 3d
       0.04430133 0.09938003 -0.10536781 0.10712573
0001d0 18 11 a4 bc 58 30 76 bc 38 e1 50 3c 12 d5 7d bd
       -0.020027682 -0.0150261745 0.012749009 -0.061970778
0001e0 98 18 c1 3d 9c f8 36 3d ca d8 21 bd db 55 88 bd
       0.09428519 0.044670686 -0.039513387 -0.06657001
0001f0 74 0b 99 3d c0 62 a3 3c 30 8d 08 bd 40 91 c5 bd
       0.07472888 0.019944549 -0.033337772 -0.09646845
000200 3c ac 28 3d 28 e2 6d 3d ba 20 c5 bd 68 b4 18 bd
       0.04117988 0.058077008 -0.09625383 -0.037281424
000210 f8 19 10 3d 90 18 af 3d 12 15 a6 bd 18 3a a0 3d
       0.035181016 0.08549607 -0.081094876 0.078235805
000220 93 df de bd 10 cb b1 3b 23 4b a7 bd 9c f7 59 3d
       -0.10882487 0.0054258183 -0.08168628 0.053214654
000230 d0 78 7f 3d a8 ab a0 3d e6 1e 96 3d 96 a6 8e bd
       0.062371075 0.07845241 0.07330112 -0.069653675
000240 e6 0a e3 bd bc 68 1f 3d 9f 6a b9 bd 60 c6 5b 3d
       -0.11086063 0.03891824 -0.090535395 0.053655982
000250 cc 67 af 3d 18 f3 ba bd 3c 30 96 3d b8 b9 93 3d
       0.085647196 -0.09128398 0.07333419 0.072131574
000260 c8 de d5 3d 10 e2 c4 3c 48 7e f4 3c 00 df 38 bc
       0.10442883 0.024033576 0.029845372 -0.011283636
000270 78 a7 99 bd 30 ce ca 3d 10 ed c2 bd 20 00 0a 3b
       -0.07502645 0.099026084 -0.09517872 0.0021057203
000280 60 b7 88 bb be f5 d9 bd 86 bd b7 3d 60 ba 32 bb
       -0.0041722506 -0.10642575 0.089716956 -0.0027271733
000290 ec 36 56 3d de 27 8e bd 42 49 1e bd 36 36 ad bd
       0.05229847 -0.06941198 -0.038644083 -0.084576055
0002a0 a0 d7 67 3c 46 f5 a2 bd 0f 86 ab bd 08 19 aa bd
       0.01415053 -0.079569384 -0.08375179 -0.083055556
0002b0 78 df d3 bd 30 c8 0b 3d 90 7b a3 3d 7e b5 a2 3d
       -0.10345358 0.03412646 0.07982552 0.07944773
0002c0 38 b6 23 3c 16 c4 54 bd 34 07 d8 bd ab 47 bc bd
       0.009992175 -0.051944815 -0.10548249 -0.09193357
0002d0 00 c8 c2 bb 9e 51 99 3d 60 d4 49 bb 40 9a fc 3a
       -0.005944252 0.0748627 -0.0030796751 0.0019272044
0002e0 b8 8a 99 3c 02 9c b1 3d 9b d3 a6 bd 76 3f 31 bd
       0.018742904 0.08672334 -0.08145829 -0.04327341
0002f0 f4 bf 26 3d 10 15 0b 3d 08 7e 94 bd e0 e7 b9 3d
       0.040710405 0.033955634 -0.07250601 0.0907743
000300 ac a5 45 3d 78 8b dd bd 5c 62 11 bd b8 97 99 3d
       0.0482537 -0.10817617 -0.035494193 0.07499641
000310 d8 d6 dd 3d c5 c7 9b bd 8d f3 a5 bd 52 e8 d2 bd
       0.10831994 -0.076064624 -0.08103094 -0.10298218
000320 f0 5a 0c 3d fc 6e 8e 3d a0 d1 3e 3b 36 0e cd 3d
       0.034266412 0.06954762 0.0029116645 0.10012476
000330 90 3a b7 bb 10 d7 d9 bc 64 f5 6b bd 5e bd 8e bd
       -0.005591698 -0.026591808 -0.05760707 -0.06969713
000340 42 3d 42 bd 18 d8 b4 3c e0 45 bd bd 60 10 c3 3d
       -0.0474217 0.022075698 -0.09241843 0.09524608
000350 01 cb b9 bd f8 60 b0 bc de 3b c2 3d 54 d2 a3 3d
       -0.09071923 -0.021530613 0.09484075 0.07999101
000360 c3 87 8c bd 68 7b 86 3c 10 00 8c 3b 56 20 e0 3d
       -0.06861832 0.016416267 0.0042724684 0.109436676
000370 10 0b b1 bb a8 c4 86 3c 84 61 b2 bc 7c 77 ab 3d
       -0.00540293 0.016451195 -0.021775015 0.08372399
000380 40 55 4e 3b 97 32 90 bd a4 fd 68 3d 78 37 81 3c
       0.0031483918 -0.07040899 0.056882516 0.01577352
000390 97 f7 6d bd 3e fa 54 bd c0 ef 86 bd a4 ed 7d 3d
       -0.05809745 -0.051996462 -0.065886974 0.06199421
0003a0 6a 36 ab bd d5 5c bf bd c8 bd 4b bc a3 17 c1 bd
       -0.08359988 -0.09343878 -0.012435384 -0.094283365
0003b0 76 83 52 bd f8 d5 ec bc 68 9e 55 3d e0 35 0a 3c
       -0.051394902 -0.028910622 0.05215302 0.008435696
0003c0 00 14 aa 3d bb 3f 4f bd 50 14 de bc 70 9c 98 3c
       0.08304596 -0.050597887 -0.027109295 0.018629283
0003d0 08 e9 bb 3d 7b b6 50 bd a0 05 9a bd 20 50 1c bc
       0.091753066 -0.050955277 -0.07520604 -0.009540588
0003e0 80 88 48 3a cc 87 ed bc b2 62 83 3d 52 0a b7 bd
       0.00076497346 -0.028995417 0.06415309 -0.08937515
0003f0 20 fe d9 3d f8 49 a9 bd c8 e1 3f 3d 58 ee b0 3c
       0.106441736 -0.082660615 0.04684618 0.021598026

conv5.0.bias f4 [16]
000000 94 ab 69 3d 70 e0 76 3d 40 16 9a 3c fc ab 63 3d
       0.057048395 0.060272634 0.018809438 0.05558394
000010 c8 57 cd bc aa 8d e1 3d 60 07 0f 3b 14 76 2a bd
       -0.025066271 0.110133484 0.0021824464 -0.041616514
000020 18 e2 26 bc f0 15 9b 3c 26 96 b5 3d 40 28 56 bd
       -0.010185741 0.018931359 0.08866529 -0.05228448
000030 fc a4 7c 3d fc 2d 0f 3d 5a 5f c3 3d 10 1b 6e 3d
       0.06168078 0.034955963 0.09539671 0.058131278

conv6.0.weight f4 [8, 16, 5]
000000 1c cf b7 bd c0 74 8c ba 19 5d 91 bd 38 7a 48 3d
       -0.0897505 -0.0010715947 -0.07097835 0.048944682
000010 68 d2 c5 3c 80 47 c8 3d 38 8f c2 bc 00 45 04 3a
       0.024148181 0.097792625 -0.023749933 0.0005045682
000020 60 6f c7 bb 6c be b0 3d 22 e7 c3 3d aa aa e0 bd
       -0.006086275 0.0863007 0.095655695 -0.109700516
000030 dd 11 bc bd d5 1e 58 bd 16 19 8d 3d 94 ed 8a bd
       -0.09183095 -0.05276378 0.068895504 -0.06783596
000040 a0 bc 32 3b 6a 0b 0e bd d8 f1 1a 3c 14 b7 a2 3d
       0.0027273074 -0.034678854 0.009457074 0.07945076
000050 f6 5d b5 3d 20 1b 02 bd f0 b8 cd 3d 95 db 75 bd
       0.08855812 -0.03176415 0.1004504 -0.060023863
000060 f4 92 e2 bc 08 f5 15 3d aa d8 b8 bd 9c 4e 06 3d
       -0.027657963 0.036610633 -0.090257004 0.03278981
000070 6c ea 41 3d c0 76 34 3d dc 16 e3 3d 70 f7 28 3c
       0.047342703 0.04405856 0.110883445 0.0103129
000080 f8 15 4b 3c 0e 35 d0 bd a0 1f 55 bb 2a e7 18 bd
       0.0123953745 -0.101663694 -0.003252007 -0.03732983
000090 da 01 be bd 98 5c bc bd 98 25 a8 bc 3d 68 cf bd
       -0.09277697 -0.09197348 -0.020525739 -0.10127304
0000a0 76 af 1f bd 04 05 a3 bc 00 9f 59 3a c2 b9 86 bd
       -0.038985692 -0.019899853 0.0008301586 -0.06578399
0000b0 7e bd c6 bd ff d1 c8 bd 44 2c 25 3d f8 72 a6 3d
       -0.097041115 -0.098056786 0.040325418 0.08127397
0000c0 0e 88 bb 3d 90 d1 0c 3d 70 d0 75 3c 82 26 99 3d
       0.0915681 0.034379542 0.015003309 0.07478048
0000d0 d0 31 8a 3b aa b8 e2 3d 56 80 81 3d c8 18 31 3c
       0.004217364 0.11070378 0.06323306 0.010809131
0000e0 38 bc 2c 3d 5c cd de 3d 08 97 9f bd 78 4b a3 3d
       0.042171687 0.10879013 -0.07792479 0.07973379
0000f0 1e 2d 85 3d e0 de c1 3c c0 34 f7 bc 56 79 6e bd
       0.06502746 0.023665845 -0.03017652 -0.058221184
000100 88 da d6 3d 0c 45 ac bd ce 59 bb 3d 90 2c 6c 3d
       0.104909 -0.08411607 0.09147988 0.057659686
000110 c8 7f 7d 3d 84 d9 1a bd 1c f5 c7 bc 6a 2c 98 bd
       0.06188944 -0.037805095 -0.02440887 -0.07430346
000120 b8 18 f4 3c 60 2c 9f 3c ba de b8 3d f0 ec 7b 3c
       0.029796943 0.01943034 0.09026857 0.0153763145
000130 b4 69 9b 3d 82 98 84 3d 94 de 4e 3d 6c 70 6c 3d
       0.07588521 0.06474401 0.050505236 0.0577244
000140 b0 de a1 bd 28 bf f3 bc 1c 32 09 3d 5c fd 10 bd
       -0.079038024 -0.029754236 0.033495054 -0.035397872
000150 70 6b 8c 3c 84 e2 02 bd 50 cc 81 3d e0 5a 94 3c
       0.017141074 -0.031954303 0.06337798 0.018109739
000160 5a 12 ba 3d e6 eb 17 bd cc 3d d3 bc 20 6e 78 3d
       0.090855315 -0.037090205 -0.025786303 0.0606519
000170 29 63 4a bd 58 c6 cd bd 5a 87 03 bd 18 b7 a3 bc
       -0.049410973 -0.10047597 -0.032111503 -0.019984767
000180 8e 37 e3 3d 10 7d d8 3c 2d e3 dd bd e4 af db bd
       0.110945806 0.026426822 -0.10834346 -0.10726908
000190 be 79 c7 3d 50 62 99 3d 24 29 3e 3d a2 a8 dc 3d
       0.09740017 0.07489455 0.046425954 0.10774352
0001a0 88 71 d5 3d 58 2c 04 bc f8 61 78 3d 88 eb fc 3c
       0.10422045 -0.008067213 0.060640305 0.030874029
0001b0 8c 8a fd bc 20 66 a0 3c 6c 74 8e bc c0 3e e5 bc
       -0.030949853 0.019579947 -0.017389499 -0.027984023
0001c0 71 2f c3 bd 52 f7 a8 3d 50 83 a0 bb 54 01 c2 bc
       -0.09530533 0.082502976 -0.004898466 -0.023682274
0001d0 4c b3 e1 bd b0 23 db 3c 52 21 19 bd 58 92 93 3c
       -0.11020526 0.026750416 -0.037385292 0.018014118
0001e0 94 ea 36 bd 8a fa 9e bd 6a 9b ae 3d a3 f3 5f bd
       -0.044657305 -0.0776263 0.08525737 -0.05467571
0001f0 ce eb e1 3d 8a 0c 0c bd 24 cd dc bc 2e 4b 0e bd
       0.11031304 -0.034191646 -0.026953287 -0.034739666
000200 34 8c 30 3d e6 7d a4 3d 50 20 c0 3c 8e c2 c7 bd
       0.043102458 0.08031826 0.023452908 -0.09753905
000210 2c e8 10 3d 98 47 28 3c 08 3b b9 3c 98 80 14 3d
       0.035377666 0.0102709755 0.022611156 0.03625545
000220 48 62 36 3d 10 21 f4 bc 98 b2 a9 bd 74 7d 7a bd
       0.044527322 -0.029800922 -0.08286017 -0.061154798
000230 54 b1 1b 3d 34 53 dd bd 54 da 1f 3d 36 e5 d3 3d
       0.03801091 -0.10806885 0.039026573 0.10346453
000240 0a ec 32 bd 48 02 02 bd e4 30 50 3d 40 98 14 3b
       -0.043682136 -0.031740457 0.050827876 0.0022673756
000250 2f 5d 63 bd d0 0d 9c bb 6c 6b 35 3d 63 ab c2 bd
       -0.05550879 -0.0047623888 0.0442919 -0.09505346
000260 03 2e ab bd a9 21 b0 bd a8 d2 cc 3c 84 35 d7 3d
       -0.083583854 -0.0860017 0.025002792 0.10508254
000270 9e fa e0 bd 20 e1 0f 3d e8 db 86 3c d0 da d7 3d
       -0.109853014 0.035126805 0.016462281 0.10539782
000280 64 1d 41 3d dc 9e a3 3d 4c 4b 3f bd fc 47 89 bd
       0.04714717 0.079892844 -0.046702668 -0.06703183
000290 a6 2f 89 3d 4b dc 54 bd a8 14 77 3d d0 48 a9 bc
       0.06698541 -0.0519679 0.060322434 -0.020664603
0002a0 ac 07 19 3d f8 15 a5 bc 20 34 4b bb f2 cf 93 bd
       0.037360832 -0.020152077 -0.003100641 -0.07217397
0002b0 78 84 df 3d 96 29 9d bd ce 3e 26 bd 8e 28 81 bd
       0.10913938 -0.076739475 -0.04058724 -0.06306563
0002c0 aa 2d 9c bd 68 4a 8a 3d 48 3b 9f bd 16 5d ae 3d
       -0.07625897 0.06752473 -0.07774979 0.085138485
0002d0 42 74 aa 3d de 5d 44 bd 10 93 da 3c 62 c7 cf 3d
       0.08322956 -0.04794108 0.026681453 0.10145451
0002e0 b6 df 05 bd 48 0c 6f 3d e8 55 d5 bd 8c e6 ac bc
       -0.03268405 0.05836132 -0.10416776 -0.021106027
0002f0 56 98 bf 3d 96 82 b1 3d fc 14 2d bd f6 b3 d0 3d
       0.09355228 0.086674854 -0.04225634 0.10190575
000300 eb 93 b8 bd 30 ac 32 3d aa 66 5e bd 98 a0 c1 bc
       -0.09012588 0.043621242 -0.054297127 -0.023636147
000310 2b 3d e4 bd d0 da 1e bc 72 63 b4 3d a0 b6 85 3d
       -0.11144479 -0.009695724 0.0880803 0.065289736
000320 fc b4 c1 3d ce 82 df bd b2 62 94 3d dc 39 66 3d
       0.09458348 -0.10913621 0.07245387 0.056207523
000330 66 3c 94 3d e4 bd 26 3d b8 bc 71 bd b3 89 6d bd
       0.072380826 0.040708438 -0.059017867 -0.05799265
000340 c8 0f f2 bc 86 f8 c4 3d 4c 7b 99 3d 80 b8 be 3a
       -0.02954854 0.096177146 0.0749422 0.0014550835
000350 0b 1d b5 bd f0 a8 2a 3d 88 de 02 bd e0 97 1e 3b
       -0.0884343 0.041665018 -0.031950504 0.0024199411
000360 08 ed 24 bc 18 d8 09 3d ba c9 0d bd 12 b1 9c 3d
       -0.010066278 0.03365335 -0.03461621 0.07650961
000370 ce 36 34 bd 24 78 28 3d a4 36 0e 3d de 7c 6c bd
       -0.04399758 0.0411302 0.034720078 -0.05773627
000380 76 5e d3 bd e0 98 09 bd a6 bd 46 bd d9 ab 6f bd
       -0.10320751 -0.03359306 -0.048520707 -0.058513496
000390 88 88 ba 3c a4 db 7a 3d 3c 79 23 3d 18 f4 43 3d
       0.022770181 0.061244622 0.03991054 0.047840208
0003a0 bc 4c 1d 3d 0a 62 c5 3d bc 39 9d 3d 20 45 46 3c
       0.038403258 0.0963784 0.076770276 0.012101442
0003b0 48 27 15 3d 00 e3 3f 3c 02 de 89 bd a8 68 68 3d
       0.036414415 0.011711836 -0.06731798 0.056740433
0003c0 98 78 1f bd fa 20 a2 bd 78 a6 d5 3c e2 60 bc 3d
       -0.038933367 -0.07916446 0.026080355 0.091981664
0003d0 7f 1b d5 bd fc 7f 52 3d bc da 49 bd cf ec 62 bd
       -0.10405635 0.051391587 -0.049280867 -0.05540162
0003e0 10 5d 03 3c 0c 37 cc bd be 0b 4f bd 1e 5b 47 bd
       0.008017793 -0.09971437 -0.050548308 -0.04867088
0003f0 e0 68 87 bd bc dc b9 3d 32 e9 ac bd 90 fc 02 bc
       -0.066118 0.09075305 -0.08442916 -0.007994786

conv6.0.bias f4 [8]
000000 a8 74 4d 3d bc d0 3e bd f2 30 85 bd 10 1b 60 3c
       0.05016008 -0.046585783 -0.06503476 0.013678327
000010 c0 a5 aa bd e0 f3 db bc 50 b9 af bd 69 e7 68 bd
       -0.083323956 -0.026849687 -0.085802674 -0.056861315

fc.weight f4 [3, 896]
000000 fb 11 b4 ba 2a 5a ab 3c 97 e0 17 bd aa 1c 1d 3b
       -0.0013738269 0.020917017 -0.03707942 0.0023973384
000010 d8 7b 84 bc 1d 9b 4a 3c be b1 6f 3c ed 91 09 bd
       -0.016172335 0.012366083 0.014629779 -0.03358643
000020 09 ba ad 3c 10 f2 c6 bd 7f df fe 3c 40 ec b7 bd
       0.021206873 -0.097141385 0.03111243 -0.08980608
000030 91 c7 19 3d 30 b1 7d bd f4 7d 88 3c 4a 0c 3c 3c
       0.037543837 -0.061936557 0.016661622 0.011477539
000040 15 fa 52 bd 78 68 40 bc b2 02 53 bc c5 95 6e 3c
       -0.051508028 -0.011743657 -0.012879061 0.014562075
000050 63 8d 6b bd 89 97 b5 bc 58 d8 44 bb 78 aa d9 b7
       -0.057507884 -0.022166984 -0.0030036177 -2.5947797e-05
000060 7b 41 a5 bb 86 a9 0e 3d ca d8 51 3d 54 ff 2c 3d
       -0.0050432063 0.03482964 0.051232137 0.042235687
000070 b3 68 f6 ba bc fe f3 3c 43 f9 4b 3c 55 28 8b 3c
       -0.0018799513 0.029784553 0.012449565 0.016987005
000080 4e a1 41 bc 52 84 83 3c c1 a3 20 bc 5b 08 80 3c
       -0.011818243 0.016054306 -0.009804667 0.015628984
000090 57 b4 09 3d 38 dc d2 3c aa dc 88 3a 62 80 5d 3c
       0.03361925 0.025739774 0.001044174 0.013519378
0000a0 85 47 29 3d 4f 85 84 3c 75 22 5b 3d 37 04 0a 3c
       0.041327972 0.016176848 0.053499658 0.008423856
0000b0 62 7a 48 3c 30 1a 1a 3d b2 41 b3 3c 5b 68 a9 bc
       0.01223621 0.03762263 0.021881912 -0.020679643
0000c0 bd ef 9f bc af 28 ae 3c 56 c4 86 bb 0e bb 45 3d
       -0.019523496 0.021259634 -0.0041127605 0.048274092
0000d0 02 6f 86 3c 6a 58 49 3d 61 e2 46 3d 97 99 2a 3d
       0.016410355 0.049156584 0.048555735 0.04165038
0000e0 ac 57 0f bd 00 15 12 bc c3 d0 5e 3c 2e 57 15 3b
       -0.03499572 -0.00891614 0.013599577 0.002278756
0000f0 87 1f d9 bc 32 c2 34 3b 51 3f ba 3c da 19 01 bd
       -0.026504291 0.002758157 0.02273527 -0.031518795
000100 87 db 4f ba 62 32 ed bc d0 be eb bc b5 ad bb 3c
       -0.00079291355 -0.028954688 -0.02877751 0.022909978
000110 d8 de 1c 3d 64 2c ba bc 37 01 9c 3b 6c 94 82 bc
       0.038298458 -0.022726245 0.004760887 -0.015939914
000120 7f aa 07 bc 26 c8 4f bd f5 f4 3d bd 9a 23 b2 bd
       -0.0082803955 -0.050727986 -0.046376187 -0.08698197
000130 04 95 d2 bd 4a 52 c5 bc 81 2e 02 3c e6 ad 77 bc
       -0.10282329 -0.02408709 0.007945658 -0.015117144
000140 03 65 b8 bc 0f fe b1 3c 2f 75 82 3c 7c 00 cb 3c
       -0.022509104 0.02172759 0.015925018 0.024780504
000150 e3 67 5f 3d d5 1b 07 3c ba fd 50 3d 04 1b ca 3b
       0.054542433 0.008246382 0.051023223 0.0061677713
000160 69 42 f4 3c 7a 33 60 bc ca 8c 15 3d b0 13 51 3a
       0.029816823 -0.013684148 0.03651122 0.0007975651
000170 2d d6 cf 3c 69 f3 ab 3c 38 60 61 b9 75 1d 7c 3d
       0.025370682 0.02099009 -0.00021493516 0.06155153
000180 7e 71 0b 3d 6f bd 83 3d 64 a0 69 3d 2c 46 48 3d
       0.03404378 0.06432616 0.057037726 0.048895046
000190 99 c1 02 3d c2 b7 97 bc d2 8d be bc b8 e4 26 bd
       0.03192291 -0.01852024 -0.023260985 -0.040745467
0001a0 47 9c 71 3c d7 71 2b bd 0c d0 c2 bc c4 11 0e 3d
       0.014746732 -0.041856613 -0.023780845 0.03468491
0001b0 4e 6b 85 3d 02 9c ed 3c eb 47 27 3d 3f 41 77 3d
       0.06514607 0.029005054 0.04084007 0.060364958
0001c0 db 38 32 bd f3 9c b2 3c a2 7e a6 3c e1 7f fd bc
       -0.043511253 0.021803355 0.020324055 -0.030944766
0001d0 a6 9c 61 3c 55 4e a7 bc af ae de ba 6b 31 e2 3c
       0.013770258 -0.020423094 -0.0016989316 0.027611455
0001e0 9d 88 1f bc f7 ff 00 bc d0 2d c5 3c 11 68 80 3c
       -0.009737161 -0.007873527 0.024069697 0.015674623
0001f0 01 45 03 3c cd c6 a1 bd 04 94 c1 3c f7 a7 27 bc
       0.008012057 -0.07899246 0.02363015 -0.010232917
000200 e4 17 f7 bc 29 c8 61 bd 11 ee 4f bd 23 40 7a bd
       -0.03016276 -0.05512253 -0.050764147 -0.06109632
000210 8a c3 88 bd 73 99 8f bd 84 38 9a bc dd 29 e3 bc
       -0.06677921 -0.0701169 -0.018825777 -0.027729923
000220 54 f9 21 bc 41 e6 58 bd 7f 35 85 3b 13 7c d3 bc
       -0.009886105 -0.052953962 0.004065215 -0.025816
000230 75 f9 ea bc 2d 7d 37 3b d3 59 12 bd 28 40 8b bc
       -0.028683404 0.0027998195 -0.035730194 -0.016998366
000240 28 45 0e bc 9e 81 cd bc b8 11 ee bc 66 96 a3 bb
       -0.00868348 -0.02508622 -0.029061183 -0.004992294
000250 ef e8 26 bd 10 38 ce 3b 9d b5 8d bc 15 67 54 bc
       -0.040749487 0.0062933043 -0.017298514 -0.01296403
000260 69 ed f1 3a c4 9b 32 bd 33 84 5f 3b 7f 6d ca b9
       0.0018457595 -0.04360558 0.0034105896 -0.00038610023
000270 5a 8b 55 bb 9d 77 52 bd 4d 53 1d bd b1 e4 49 bd
       -0.003258428 -0.051383603 -0.03840952 -0.049290363
000280 36 6b ab bc c9 16 a9 bc b4 0f 9c bd bd 64 81 bd
       -0.020925146 -0.020640748 -0.07620183 -0.063180424
000290 35 d0 e8 ba 14 90 23 bb 4b 1e 0b bd ba 43 3f bc
       -0.0017762246 -0.0024957703 -0.033964437 -0.011673862
0002a0 61 52 2d bc 2b fb 2e 3d ad 14 70 bb 72 e2 d1 3a
       -0.010578723 0.04272 -0.0036633417 0.001601292
0002b0 75 6c 6b 3b a7 c7 bd bc 6a 9c e1 bb 40 7e 47 3b
       0.00359228 -0.02316649 -0.006885101 0.003044024
0002c0 fe fa 50 3c 06 1b 50 bb c5 00 bd bc 60 5a fe 3c
       0.012755154 -0.0031754388 -0.023071656 0.031048954
0002d0 c3 38 4d 3d 39 a8 17 3c 88 99 9c 3c 2f 17 b3 3c
       0.05010296 0.009256416 0.019116178 0.02186164
0002e0 48 a9 99 3c e5 f3 6f 3c e3 93 90 bc 33 13 5a bd
       0.018757477 0.014645551 -0.017648643 -0.053240966
0002f0 18 02 ef bb 58 c4 79 3c 5d fe 1e bd 8d c9 87 bc
       -0.0072939508 0.015244566 -0.0388168 -0.0165756
000300 29 a0 d1 bc f9 f6 15 bc 46 78 b9 bc 0e 7f 50 3c
       -0.025589066 -0.009153121 -0.022640359 0.012725605
000310 6a 9e 86 bb e0 eb d9 3c 12 a4 b8 3d 11 8d 0d bd
       -0.00410824 0.026601732 0.09015669 -0.03455836
000320 48 e6 25 bd 4b bb 02 3d 2a 7f ad bc a9 1c 08 bd
       -0.040502816 0.031916898 -0.0211788 -0.033230457
000330 fd ae 12 3d ca a9 1e bc c6 7b e0 bb c2 6f 8f bd
       0.035811413 -0.009684036 -0.0068506924 -0.07003738
000340 88 63 eb bc 8d 57 88 bd ba 1b fa 3b b7 ab 8c 3c
       -0.028733984 -0.06657324 0.0076327 0.017171724
000350 73 f8 6a 3d 4a aa 76 3d b9 da af 3c 53 1f 34 3d
       0.057365846 0.060220994 0.0214666 0.043975186
000360 ae 00 aa bc 71 9d ea bd 42 99 36 bd 98 27 65 3c
       -0.020752277 -0.11455811 -0.04457975 0.013986491
000370 16 90 1d 3d f9 c5 e7 3b 76 c9 a5 ba 24 01 50 bc
       0.03846749 0.0070731607 -0.0012648541 -0.012695584
000380 4f 80 17 bd 47 3a 70 bc 09 78 39 3d 74 03 5e b9
       -0.0369876 -0.014662332 0.04528049 -0.00021172856
000390 0c 1c 0b 3d 53 a2 96 bb 60 91 22 bc 06 20 bb bc
       0.033962294 -0.0045969873 -0.009922355 -0.022842418
0003a0 f1 c4 91 3b a1 93 58 bb 89 ad 7d 3c f6 ac 87 bc
       0.004448526 -0.0033046978 0.015483269 -0.016561966
0003b0 3d 06 43 bc 33 29 7b bb cd 88 e7 3c 9f 93 a5 bc
       -0.011903343 -0.0038324117 0.028263474 -0.020211993
0003c0 89 8c 8b bd 32 38 9d bc a4 d0 11 bd 44 fb d9 bb
       -0.06813914 -0.019191835 -0.035599366 -0.0066522676
0003d0 58 1c 08 bd b0 ef 23 bd af df d6 bc 25 b4 9a bc
       -0.033230156 -0.040023506 -0.026229708 -0.018884728
0003e0 84 b8 d4 bc 9a 49 23 bd f5 87 1a 3b e0 ac e4 bc
       -0.02596689 -0.039865114 0.0023579572 -0.027914464
0003f0 eb 34 08 bd 2e 13 1e bd d2 f3 2b bb 1a 94 47 3c
       -0.03325359 -0.03859251 -0.0026237858 0.012181306

fc.bias f4 [3]
000000 b1 d8 0c 3d 42 ca fc bc b0 45 5d bd
       0.03438634 -0.030858163 -0.054021537
