routes/model9.pkl (torch_old, 22511 bytes, 14 tensors)

conv1.0.weight f4 [4, 1, 5]
00000000: 56d0 113e 2dee 763e 346e f73d 8785 4f3e
00000010: f0e8 38be 3520 923d e6ca 113e 47a5 ebbb
00000020: c71b 4c3e 2934 9e3e 6f26 dcbd 99b2 373e
00000030: 32d4 133e c231 94bc d8e7 7ebd c23c 6c3e
00000040: bc0b 3dbe db5f cfbc 2e32 823b 0151 24be
0.1423963 0.24114294 0.120815665 0.2026578 -0.18057609 0.07135049 0.14237556 -0.0071913335
0.19932471 0.3089917 -0.10749518 0.17939223 0.14436415 -0.018090133 -0.062232822 0.23070052
-0.18461508 -0.025314262 0.003973267 -0.16046526

conv1.0.bias f4 [4]
00000000: dff2 fcbe eef5 d4be 0f49 ef3d a5e8 6fbc
-0.49404046 -0.4159388 0.11683857 -0.014642869

conv2.0.weight f4 [8, 4, 5]
00000000: 4b5e b7bd f43a 413e 11e8 ddbd 6f4d 34be
00000010: b5fb 143d 427d 26bd e704 31be fb40 6dbe
00000020: cbd3 173e 309d bebc 1897 27be c163 20be
00000030: 847a 2abd 84eb cdbd ad8f b23d ebf0 a03d
00000040: 59b6 163d 5468 173c 3044 3f3c b464 8abd
00000050: 2e5d 9b3d 0ced fcbb 266f 5cbe b507 66be
00000060: 2915 a5bd 2dde 173e e930 103d 2008 1ebe
00000070: 96bd 093e d027 cc3d b7e5 25bc 519b b9bd
00000080: 3afd 17bb 3937 f1bd ed84 ffbd a63e efbd
00000090: 1570 60be 4512 003d 104b 953c 1898 8e3d
000000a0: 2543 a23c 290d 8c3d 1e1b 093d 1407 3f3e
000000b0: 54df 00bd 4e4f 88be 69fd 9abc 3441 18be
000000c0: f048 8dbe 64d8 773d 047f 283e 6e20 a43d
000000d0: 97ea e63a 6399 b3bd 979c 74be 33b4 cf3d
000000e0: ab54 aabc 930f 67be f98e afbc 2e93 28be
000000f0: fe23 a13d 8330 18bc 943c 0bbe 8b2d 0fbe
00000100: ddab 13bc 8ce3 013e 543d 06be 128a 98be
00000110: 276a 85bc ec68 ac3d f2bd 7bbd 2fe1 8dbd
00000120: 20a0 21be e5c4 2a3d f401 cabd d730 51bd
00000130: b20c 06be 3139 d8bc 9cb1 cb3d 675c 88bd
00000140: 7578 d1bd 7b40 cf3c 6a31 3abe fb77 253d
00000150: bbda 6ebd e4d2 6bbe fa60 d53d 38fb 76be
00000160: deaf 1abe 29f0 b9bd d863 3ebe aaa5 d03b
00000170: 80a8 653d 2a48 85bd 4799 643d f98b 05bd
00000180: 0a76 68be 214a c53d 8813 70be ea76 82be
00000190: ff7d 6cbe ec68 8f3d 82d9 51be df4e 043d
000001a0: 32cd 243c d92a 903d d909 7cbc a37b 20be
000001b0: 5fcb 91bc c475 2fbd 498c e0bd c611 67be
000001c0: 572a 083e b940 403d 1ade 6abe 349a b0bc
000001d0: c8da ca3d 5142 ccbd fc36 373d 184f 13be
000001e0: 9122 823d e98c c53d c85f 28be 2b61 d03c
000001f0: 2de7 1dbe 6d73 a4bd 6702 1bbd 42e3 4d3e
00000200: 76c0 76be bc2b 1d3d 1b68 97bd fe84 c43c
00000210: 961e 023e b103 c53d 8549 023e 09a8 d9bc
00000220: 2422 1abe 8d3d d3bd 0b72 d2bd 66fc 2cbe
00000230: 1efc d03d dc5c 81bd 2041 ef3d 2476 bdbd
00000240: e7c1 163c 6513 24bd 9b6a d0bd 122e eb3c
00000250: 46e4 9f3c ae9d bf3d c0fd f13d e072 8cbd
00000260: 4dfc 39bd 36c8 af3d 2727 9e3d 7943 c8bc
00000270: 12f6 c33d b692 1abd 7de6 213e 0d60 3fbd
-0.08953532 0.18870145 -0.10835279 -0.17607664 0.03637286 -0.0406468 -0.17287026 -0.2316932
0.14826886 -0.023268312 -0.16366231 -0.15663053 -0.041620746 -0.10054687 0.0871881 0.078584515
0.036794994 0.009241182 0.011673972 -0.06757489 0.07586132 -0.007718688 -0.21526775 -0.22463877
-0.080606766 0.14830847 0.035202894 -0.15432787 0.13451228 0.09968531 -0.010125569 -0.090628274
-0.0023191706 -0.11778111 -0.124765255 -0.11681871 -0.21917756 0.031267423 0.01822427 0.06962603
0.019807408 0.068384476 0.033473127 0.18655044 -0.031462982 -0.26623005 -0.018919664 -0.14868623
-0.2759471 0.0605091 0.16454703 0.08013998 0.0017617521 -0.087694906 -0.2388786 0.10141792
-0.020792326 -0.22564535 -0.02143048 -0.16462395 0.07868193 -0.00928891 -0.13597327 -0.13982217
-0.009013143 0.12684458 -0.13109332 -0.2979284 -0.016285969 0.0841845 -0.061460443 -0.06927716
-0.15783739 0.04169168 -0.09863654 -0.051071968 -0.1309078 -0.026394458 0.09945986 -0.06658249
-0.102280535 0.025299301 -0.18182912 0.040397625 -0.058314066 -0.23029667 0.104188874 -0.2411927
-0.1510615 -0.0907901 -0.18592775 0.006367405 0.056068897 -0.06507905 0.05581024 -0.03260419
-0.22701278 0.096332796 -0.2344495 -0.2548135 -0.23094939 0.07002434 -0.20493129 0.03230178
0.010058688 0.070394225 -0.015383207 -0.15672164 -0.01779717 -0.04283692 -0.10964257 -0.22565374
0.13297401 0.046936724 -0.22936288 -0.021557905 0.099050105 -0.09973586 0.04473017 -0.1438564
0.06354249 0.09646017 -0.16442788 0.025436958 -0.15420218 -0.08029828 -0.037844088 0.20106223
-0.24096856 0.038371786 -0.073929034 0.023989197 0.1270698 0.09619845 0.12723358 -0.026569383
-0.15052086 -0.10314474 -0.10275658 -0.16893157 0.102043375 -0.0631654 0.116823435 -0.09251049
0.009201503 -0.04005756 -0.101765834 0.028708491 0.019518029 0.09356247 0.11815977 -0.06857848
-0.04540663 0.08583109 0.077223115 -0.024446236 0.095684186 -0.03773757 0.1581058 -0.04672246

conv2.0.bias f4 [8]
00000000: 1d8d 3d3e 057e e7be ff97 843d b132 a33c
00000010: 0500 a4bd ebd9 2abe e758 1b3e daad f3bb
0.18510862 -0.45213333 0.064743035 0.019921632 -0.08007816 -0.16684692 0.15170632 -0.007436496

conv3.0.weight f4 [16, 8, 5]
00000000: 81f8 153d 6b45 b1bd ccce 8b3d b93e d43d
00000010: d820 06bd d499 f53d 6791 7f3d 5f17 07bd
00000020: d07b 5bbd e508 1dbd cae2 8cbd fa50 e93d
00000030: 5844 bd3d 0d47 7f3c 31f7 82bc 94ca 9f3d
00000040: fff6 24be dc7d 2f3e 6313 ce3b bda5 28be
00000050: 0c1e a43d 749b 8e3d f2d4 9fbc 1d71 a53d
00000060: 2423 83bd d0e3 00bd 0aa0 fcbb c4e9 e03c
00000070: 91af 4d3d 3f84 113e 19ac 253e 5686 f43c
00000080: f67f babd 862a eabd e067 6a3d 8e80 803d
00000090: 593f c63c e5e5 083d 9d93 98bd 8d56 2d3c
000000a0: 3adb 9abc 4ed0 a93d 0085 e8bd a1ea 853d
000000b0: 9d9c c23d ee83 1c3e 6502 083c 2f3e b0bc
000000c0: 0c06 edbd 28dd 52bd 41c6 c3bd 66f3 bf3d
000000d0: 7be5 05ba 3ee2 373d be91 8cbd 2929 a13d
000000e0: fb84 6b3c e499 203d 9ce2 2dbe e962 4ebd
000000f0: 626c 98bd cd46 79bc 5b19 d8bc 5a7d 7b3d
00000100: 418d b53d 629b a43d 5d8e 143d b8e8 6e3d
00000110: e386 83bb 8d74 35bd b489 aebd 3fcf cfbc
00000120: 1be5 a33d 3e72 c0bd ba28 22be 1b7b 12be
00000130: 8875 bbbd bc1d 563d ab64 11be 58c2 8f3d
00000140: e9aa 8bbd b845 483e f534 233e 07e3 03bd
00000150: d27f f73d 2e53 ac3d 5dbf 763b 7566 a0bd
00000160: 1dc0 123c bb88 7abd d11c 35bd 6b01 7e3d
00000170: a3a4 90bb e8d0 cf3d 0399 953c b0ec 8fbd
00000180: 471a edbd 910b 13bd 7c0a 033e dbac a03d
00000190: 4cb8 b3bd 66ec 45bd 4734 d93d 1726 c6bc
000001a0: e141 aebd 413d 0d3e f7a1 bb3d 15aa ef3d
000001b0: d70c 02be 8dec 753d 5a3c e03d 1d4b 65bd
000001c0: 43a0 203d 882d b0bc a067 c2bd b69e a43d
000001d0: c27f 793d d578 a3bd cfb7 bf3d ac5e 803d
000001e0: 9e6b a2bd 57f3 57bd 409e bdbd ac49 33be
000001f0: 7d54 10bc 49e9 84bd 4f93 b53c a714 d33d
00000200: 744d ee3d 4b7a 99bd e5c0 ccbc 4239 443d
00000210: d3c9 dd3d ae76 11bc 7526 623c 732b 103e
00000220: bf7b 883d 73b1 963d 3866 b2bd 8cec bdbd
00000230: 5e5b 093d f15e e8bd 34bd 843d 5796 613d
00000240: e98d 103e 2af6 4d3d 7aba 9bbd ef4d 713c
00000250: fc74 57bd b8ef a73d 1b46 103c fbbb 23bd
00000260: 5104 ebbd 6840 d2bc 5dc5 16be 6d20 2c3c
00000270: 13ce de3d 1de9 d6bd 83dd 58bb 95b5 07be
00000280: db36 59bd 2ff9 9a3c 2846 24be daf1 db3d
00000290: 1453 20be 650e 54bd 3e06 a53c 4dff 97bc
000002a0: 7129 46ba dee5 f2bd 5afc c5bd 53e9 b53d
000002b0: 94a6 11bd e13a ecbd 8388 f23b 7a0a 823d
000002c0: aaf4 183e e965 a7bc 0fdc 9e3d 76d3 5d3d
000002d0: 1016 1b3e bc4c ca3d 121c 03be e3a8 03be
000002e0: 02c5 443d bc6f 9e3c c717 25be b3aa 193e
000002f0: 558f 163c 7431 063e 82d0 adbd 93ad 39bd
00000300: b9c6 023e 7064 e4bd ddaa d6bd 93e0 a9bd
00000310: d6b3 963d 6f02 39bb df83 fcbb f284 76bb
00000320: a361 2dbd 7954 09be ea26 c73d e943 8c3d
00000330: 4c65 023d c38f f03b 79d9 c0bd 35b3 8bbd
00000340: 8f28 f73d 72c4 a73d 0168 7c3d 8feb 8d3c
00000350: 4196 cebb b3df c0bd aeae a13d 7544 b73d
00000360: a3de 393e c860 fb3c 4906 523d ac93 6abb
00000370: d0d6 353e 6a94 093e 0c05 05be 23bf 463d
00000380: d8a3 3b3d 3160 343a e9cc ed3d 3c3d 74bd
00000390: 0204 3b3c 3b02 d83d aab4 97bd 363b 123e
000003a0: 2850 a5bd 6bf6 02bd 919b d13d 9e97 843d
000003b0: 2bd8 f63c e973 97bd 55de 5e3d 6a16 273c
000003c0: c710 7bbd f343 8a3d 3a33 3fbd 3f10 15be
000003d0: 42c2 6dbe 1814 06bd e59f c33c 9600 ba3c
000003e0: ad4d 4cbc 53f3 a5bd caf3 4ebe 04ca f0bd
000003f0: 42e5 f13d 6fbc 5abd cb24 163e 58ce 0e3e
0.036613945 -0.086558186 0.06826553 0.10363526 -0.032746166 0.11992231 0.062394526 -0.032981273
-0.053584874 -0.03833856 -0.06879194 0.11392398 0.09241551 0.015580905 -0.01598701 0.078023106
-0.16109847 0.17137855 0.006288932 -0.16469474 0.080135435 0.06963244 -0.01951072 0.08078215
-0.06403187 -0.03146726 -0.007709508 0.027455218 0.05021626 0.14210604 0.16178931 0.029849213
-0.09106438 -0.11433892 0.05722797 0.0627452 0.024200128 0.03342237 -0.0745003 0.010579717
-0.018903363 0.08291684 -0.11353493 0.065388925 0.09502528 0.15284702 0.008301352 -0.021514026
-0.11573419 -0.051480442 -0.09559298 0.093725964 -0.00051077426 0.044893496 -0.068637356 0.07869179
0.014374967 0.03920926 -0.16980976 -0.050387297 -0.074425474 -0.015214634 -0.026379278 0.06139884
0.08864833 0.080374494 0.03626858 0.058327407 -0.0040138825 -0.044300605 -0.085223585 -0.025367377
0.08002683 -0.0939679 -0.15835848 -0.14304774 -0.09153277 0.05227445 -0.14198558 0.0701949
-0.06819708 0.19557846 0.1593817 -0.032198932 0.12084927 0.08414303 0.0037650682 -0.07832042
0.008956936 -0.061165553 -0.044216935 0.06201307 -0.0044141575 0.101472676 0.018261438 -0.070275664
-0.11577278 -0.035899702 0.12796968 0.078454696 -0.08775386 -0.04832115 0.10605674 -0.024188085
-0.08508659 0.13792898 0.09161752 0.117023624 -0.1270021 0.060040046 0.10949011 -0.055979837
0.039215337 -0.021506086 -0.09492421 0.08038084 0.060912855 -0.07982031 0.093612306 0.06268057
-0.079306826 -0.0527223 -0.092586994 -0.17508572 -0.008809206 -0.06489808 0.022164969 0.103066735
0.11635867 -0.07494029 -0.024994323 0.047906168 0.108295105 -0.008878393 0.013803114 0.14079075
0.06664228 0.073580645 -0.08710903 -0.09273633 0.0335344 -0.11346234 0.064814 0.055075016
0.14116634 0.05028359 -0.07603927 0.0147280535 -0.0526018 0.082000196 0.008805777 -0.039974194
-0.11475433 -0.025665477 -0.14723726 0.010505778 0.10879149 -0.104936816 -0.0033091016 -0.13252862
-0.05303083 0.018917648 -0.16042387 0.10739489 -0.15656692 -0.05177154 0.020144578 -0.018554354
-0.0007559276 -0.1186025 -0.09667273 0.08882394 -0.035559252 -0.11534668 0.0074015274 0.063496545
0.14937082 -0.020434337 0.077568166 0.054156743 0.15145135 0.09877917 -0.12803677 -0.12857394
0.048039444 0.019340388 -0.16122352 0.15006523 0.009189446 0.13104802 -0.08487035 -0.04533155
0.12771119 -0.111519694 -0.10481808 -0.08294787 0.0735852 -0.002823021 -0.00770615 -0.0037615863
-0.04232944 -0.1341113 0.09724219 0.0684889 0.031834885 0.0073413565 -0.094164796 -0.068212904
0.12068283 0.08191766 0.061622623 0.017324237 -0.0063045328 -0.09417667 0.07894646 0.08948604
0.18151335 0.030685797 0.051275525 -0.0035793586 0.17757726 0.13435522 -0.12990206 0.048522126
0.04581055 0.0006880789 0.11611349 -0.05962871 0.01141453 0.105473004 -0.07407506 0.142804
-0.08071929 -0.031973284 0.1023475 0.06474231 0.030132374 -0.07395155 0.05441125 0.010198215
-0.061295297 0.067512415 -0.046679713 -0.14556979 -0.23218635 -0.032734007 0.023879955 0.022705358
-0.012469691 -0.08103051 -0.20210186 -0.117572814 0.118113056 -0.05340236 0.14662473 0.13945901

conv3.0.bias f4 [16]
00000000: 720f 89be 99d8 c93c a157 66be c770 debd
00000010: 6322 003e 693b 08be 5a6d fd3c cca2 4cbe
00000020: b3ba f5bc d5c3 bfbd f16e 27be 235e 893d
00000030: 6f6f b7bc 1e20 cdbd b5b8 cfbd fc3b 753d
-0.26769596 0.024639415 -0.22494365 -0.10861354 0.12513117 -0.13303913 0.030935932 -0.19983977
-0.029996252 -0.09363524 -0.16350915 0.06707408 -0.022392003 -0.100158915 -0.10142652 0.05987166

conv4.0.weight f4 [16, 16, 5]
00000000: 1370 68bd f122 dabd 7277 edbd 4064 bc3c
00000010: a8a9 e7bc 60ca d0bd 6d01 5ebd 82ef bcbd
00000020: ece9 d53c b953 523c bcba 98bc b64c 88bc
00000030: fb8b 933d 53b4 be3c 1dc1 69bd 6b5d 263d
00000040: 0759 89bd e68d 823d 2d86 e5bc 9cdb 2b3b
00000050: 5aa8 a8bd 1676 273d 2baa c23d 2ea8 5abd
00000060: 8316 0cbd b259 453d 162f bbbd 6c0a ff3b
00000070: 4451 99bd 65af 01bc cce6 85bd 14a7 51bd
00000080: 1ee6 e1bd 20c9 2d3d 7d36 1e3a 0b38 47bd
00000090: 02e3 83bb 4ad9 45ba 8868 eabb e22a 83bd
000000a0: 97f3 803c 6b1b e0bd 410a d93b d125 5bbd
000000b0: cec2 adbc ded0 e7bc 779f 8fbd 18dc 05bb
000000c0: 21fd 823d 90be 473c b502 aebd 5e34 99bd
000000d0: 8240 40bd 2728 71bc 3e81 83bd 2e84 aebd
000000e0: 7931 75bd c721 3d3d 52e4 aebc b7d2 f039
000000f0: d182 d7bb 985a 863a 9829 8f3c f5f0 213c
00000100: 5e08 413d 2011 b13c ce3d 44bd c35a 06bd
00000110: c502 eebd ff58 853d 651b 883c b410 f1bd
00000120: f00d cc3c 6874 11bd ffe5 dbbd de88 e63c
00000130: 2cc4 ff3b 16a8 913c e67b 223b d5f5 0abd
00000140: 412e b03b b93e a23d 6ab2 d03a 4d13 b8bd
00000150: 4c9a d0bd 212a e2bb b40a 5b3c af9c c4bc
00000160: 61a3 3c3d d29b 603d d89c debb f92b adbc
00000170: 62a7 743c 5345 46bc 30b6 9bbd b9a5 5ebd
00000180: d83d d1bc a768 d53c 07d5 5dbd 112a dabc
00000190: 5943 5d3d d4f9 a4bd e8c5 9fbd ccca 9fbd
000001a0: 8217 a6bb 8068 b83c 394e 7a3d 8bda b5bb
000001b0: ff4a c33c 8e6d dcbc ac5e e43c b9e9 d8bc
000001c0: 8293 e83a d62f aa3d fa8f 323d d95e 4fbd
000001d0: 2eb2 623c 5fa6 993d 561b d2bd 1f9b 54bd
000001e0: 0ef3 7b3c 5611 eebc 7ed3 34bd 7cfc 973d
000001f0: 7ee9 8cbd ed62 3e3d daf3 8abd 2e2c 903d
00000200: c75d 313d 3fae 1abd f043 e6bc 22f2 a5bd
00000210: 0879 193d 66df 83bc ef70 033c f41f bfbd
00000220: 3c9c 26bd d69d 7ebc 1d8b 8f3c 856c eabd
00000230: bff3 c4bd 5ed8 46bd 8ef4 afbd 7902 9d3c
00000240: 85f3 533c ea2e a3bb 83c5 30bd 7081 4b3c
00000250: 03b3 803c 9e7f 503c e57f 37bd 171c 0e3d
00000260: aa2e d1bc b63a cf3c 0481 26be 7a37 eb3c
00000270: 1f73 923d 899d 75bd 4173 3e3d a376 513d
00000280: 32c2 f1bd 155e 543d c5a8 213b 266e 013d
00000290: 6102 6f3d 8def 5c3d faa7 163d 05a9 83bc
000002a0: c3bb dcbc f4bd 263c 55f9 bfbc c322 f8bb
000002b0: e6fe 233d bb23 38bd 5065 e8bc 8042 213d
000002c0: 6479 4b3d da09 fd3c a50c c8bd f457 8ebd
000002d0: dcc9 15bd 3f88 10bd 0984 f0bd 1823 cd3c
000002e0: 125b 1a3d 6a73 5dbd f2fa c8bc 401a c4bd
000002f0: 93df 423d f8a7 8b3d 473f 2cbd f864 2b3d
00000300: de7d 11bd e39b 31be b2ed 44bd 7817 af3c
00000310: 81d9 46bc 86de b2bd b0dc a7bd fb45 e9bc
00000320: 7623 01bd bafc 93bd ac79 eabd ca1a 27be
00000330: 044d 76bd a673 b4bd 2028 36bd 2676 aebc
00000340: 6ea9 e3bc ffdf b03c 5eb2 8fbc aad4 46bd
00000350: c8fa 93bd c4de 0e3c 161a 543d 2e31 d0bd
00000360: fccb b4bc f838 273b 3e87 9f3d 2503 d4bc
00000370: e04a fabc a737 12bb cc1e 263d 4ba3 c9bd
00000380: 09e3 633c 4b26 653d beba 2c3c f337 3fbc
00000390: b264 c4bd 9b23 dfbd bee4 52bd 58a9 cebd
000003a0: c66f d43d 5ae4 d73d ffa9 e93d 4eb7 ebbc
000003b0: f7d8 733c 7c24 8b3d 7bfa 113d cb65 21bd
000003c0: 56f8 223c 1b56 56bc 90c9 123d 339d 4d3d
000003d0: 03d1 8ebd e6f8 6bbd ae63 d43c d7f7 a23b
000003e0: 711e 21bd 7268 43bd cb45 e6bd db75 13bd
000003f0: ed31 01be ebbd 67bd 82cc 84bd 5d4a e4bc
-0.056747507 -0.10651196 -0.11595048 0.022997022 -0.02827914 -0.1019485 -0.05420058 -0.0922537
0.02611252 0.012837344 -0.01864373 -0.016638141 0.072044335 0.023279345 -0.057068933 0.040616434
-0.06706434 0.06374721 -0.028018082 0.0026223427 -0.082352355 0.0408841 0.09505113 -0.053383045
-0.034201156 0.048181243 -0.0913984 0.007783225 -0.07486203 -0.0079153525 -0.06538162 -0.05118473
-0.110302195 0.042428136 0.0006035341 -0.04863743 -0.004024864 -0.0007547332 -0.0071535744 -0.064046636
0.015741153 -0.109427296 0.006623537 -0.05350286 -0.021211054 -0.028297838 -0.070128374 -0.0020425376
0.06395937 0.01219143 -0.0849661 -0.074806914 -0.04693652 -0.014719046 -0.06421135 -0.08521305
-0.059861634 0.04617479 -0.021349106 0.00045933362 -0.006576874 0.0010250388 0.017475888 0.009884109
0.04712712 0.021614611 -0.047910504 -0.0328014 -0.11621622 0.06511115 0.016614625 -0.11770764
0.02490899 -0.035511404 -0.10737228 0.028141435 0.007805368 0.017780345 0.0024793088 -0.03392585
0.0053766076 0.0792212 0.0015922312 -0.08988056 -0.1018568 -0.006901995 0.013369251 -0.024000494
0.046054248 0.0548361 -0.0067935996 -0.021139132 0.014932485 -0.012101489 -0.07603109 -0.054357264
-0.025542185 0.026050879 -0.054158237 -0.026631387 0.054019306 -0.080554634 -0.078014195 -0.07802352
-0.0050687203 0.022510767 0.061109755 -0.005549734 0.023839472 -0.026907708 0.027877174 -0.026478635
0.0017744156 0.08309905 0.043594338 -0.050627563 0.013836427 0.07502436 -0.1025912 -0.051905748
0.015377773 -0.029061 -0.044147007 0.074212044 -0.068804726 0.04648106 -0.06784792 0.070396766
0.043302324 -0.03776383 -0.028108567 -0.08102824 0.03746894 -0.016097736 0.008022531 -0.093322664
-0.04067634 -0.015540561 0.01752239 -0.1144648 -0.096168034 -0.048546188 -0.08591567 0.019166218
0.012936478 -0.004979958 -0.04315711 0.012420997 0.01571036 0.012725739 -0.044799704 0.034694757
-0.025534946 0.02529655 -0.16260153 0.028712977 0.07150864 -0.05996469 0.046496633 0.05113853
-0.11804618 0.051847536 0.0024667245 0.031599186 0.058351878 0.05393939 0.03678129 -0.016071806
-0.026945 0.010177124 -0.02343432 -0.0075725033 0.040038012 -0.04495595 -0.028368622 0.03937006
0.049676314 0.030888487 -0.09768037 -0.069503695 -0.03656946 -0.035286184 -0.11743934 0.025041148
0.037684508 -0.054065146 -0.024533723 -0.09575319 0.0475765 0.06819147 -0.042052533 0.04184434
-0.035520427 -0.17344622 -0.048078246 0.021373495 -0.012136818 -0.08733849 -0.0819639 -0.028475752
-0.03152796 -0.07225938 -0.11448988 -0.16318813 -0.06013204 -0.08811121 -0.04447186 -0.021296572
-0.027790751 0.021591185 -0.017541107 -0.048542656 -0.07225567 0.008720104 0.05178269 -0.1016563
-0.022069924 0.0025516134 0.07789467 -0.025880406 -0.030553281 -0.0022311003 0.040556714 -0.09845599
0.01390911 0.055944722 0.01054257 -0.011671054 -0.095895186 -0.10895463 -0.051487677 -0.100908935
0.103728816 0.105416015 0.11409377 -0.02877393 0.014883271 0.06794068 0.035639267 -0.039403718
0.009946903 -0.013082053 0.035836756 0.050198745 -0.069734596 -0.057610415 0.025926437 0.0049733925
-0.03933567 -0.04770703 -0.11243781 -0.036001068 -0.12616701 -0.056577604 -0.06484319 -0.02786749

conv4.0.bias f4 [16]
00000000: 0f99 153d ddd1 76bd 6ddd b13d 8735 133e
00000010: 4400 093e 58b5 02be 2380 02be 6683 a8bd
00000020: 0dc6 0bbc 96f3 3e3d 4ee0 a73d 5d01 ebbd
00000030: 1b3c 4cbe 8bd6 6dbd 3872 85be b242 d13d
0.03652292 -0.060258735 0.08684812 0.14375888 0.13379008 -0.1276449 -0.12744193 -0.08228187
-0.008531106 0.04661902 0.081970796 -0.114748694 -0.19944803 -0.058065932 -0.26063704 0.10217799

conv5.0.weight f4 [16, 16, 5]
00000000: 04e9 353d 8135 b6bd 5a51 7cbd c2d6 e43d
00000010: b80a f43c d4b1 a13d 9891 9abc a807 783d
00000020: 90c2 743c ec3b db3d a4b8 d7bc 7426 213d
00000030: 7818 f03c 801f a1bb a04a 5e3d f571 5ebd
00000040: 5049 963d d0d8 a7bd 0a26 e1bd 284c 90bc
00000050: 448a 793d 997b d6bd 30c4 9f3d 0abe 2abd
00000060: c811 f8bc 0030 bc3c 288f d43d 4410 1e3d
00000070: c0ac a33a 0823 853d 00a9 493d 60db edbc
00000080: b10a d3bd a088 4a3b 8cd1 f1bc 6c0f a7bd
00000090: 6c6d 583d e42b d6bd c427 d63d a005 a3bd
000000a0: 4ce8 103d 0891 f03c 8431 053d fbbe a7bd
000000b0: 2c1a 35bd d444 94bc 26fd 813d 68d6 b43c
000000c0: 10dd 313d 1851 ccbc 3c62 84bc 6873 f1bc
000000d0: 98bd 9a3c 5485 de3d 80f7 cfbd 8045 91bd
000000e0: f86e 5cbc c491 233d 2635 66bd 94c9 7abd
000000f0: 3018 f33c 7f90 ddbd 4001 c3bb 34c9 d73d
00000100: e7b9 5ebd 20cf 123d cdbd 95bd a64e a6bd
00000110: b8be 853c 281c 6b3d e156 a8bd 9044 95bd
00000120: d600 16bd 366e aa3d 0c55 e0bc 8e62 973d
00000130: 3aad 9c3d 70e6 a23c 9c07 c7bc 62a4 c63d
00000140: 601b dd3d 70bb 763d 18f5 223d 20d4 1d3d
00000150: e8f0 cf3d e35e cabd 70a2 b3bb 34e2 09bd
00000160: 3624 09bd 5cc0 b93d 3cf8 babc 006c cb3d
00000170: f086 3d3d de99 7bbd 4488 7c3d 200c 473c
00000180: 76c7 83bd 880a 793d a4f1 9dbc 52df 923d
00000190: 54ce 43bd 7cfd 083d fca5 40bd 6858 1fbc
000001a0: db9b a1bd 802a 8d3d 8070 fc3a 00d4 f0ba
000001b0: 58e7 75bc 4008 c03d be87 c1bd cbef c0bd
000001c0: 7001 d9bb d0cd 70bc 5873 4c3d 4444 123d
000001d0: 70e1 94bb bcd6 1a3d 1922 a3bd 4401 e03d
000001e0: 688d e13d a09a 9b3c 8a95 e3bd 62fb debd
000001f0: 768c 52bd 6839 e33c a092 22bb 23d3 b2bd
00000200: 0486 1cbd 874d cebd 180e 003d 00bd ea3b
00000210: d33c 6fbd 789f 153d 0ec2 61bd 449a abbc
00000220: 7e80 66bd 8818 2abc 9838 253d 7c18 f0bc
00000230: 3e96 bf3d 8fb4 adbd 9865 333d d72c 4abd
00000240: 6acc d93d d0e8 973c 1027 5c3c c669 adbd
00000250: 8858 af3d 5e08 88bd acdf 813d 34df 50bd
00000260: 220d 9abd 30f0 b53d 60e2 56bd 0064 3cbd
00000270: 5009 c1bb b192 dcbd abd1 9ebd 7e62 9d3d
00000280: c090 de3c e04a 1ebd 55c0 d4bd 0028 04b8
00000290: 7ca8 9abd 0318 d7bd 1425 b0bd 7f7f 6cbd
000002a0: e4f7 153d 9c2f 16bd 58df 853c a4f9 dcbd
000002b0: 2918 73bd 18da b63d 4c7f 513d 6420 553d
000002c0: bc6c cbbc e0e3 013d 3a9b 10bd e011 2a3d
000002d0: 14e0 b1bd 1020 dbbd cf14 95bd 02b4 91bd
000002e0: d99f bdbd c038 2bbc c88d 2d3d 68cd 9b3c
000002f0: 32dd c73d 2524 d1bd 3005 29bd b854 e13c
00000300: 24b8 4ebd e829 a43c 442a 1f3d e004 173d
00000310: 3057 50bc 0ba4 c3bd 08be 3d3d 321a ba3d
00000320: 4d58 b2bd c82c f93c d240 c23d 20c7 643d
00000330: a071 6b3c ceae 983d ac04 513d b806 133d
00000340: 408c 363b bc0a 163d 2412 763d 14d6 cd3d
00000350: 5825 54bc c085 e6bc 35d5 c5bd 9817 df3c
00000360: 084e 0cbd dcbe 20bd 8886 a43c c03e b03c
00000370: 020d 993d b8b2 c8bc c0e4 7dbc 403e 42bd
00000380: 32f1 96bd c493 e23d 5c53 bd3d 688d bf3d
00000390: a05a ec3c 2075 0c3d 68c5 df3c 1ee8 bbbd
000003a0: 23d5 abbd 586e ef3c a821 c9bd c3d9 c9bd
000003b0: 6855 66bc 38e3 2c3d 335e e3bd c0b0 a13b
000003c0: 00f6 c539 d438 12bd 0603 85bd f085 11bd
000003d0: d846 1e3c 74a9 c73d 189a 343d 2f94 dbbd
000003e0: 12cd d63d de9f bcbd 0c5f edbc 5e62 b23d
000003f0: 08d9 8f3c d498 313d aa36 a0bd 1094 b43c
0.044411674 -0.08896924 -0.06160102 0.11173774 0.029790267 0.07895246 -0.018868253 0.060554177
0.014938965 0.107047886 -0.02633316 0.039343312 0.029308543 -0.004917085 0.054270387 -0.054307897
0.07338202 -0.081956506 -0.109935835 -0.01761444 0.060922876 -0.10472793 0.07801092 -0.04168514
-0.030281916 0.022972107 0.103788674 0.03858973 0.0012487397 0.06500822 0.049233437 -0.02903527
-0.103047736 0.0030904189 -0.029518865 -0.08157238 0.052838728 -0.1045759 0.104568034 -0.07960057
0.035377786 0.029366031 0.032517925 -0.081907235 -0.044214413 -0.018099226 0.06347112 0.022074893
0.043423712 -0.024941012 -0.016160123 -0.029473975 0.018889233 0.10865274 -0.10154629 -0.07093334
-0.013454191 0.039933935 -0.05620303 -0.061227396 0.02967462 -0.10818576 -0.0059510767 0.10536423
-0.05437651 0.03584206 -0.07311592 -0.0812047 0.016326293 0.0573999 -0.08219696 -0.07288468
-0.03662189 0.08321802 -0.027384304 0.07391845 0.07650228 0.019885272 -0.02429562 0.09699322
0.10796237 0.060237348 0.03978452 0.038532376 0.10153371 -0.098813795 -0.0054820105 -0.03366299
-0.0334818 0.09069893 -0.022823445 0.09932709 0.046271265 -0.061426036 0.06165339 0.012148887
-0.064345285 0.06080106 -0.019280262 0.07171501 -0.04780419 0.033444867 -0.047033295 -0.009725668
-0.07891055 0.06892872 0.0019259602 -0.0018373728 -0.01500877 0.093765736 -0.09449719 -0.09420737
-0.006622486 -0.014697507 0.049914688 0.035709634 -0.004543476 0.037802443 -0.07965488 0.109377414
0.11013299 0.01899463 -0.11112507 -0.10887791 -0.051403485 0.027737334 -0.0024806634 -0.087316774
-0.038213745 -0.10073381 0.03126344 0.007163644 -0.058407616 0.036529034 -0.055116706 -0.020947583
-0.056274883 -0.010381825 0.040337175 -0.02930855 0.09354828 -0.084817044 0.04379806 -0.04935917
0.10634692 0.01854363 0.013437048 -0.0846744 0.08561808 -0.06642221 0.0634149 -0.050994113
-0.07522036 0.08883703 -0.05246198 -0.045993805 -0.0058910027 -0.10770167 -0.07754835 0.076848015
0.027168632 -0.038645625 -0.10388247 -3.1508505e-05 -0.07551667 -0.10502627 -0.08600822 -0.057738777
0.03661336 -0.036666498 0.01634185 -0.10789803 -0.059349213 0.08928317 0.05114679 0.052032843
-0.024832122 0.03171146 -0.035304286 0.041520953 -0.08685318 -0.10699475 -0.072793595 -0.07114412
-0.09259004 -0.010450542 0.04237154 0.019018844 0.097589865 -0.10211972 -0.041264713 0.027506217
-0.05046858 0.020039514 0.038858667 0.036869884 -0.0127161 -0.09552773 0.046323806 0.090870276
-0.08708248 0.030416861 0.0948502 0.055853963 0.014370352 0.07455216 0.051029846 0.03589508
0.0027854592 0.03663133 0.060075894 0.10050598 -0.012948357 -0.028139949 -0.09659807 0.02723293
-0.034254104 -0.039244518 0.02008368 0.021514297 0.07473184 -0.024499282 -0.015496433 -0.047422647
-0.07370223 0.1106334 0.09244415 0.09353143 0.028851807 0.034291387 0.02731581 -0.09175132
-0.08390262 0.02922742 -0.098208725 -0.09855988 -0.014058448 0.04220888 -0.111019515 0.0049344003
0.00037758052 -0.035698727 -0.06494717 -0.035528123 0.009660445 0.097491175 0.044092268 -0.10721623
0.10488333 -0.0921018 -0.028975986 0.08710168 0.017559543 0.04335864 -0.07822926 0.022043258

conv5.0.bias f4 [16]
00000000: 067f 5ebd 5461 623d 6f23 ddbd 5456 2abd
00000010: 3cc1 b43d 86db 9b3d 8f2a 57bd 0241 00bd
00000020: 6ade 54bd 48f6 8abd 8280 22bd 8de8 d2bd
00000030: 3068 6c3d f8cd 00bd f044 e4bb c680 af3d
-0.054320358 0.0552686 -0.10797774 -0.041586235 0.08825919 0.0761023 -0.05253082 -0.031311996
-0.051969923 -0.06785256 -0.039673336 -0.10298262 0.05771655 -0.031446427 -0.006966226 0.085694835

conv6.0.weight f4 [8, 16, 5]
00000000: bc24 983d daa5 34bd 7a4c b83d a64d c0bd
00000010: 8843 b43d 9ea7 64bd 9815 eebc 30bc 84bc
00000020: 1e7b e03d 1071 7cbc f88b 433d 541a d73d
00000030: 2445 733d f86f b9bc 2c9c 3dbd 1c77 bebd
00000040: dc27 a83d 2052 8cbc 5851 6d3d f805 45bc
00000050: 34ee 723d 0006 e03d e87b 2e3c 4cc7 cf3d
00000060: f0c5 c13b b0c5 84bd 109a 3a3d d0e6 a8bd
00000070: 98e7 cb3c b4ca bb3d 2ca8 fdbc 4071 9f3a
00000080: fe49 afbd bc3e da3d 6844 3dbd e44d 44bd
00000090: b273 b23d 1865 6b3d f828 8f3d 6885 00bc
000000a0: 0c87 bc3d 000f 1e3a 0098 34bc b825 103c
000000b0: bc1e 95bc 44ce d0bd 0010 2539 fe7e cf3d
000000c0: 744d 46bd f031 a0bc cc01 92bd b5d0 65bd
000000d0: ed95 97bd 8bab b9bd c6c5 e43d 1c54 b53d
000000e0: dfa0 afbd 3c09 db3d d074 a0bd 18d4 003c
000000f0: 754f b0bd 1e0e 50bd d2ac 74bd 9978 d0bd
00000100: 774e 78bd 5467 0d3d 407b 80bc 94dd 9e3d
00000110: 6805 673d f08a c83d f0c5 a6bc ac89 033d
00000120: 6424 4e3d ef84 debd 58c5 373d 50d5 34bd
00000130: 6878 61bc a63c 35bd 806e c53d 9435 b73d
00000140: 5831 efbc b8b4 d53d cecd c93d 508d 33bd
00000150: b4f8 d3bd e8a2 87bd 8c04 85bc 9a31 32bd
00000160: 3e9e db3d 9d6b c5bd b02c f33b 309f 583c
00000170: 9c2d e03d de24 c3bd 38ac 8f3d dbc6 9cbd
00000180: 663d d0bd 9e8b 75bd 3bab b1bd 5190 a0bd
00000190: 7061 d03b ae3b aebd b66a 62bd a853 0cbc
000001a0: 27c1 c9bd 6c45 8a3d 37fa cebd 6c8a 9ebd
000001b0: f676 b03d 30fe ea3c f5ec 7fbd b033 08bc
000001c0: e22d ab3d cc71 433d 106c 85bd 5429 d13d
000001d0: 1cfd cd3d 6487 ae3d 61c4 d0bd a05e 803d
000001e0: e244 b43d 1ce1 d83d 8eaa 31bd 2480 eabc
000001f0: 08a3 dc3d 15c8 8bbd 6cfd ad3d 0c1e abbd
00000200: 8088 bb3c bf77 59bd a0d3 f0bb ec37 a73d
00000210: ca95 c33d 2432 e23d a08a 233d abfe d6bd
00000220: 3e2a 8e3d aea0 43bd a43f 9bbd 6517 b4bd
00000230: 14bb b5bd a8b3 0cbc a595 adbd b0c6 afbd
00000240: 3c75 a13d 9021 eabb 9678 983d 7871 72bc
00000250: f8f4 8a3c 50a5 cd3c 506a 66bd c079 8eba
00000260: 6638 45bd d08b 913d c04a a43a a8ae b43d
00000270: 8d31 4abd 90d6 b53b 2b6c cabd a6ef 64bd
00000280: f042 c7bd c207 d2bd 2068 70bc 30cb 6b3c
00000290: 9fbf 58bd 24a5 68bd 978f 60bd 00dc e13b
000002a0: e8e0 8dbd 3c49 dfbd 44e9 21bd 7b04 8ebd
000002b0: 7869 68bc f070 a93c d4c2 be3d 12e8 943d
000002c0: 746c 753d 24bd c93d f6ad a63d 2cb0 b4bc
000002d0: 8883 4bbd 087c 063d 8cda dabd 6cb5 723d
000002e0: 849b a7bc 90ce 88bd 58b5 c13d 9e11 cebd
000002f0: c0fd fe3c ca05 d33d 2ed9 b33d d848 aa3c
00000300: 985f 6ebc 7ad6 c3bd 5c2c 253d a013 c6bc
00000310: 081f 6dbc 5c88 d7bd 5ca7 303d 0aaf 9abd
00000320: 30e9 94bc d609 02bd fdc8 cabd 6a9d 84bd
00000330: 2e9b c23d 75ba 9fbd 4065 dcbb 68f2 b93d
00000340: 2f6b 8dbd 9a36 d63d 636f d3bd 0858 0c3d
00000350: fc2e a9bc 20e1 2dbc b41e 183d b289 87bd
00000360: 4230 833d 5c3f bd3d ce6f 7dbd e005 b2bb
00000370: 40f8 723b a081 edbc a81a 883d 54c3 443d
00000380: a8e7 9b3c 9449 c83d 10b1 e5bc 95e5 69bd
00000390: a62a 8bbd f066 d6bd 6759 c8bd 68d7 cfbc
000003a0: 5013 e83c 4c28 833d 3414 7e3d 30d6 553d
000003b0: ba12 863d 38b2 23bc a85e 623d 59e6 d8bd
000003c0: 4cff f2bc 28d5 bcbc ca94 cd3d 519e 80bd
000003d0: 1ed3 c9bd 00fb c1bd 00c6 ad3d f0d7 a43d
000003e0: e0e3 4f3c 37be d8bd 2444 e13d 1ab2 ba3d
000003f0: 30dc 903b e8ac 973d ec8a d7bc ae36 61bd
0.074288815 -0.04410348 0.08998962 -0.0938981 0.08801943 -0.055823915 -0.029063031 -0.016203016
0.10960983 -0.015407816 0.047740906 0.105030686 0.05939211 -0.022636399 -0.046291515 -0.09300062
0.082107276 -0.017129004 0.057938904 -0.012025349 0.0593092 0.109386444 0.010649659 0.10145435
0.0059134886 -0.064830184 0.04555708 -0.08247149 0.024890706 0.09169522 -0.03096398 0.0012164488
-0.08559035 0.10656497 -0.046207815 -0.047925845 0.087134734 0.057469457 0.06990236 -0.0078443065
0.09205446 0.0006029457 -0.011022568 0.008798055 -0.018203132 -0.10195592 0.00015741587 0.10131644
-0.04841371 -0.019555062 -0.07129249 -0.05610724 -0.07401643 -0.09065922 0.11170535 0.08853933
-0.085756056 0.10695121 -0.0783478 0.007863067 -0.08608905 -0.050794713 -0.059735127 -0.10179252
-0.060621705 0.03452237 -0.01568377 0.077571064 0.05640164 0.09792125 -0.020358056 0.032113716
0.050327674 -0.10865199 0.044865936 -0.044148743 -0.013761617 -0.044247292 0.09640217 0.08945766
-0.029198334 0.1043486 0.09853707 -0.043835938 -0.10350171 -0.06622869 -0.01623752 -0.043504335
0.10723542 -0.09639666 0.0074210986 0.013221547 0.10946199 -0.09528516 0.0701527 -0.07655116
-0.10167961 -0.059947602 -0.08675238 -0.07840026 0.0063592717 -0.08507477 -0.05527755 -0.008564867
-0.09851294 0.067515224 -0.101063184 -0.077412456 0.0861644 0.02868566 -0.06248184 -0.0083131045
0.08358361 0.047715947 -0.06514752 0.10212961 0.100580424 0.085219175 -0.10193706 0.06268048
0.08802201 0.10589811 -0.043375544 -0.028625555 0.10773283 -0.06825272 0.08495602 -0.0835534
0.022892237 -0.053092714 -0.0073494464 0.08164963 0.09550054 0.1104472 0.039927125 -0.10497793
0.06941651 -0.047760658 -0.07580498 -0.08793525 -0.08873573 -0.008587755 -0.08475808 -0.085828185
0.07883689 -0.0071451142 0.07444875 -0.014797561 0.016962513 0.025103241 -0.05625373 -0.0010870025
-0.04814949 0.07106745 0.0012534484 0.088223755 -0.04936366 0.0055492595 -0.09883913 -0.05589261
-0.09729564 -0.10255386 -0.014673263 0.014391705 -0.05291712 -0.056798115 -0.054824438 0.006892681
-0.06927663 -0.1090264 -0.0395291 -0.06934448 -0.014185302 0.020683736 0.09314504 0.072708264
0.059917882 0.09850529 0.08138649 -0.022056662 -0.049685985 0.03283313 -0.10686216 0.05925505
-0.020459898 -0.06680024 0.09458417 -0.10061954 0.031126857 0.103038386 0.08781658 0.020786688
-0.0145491585 -0.095623925 0.040325508 -0.02417928 -0.01447273 -0.10524055 0.043128356 -0.07552917
-0.018177599 -0.03174766 -0.09901617 -0.06475337 0.095022544 -0.07799236 -0.006725937 0.090794384
-0.06905209 0.10459633 -0.1032398 0.03426364 -0.020652287 -0.010612756 0.037138656 -0.0661806
0.06405689 0.092406005 -0.061874203 -0.0054328293 0.0037074238 -0.028992474 0.06645709 0.048037842
0.01903136 0.09779659 -0.028038532 -0.057103712 -0.06795244 -0.104688525 -0.09782677 -0.025371268
0.028329521 0.064041704 0.062030986 0.05220622 0.065465406 -0.009991221 0.055266052 -0.1059081
-0.02966275 -0.02305086 0.10038145 -0.062801965 -0.098547205 -0.094717026 0.08485031 0.08048999
0.012688607 -0.105831556 0.10999325 0.091160014 0.0044207796 0.07406026 -0.02631136 -0.054983787

conv6.0.bias f4 [8]
00000000: f7f6 7fbd ca5c cf3d 4aa4 ca3d c81f 823d
00000010: f63f ca3d f0af a93d c6ae d43d 1285 16bd
-0.062491383 0.1012512 0.09894617 0.06353718 0.09875481 0.082855105 0.10384898 -0.036748

fc.weight f4 [3, 336]
00000000: 7444 febc 47f7 3c3c 85b4 de3b baa3 34bd
00000010: aa3c e5bc 3fbb 47bc 706e 65bc 8e93 dbbc
00000020: 94f1 fc3b afab 98bc 62c9 aa3c 11fc 00bd
00000030: 0047 92bc ab8b 973d 8b1a 073d 44b6 cc3d
00000040: 4d7b 5cbd c884 cfbd 480b 03bc 89dc d33b
00000050: c3b9 5e3c 9e01 78bd 9c9b 583d 7405 f23c
00000060: 89b2 fcbb f7a4 3fbd 1aa0 47bd 95a3 c83c
00000070: 99eb 363d 74d6 043d 0e41 df3c 58b6 f23c
00000080: 9c59 e83b 1365 223d 4836 d53a 2799 2cbb
00000090: 290d b63c 04fc 403d 1a0d 7d3b 46c7 7cbd
000000a0: c611 25bd 1c0c 133d 467b 8cbc ed69 d7bb
000000b0: 0ab7 abbc 8cb1 273d cfdd bcbc 8ec9 26bc
000000c0: 0e58 a7bc 6152 053d b5f3 d7bb 6fda 85bc
000000d0: f3d9 ff3b 9194 953c 403e c6bc 9ee2 8a3d
000000e0: c7c5 dabc 6223 713c 63d0 d7bd fa4d b9bd
000000f0: e29e c73c f61c bf3c 038c 9b3d 04b3 043d
00000100: 4ea5 233b a10a 0ebd 1d09 f83b 37d9 133d
00000110: 49df ea3b 623c f7bc db8e 03bb 43b2 1dbc
00000120: fd36 34bb 529c 573c 6e98 4e3d b6ec 203d
00000130: 627f e5bc 624d 703c 76c5 413d 7daf 5b3d
00000140: 19e1 9d3c 2365 babc 583f a03c 6ea3 a63d
00000150: e59b 6f3d 78bd 603c 8046 1a3d 14be 48bc
00000160: bed7 90bc 4412 043d d3f8 323d 7afa 8e3c
00000170: 7a50 34bd 1796 5ebc 24a3 edbc 7ccb 26bd
00000180: 21d5 0e3d 1627 d83b 186b 643d 6fe6 9d3d
00000190: 2620 0abd 38c3 0bbd 7438 303d 278e 9e3d
000001a0: bb07 1bbd 4235 fd38 3985 41bc b25d 483c
000001b0: 34ba 8dbc e3bf 23bd 4649 2e3c 6292 20bc
000001c0: 044d 2c3a 90ce 713c 3aed d9bc bffb 373d
000001d0: 91d6 88bd 8798 813d 554d 153d 7ab6 913b
000001e0: c477 82bd 6589 493d 0723 64bd 08b2 d8bc
000001f0: 821f 013d 2b2d 87bd 316f f83c d39f 01bd
00000200: 702a 9ebc cd69 a23b b80d 87bc e05c ab3c
00000210: 8fbd 803c 841e 55bb 2e2a 21bd ec8e 38bc
00000220: 4715 53bd c48e 3abc 6270 03bd e077 b13d
00000230: 2543 cb3b 3253 1eba 7cdc 37bd 2790 86bc
00000240: 36f8 9d3c ed7d 583d 7c74 843d 839a 03bb
00000250: ba2a 963d d705 22bc 860d 6cbc 877d e6bc
00000260: af4e 2abd 8324 dc3c 7bd6 f9bb 6644 2dbd
00000270: cddd 0f3d 3b4a 29bc c1a9 63bd c996 c2bc
00000280: de9e c33c bba3 16bd 5c9c e4bb 857c 42bc
00000290: c43a b0bc 892c 4fbd 639d 4cbd 9b19 b33c
000002a0: 28dc bf3d 5cf3 133c de46 08bd 2d1d fd3c
000002b0: a7a3 dabc 1fdb cf3c b4e6 3abd a753 d7bc
000002c0: f070 9f3b cb24 0b3c d518 d23c 6b18 59bd
000002d0: 2b1d 5f3d 2453 3c3c 9409 473c 73e0 92bd
000002e0: faa4 5abc e810 07bd 0daf acbd 7e1b 58bd
000002f0: 607f b93c 8d0a a9bc 824f 0c3d c40f 1fbb
00000300: 1d02 173d 265c 6abd 3466 a939 eca2 c5bc
00000310: a8fc 8d3d 1d8b bc3c 1f87 213c 1e20 4cbc
00000320: e033 fe3b 072b afbd 975a 1f3c d333 dfbc
00000330: 44cf cbbb 5e3c 963b 9c20 f3bc 27ad febc
00000340: 57f9 7b3c e361 42bd 71c5 6bbd a8e4 61bd
00000350: cb10 58b9 303a 863b 4662 983c 2501 82bd
00000360: eb1f 343c d7e3 703c 2a51 123d e0a4 15bd
00000370: 3cb4 203b 4b6e b9bb ddb3 573d eb02 023c
00000380: 07ee 82bb a2ba 8dbd 2f5f 99bc 733a 073d
00000390: 0c6d 593d d0db 34bc 831e 06bd ccd0 d1bc
000003a0: c2fb 0dbc 9e6a c03b 78b4 04bc 5aea 8dbc
000003b0: 49a3 b2bc f5ba 6abc 7957 afbb b974 a2bb
000003c0: f158 8fbb 59cb 79bc 4f9a a7bc 536e 5fbd
000003d0: a413 ba3c 141b a83d d2fa 493d c55f cc3b
000003e0: fba6 f1bc bcd2 88bd d73e ae3a f58c bfbd
000003f0: 6065 203c 4e79 823c 60ff 0f3d 08a7 21bc
-0.0310385 0.011533565 0.006796422 -0.044101454 -0.027983028 -0.012190639 -0.014003381 -0.026803758
0.007719228 -0.018636553 0.02084798 -0.03149039 -0.017856121 0.073996864 0.032984298 0.09995702
-0.053828526 -0.10132748 -0.007998295 0.006465499 0.013594094 -0.060548417 0.052882776 0.029543616
-0.0077117127 -0.046788182 -0.04873667 0.024492064 0.044658277 0.03243108 0.0272527 0.029627964
0.0070907604 0.039647173 0.0016266787 -0.0026336403 0.022223072 0.04711534 0.0038612545 -0.06171348
-0.040300153 0.03590022 -0.017148625 -0.0065739066 -0.020961303 0.040940806 -0.023054985 -0.01017989
-0.02042773 0.032549266 -0.0065903314 -0.016339509 0.007807964 0.018259319 -0.024199605 0.06781505
-0.026705636 0.014717909 -0.105377935 -0.09048076 0.024367753 0.02332924 0.075950645 0.032397285
0.0024970355 -0.034678105 0.0075694458 0.036095824 0.007167731 -0.03018016 -0.0020074162 -0.00962502
-0.0027498596 0.013159828 0.050438337 0.039288245 -0.028014842 0.014666887 0.047307454 0.053634156
0.019272374 -0.022753304 0.019561455 0.081366405 0.058498282 0.013717048 0.03766489 -0.012252349
-0.017680999 0.032243982 0.04369433 0.01745342 -0.04402206 -0.013585589 -0.029008456 -0.0407214
0.034871224 0.0065964563 0.055766195 0.07709967 -0.033722065 -0.034121722 0.043022588 0.07741957
-0.03784917 0.000120739 -0.011811548 0.01222937 -0.017300703 -0.03997792 0.010637587 -0.009800525
0.00065727555 0.014758721 -0.026602376 0.04491782 -0.0668155 0.063279204 0.036450703 0.0044468017
-0.063705 0.049203295 -0.055697467 -0.02645208 0.03152419 -0.06600412 0.030326458 -0.03164656
-0.019307345 0.00495646 -0.016486034 0.02091831 0.015715389 -0.003251941 -0.039346866 -0.011264544
-0.051533964 -0.011386577 -0.0320896 0.086654425 0.0062030726 -0.0006039619 -0.044888005 -0.01642616
0.019283395 0.052854467 0.0646753 -0.002008111 0.07332368 -0.009889088 -0.014407521 -0.028136028
-0.041578945 0.026872879 -0.007624445 -0.042301558 0.035123635 -0.010332639 -0.05558181 -0.02375354
0.023879465 -0.03677724 -0.0069766473 -0.011870508 -0.021512397 -0.05057958 -0.049954783 0.021862796
0.09368163 0.009030189 -0.03327071 0.030897701 -0.026689364 0.02537304 -0.045630172 -0.026285006
0.004865758 0.008492659 0.025646606 -0.053001802 0.054471176 0.011494432 0.01214828 -0.071717165
-0.013344998 -0.032975107 -0.08431826 -0.052760594 0.022643745 -0.020634914 0.034255512 -0.0024270872
0.03686725 -0.057216786 0.0003231034 -0.024125539 0.06932956 0.023015553 0.009858876 -0.012458829
0.007757649 -0.08553129 0.009726188 -0.027246391 -0.0062197763 0.004584833 -0.029678635 -0.031088425
0.0153792715 -0.047456633 -0.05756134 -0.055149704 -0.00020605621 0.004096292 0.018601548 -0.063478746
0.010993938 0.014702759 0.035721935 -0.03653419 0.002452149 -0.0056589 0.052661765 0.007935266
-0.00399566 -0.06920363 -0.018722145 0.033014726 0.05308251 -0.0110387355 -0.032743942 -0.025612257
-0.008665981 0.0058720848 -0.008099668 -0.017323662 -0.021806376 -0.014326801 -0.0053510037 -0.004957762
-0.0043746163 -0.015246236 -0.020459322 -0.054548573 0.022714444 0.0820829 0.049311467 0.0062370026
-0.029498568 -0.066808194 0.0013293874 -0.09353057 0.009789795 0.015926983 0.035155654 -0.0098664835

fc.bias f4 [3]
00000000: f70e 633e 8bfb 98bc 8c02 46be
0.22173677 -0.018674633 -0.19336909
