routes/model14.pkl (torch_old, 22703 bytes, 14 tensors)

conv1.0.weight f4 [4, 1, 5]
00000000: 753e 5ebe 1dc8 b13d 8819 4d3d 1a57 0abe
00000010: e9a6 883e 6cdd 973e 9755 8b3e 5408 a83e
00000020: 42b2 af3e a7f8 f73d fef6 46be 9fc2 7b3e
00000030: fb98 b7bd bfc6 60be cd39 653e 1ca9 62be
00000040: addd 10be 8c4b 2dbe 74a7 323e e28e 353e
-0.21703513 0.08680747 0.050073177 -0.13509789 0.26689842 0.2966112 0.27213737 0.32818854
0.34315687 0.121079735 -0.19430158 0.24585961 -0.089647256 -0.21950816 0.2238533 -0.22134823
-0.14147063 -0.1692335 0.17446691 0.17730287

conv1.0.bias f4 [4]
00000000: 763c b53e 2a8e 82be cb7a aa3e 1e54 d3be
0.3539769 -0.25499088 0.3329681 -0.41275114

conv2.0.weight f4 [8, 4, 5]
00000000: 99e1 48be 5b65 d33d a71c 063e 353a e03d
00000010: 87aa 003e 726a 6e3d 0904 90be 1dff b43c
00000020: a4cb 5e3d d654 98bd 5f9d 9fbd 3bf2 06be
00000030: fb9c 563d b3e7 dabd 74e6 5ebe 4b90 21be
00000040: f956 e0bd 64a3 2dbe d850 b03c cf48 2ebe
00000050: fac4 df3c 9dfb 193b cef0 b4bd f951 6bbe
00000060: e67f 773d c0b1 29be 1636 d93d c599 1ebe
00000070: bdad a6bd 2de7 303e 5389 c0bd e530 f13d
00000080: 5054 6dbe a336 b23d 2766 123e e6c9 adbd
00000090: 13c0 4dbd b194 013d 1460 dabd 125f 98bc
000000a0: d1f9 f7bd 3963 9ebd 6dff 33bd e4d5 63be
000000b0: 8d21 18be 28e7 3e3e 6422 33bd ecb9 363d
000000c0: a9f3 09be a175 803c 77e5 03be 3ceb 14be
000000d0: 5543 36be aee7 57be 06b5 9c3d 88f8 41bd
000000e0: 010c 5abe da54 1dbe 15f2 e63d 55d2 ba3d
000000f0: f0e8 23be 5dbf 49be 7805 4b3d 6990 37bd
00000100: 5b57 06be f841 18be 25fe f5bc af71 843d
00000110: d800 3db8 e7f8 4dbe bdef d63b 41a2 023e
00000120: e7af 15be aa4f 1a3e e515 da3d b5d3 143d
00000130: c331 80be 0a76 8abe c2a1 01be eab4 25be
00000140: 021d 8ebe 4c23 3c3e 4644 923c 1857 e43d
00000150: 5d66 0fbe 92b8 303c a42d 7dbe 07a9 1d3e
00000160: c721 0abe 2a2c 193e 55be 2cbe a626 5abd
00000170: 6ea1 57be 2315 1f3d 8c0f 65be 41ce 82be
00000180: 4d68 3c3d 1f61 fcbc f9a1 f43d 5024 8cbd
00000190: 2795 56be 661a 4abd 111b aabd e776 86bd
000001a0: b553 703d 4b8c d1bc ae7e a93d c0ee b43d
000001b0: 0845 4cba e642 63be e059 42be 90ce 72be
000001c0: 9c7c ea3d c076 6bbe 0625 06bc 2a31 e53d
000001d0: f9eb 89be a32e 213d 85d6 4dbe 7363 dc3d
000001e0: 6ef6 cf3d 6cd9 383d 1608 503d 866c 953c
000001f0: ef75 cc3d ee8d 50bd 10f5 873d 6b56 1ebe
00000200: 5218 2b3e ced6 543d 2e02 a9bd a858 033e
00000210: 06a0 e13d b369 fe3c fe8f b63d 103f 7cbd
00000220: 76a4 113c 368f 4dbe 3d92 35be bc32 a83d
00000230: 6580 64bd 7d4f 4abd cfc6 c23b a045 893d
00000240: dcff 843c b79c 0f3e 2fda e23b aa50 0c3e
00000250: 4a2a 7d3d 13e0 37bd d857 8dbd 1224 013e
00000260: e443 7abc 9e4a a6bd f4fe a03c 1490 b03d
00000270: 1484 563d 74dd e23d bd5e 333d 06db 9b3d
-0.19617309 0.103220664 0.13096868 0.10948602 0.12565051 0.058206983 -0.2812808 0.022094304
0.054393426 -0.07438056 -0.07793688 -0.13178341 0.052395802 -0.10688724 -0.21767598 -0.157777
-0.10954089 -0.1695686 0.021522924 -0.17019962 0.027315605 0.002349592 -0.08834992 -0.22980489
0.060424708 -0.16571712 0.10606019 -0.15488346 -0.08138607 0.17275687 -0.094011925 0.11776904
-0.23176694 0.087018274 0.1429678 -0.08485775 -0.050232004 0.031635944 -0.10662857 -0.01860002
-0.121081956 -0.07733769 -0.043944765 -0.22249562 -0.14856549 0.18642867 -0.04373397 0.044610903
-0.13471855 0.01568109 -0.12880503 -0.1454286 -0.17799123 -0.21084473 0.07651715 -0.04735616
-0.21293642 -0.153644 0.11276642 0.09122149 -0.16006827 -0.19701906 0.049565762 -0.044815455
-0.13119261 -0.14868915 -0.030028412 0.06466996 -4.5061897e-05 -0.2011448 0.0065593407 0.12757207
-0.14617883 0.15069452 0.10648707 0.036334712 -0.25037965 -0.27043182 -0.12659362 -0.16182294
-0.27756506 0.1837284 0.017854821 0.11149424 -0.14003892 0.0107861925 -0.24724442 0.1539651
-0.13489448 0.14958254 -0.16869481 -0.053259514 -0.21057674 0.038838517 -0.22369212 -0.25547984
0.045997906 -0.03080803 0.11944956 -0.068428636 -0.20955335 -0.04934158 -0.08305944 -0.065656476
0.05867358 -0.025579592 0.08276115 0.088346004 -0.0007792269 -0.22193488 -0.18979597 -0.2371161
0.114495486 -0.22994518 -0.008187538 0.11191018 -0.26937845 0.039351117 -0.20101364 0.10761156
0.101544246 0.045129225 0.05078896 0.018240225 0.099834315 -0.050916605 0.06638539 -0.15462653
0.16708496 0.051962666 -0.08252369 0.12826788 0.1101685 0.03105626 0.08914183 -0.06158358
0.008889308 -0.20074162 -0.17731567 0.08212802 -0.05578651 -0.049392212 0.00594411 0.06702733
0.016235285 0.14024626 0.006922982 0.13702646 0.061807908 -0.04489143 -0.069015205 0.12611416
-0.015274975 -0.08119701 0.019652821 0.08621231 0.052372053 0.11077395 0.04379152 0.07610135

conv2.0.bias f4 [8]
00000000: 6263 d33d 22fe b5be 9a7b acbd 3156 6dbe
00000010: d5e6 b7bd cff9 96be 9ac3 893c 2b9b 0d3e
0.1032169 -0.3554545 -0.084220126 -0.2317741 -0.089795746 -0.29487464 0.016816903 0.13828723

conv3.0.weight f4 [16, 8, 5]
00000000: 56b2 bd3b 1472 89bc 4fd7 bebd b212 9c3d
00000010: c11e dbbd 7987 8b3d ae74 0c3d 9cea f1bc
00000020: 6446 f13b b367 0d3e 5626 2dbb 2407 583d
00000030: 8b3e 84bd 524a dd3d 8fb3 8e3d b7c8 b73d
00000040: 553e d53d fd5e 95bd 7e23 233d 267b f6bb
00000050: 9b24 1b3d b360 143c acf1 0e3e 759b babd
00000060: 5e3f 87bd a7be 90bd 0ae1 0e3e fcdf cebd
00000070: 2250 ca3d 7eec ff3d 17bf 4c3d 78d6 47bc
00000080: 1f7a aa3d cb87 7b3d 0a0f 893c 8227 10bd
00000090: ee3e 2c3d 9b7e a23d 61e6 983c 72ad dc3c
000000a0: a872 42bd 7c66 8bbd 510f b83d de68 08bd
000000b0: 6f0a 0e3d 57e5 0d3d 842e cabd d531 86bd
000000c0: b0ec b63d e7ad d53c 9c5d 8c3d 73a6 5c3d
000000d0: 9542 293e d17e 6bbd d06e 13be d135 433d
000000e0: 46d8 b7bd 5c3d 113d 0c3e 76bc 9459 38bd
000000f0: 8bec aa3d 0f2d b23c 5dda f2bd efec 06bd
00000100: 53a9 17be 311e 973d 5f27 213e d28c b93d
00000110: 87aa cebd 2e50 01be 38f7 84bd 8a74 c13d
00000120: affe 82bd d4b2 acbd fbd0 793d ff76 1d3e
00000130: d4a0 323d a871 273d 98af da3c 2e28 82bd
00000140: 9f2e e43c 921e 273d 8307 5b3c bdc0 3f3e
00000150: 6d24 0c3e 86f8 7e3d 9743 073d e0be eb3d
00000160: 59e4 02bd 2fbc 44bd 7253 bbbd e8b0 c2bd
00000170: 0902 043d db2c 033e 6cd4 43bd 8cea e8bc
00000180: af4f 3bbd 07cc 29bd 34fe 1dbe 18b3 6abc
00000190: c58a 2f3d 6db1 c53d 3e67 383e f914 0fba
000001a0: 3b32 0b3e fd35 dfbd 00d8 a3bd 3401 c0bd
000001b0: 4bdc abbd 8b87 873d 8363 7abc 2d5f fabb
000001c0: f838 223e f5c1 083d b821 f439 a03e ab3c
000001d0: b6df 193d e3e6 af3c 1a58 843d 3057 ce3d
000001e0: f0da df3d 7835 c0bd f32b 87bc 7e6a 21be
000001f0: 3d4c f3bb 61ce 4e39 ad16 b63c 65c6 e5bd
00000200: 30ae c1bd 0315 0dbe 7999 603e fb78 11be
00000210: e5e6 3abd bb26 01bd 4f1f f5bd f23d a23d
00000220: c685 19bd a2c2 0b3e 7e46 e8bd 5c50 613b
00000230: ad77 babd d766 8c3d cd4b d83d 26a6 ccbd
00000240: 133b 06be db32 f6bd 472c cabd 747a 56bc
00000250: 9fdb 2cbe f7cb d73c f02e e9bd 6e25 edbd
00000260: c80d a7bd 476a 0ebd ac4c a53d d6b0 3c3d
00000270: cbda 2abd 75ad 8ebd 82f5 e7bc 9ac0 9bbd
00000280: dded 52be 4d1f d73d 64ad 9b3d 0061 adbd
00000290: e2bb cc3d 5d77 893d 5938 3f3b 08cf b43d
000002a0: 633f 51bd d3cd a13c 828c d9bd b296 823d
000002b0: 98b9 e3bc 24ac 743d 05f7 26bc a443 04bc
000002c0: fdc4 cb3d 8bfe 3cbd 860c b73d 99e6 b13d
000002d0: f58f 243c d615 36bd 526b 34bd 669f 5b3c
000002e0: c658 ddbd 7f74 bcbd 456d 9b3d de5b a33d
000002f0: db04 d6bd 52c9 6bbd c9f4 b43d 2ad6 a13d
00000300: 7af1 393d e202 babc 50cd 573c 3dec 483c
00000310: f5ce 003e 3b12 1a3c f29f 773d 0117 cd3c
00000320: 8324 ac3d 6287 803c 5960 e0bb f43c 84bd
00000330: 2ced ca3c 638f a63d b914 29bd a75d 883d
00000340: 2410 8fbd 9e3b 003e aad4 20be d8af d0bd
00000350: c486 873c d066 c73d 3cfd 1f3d e60e 9bbd
00000360: 4a59 a23d d247 053e e16e 04be 1823 84bb
00000370: 42ef 78bd fc71 913c f1f5 98bc cdf4 a83d
00000380: d531 a93c 4425 c23d a956 813d fda9 0b39
00000390: 9d09 15bd fd4e 563c 500b a6bd deda 60be
000003a0: 4f10 fdbd 5a65 c9bc b6f4 e2bd 0d06 4cbd
000003b0: 3f04 6abd 26d9 bdbb 063f 1cbe a9ad aabd
000003c0: 22c7 b33c e366 bb3d 82da e7ba c385 973d
000003d0: 67cd a7bd a910 0bbe 2466 aa3d 559d a23d
000003e0: 1ab7 bbbd a2c4 0cbe cd35 a23d 4a1e a7bd
000003f0: 6df1 683d 2083 ec3d 3596 bd3d dc4b f8bb
0.0057890816 -0.01677803 -0.093184106 0.07620753 -0.10699225 0.06812949 0.034290962 -0.029530816
0.0073631275 0.1380909 -0.0026420555 0.052741185 -0.064572416 0.10805191 0.06967842 0.0897383
0.104122795 -0.07293508 0.03982877 -0.0075220047 0.037876707 0.009056258 0.13959378 -0.09111682
-0.06603883 -0.07067614 0.13953033 -0.101013154 0.09878565 0.12496279 0.049986925 -0.012197129
0.08324074 0.0614088 0.016730804 -0.035193928 0.042052202 0.07934304 0.01866454 0.026938174
-0.047472626 -0.06806657 0.089872964 -0.033303134 0.03467792 0.034642544 -0.098721534 -0.065524735
0.08931863 0.0260839 0.06853792 0.053869676 0.16529305 -0.05749399 -0.1439774 0.047658745
-0.08976798 0.035458907 -0.015029442 -0.045007303 0.08345898 0.021750001 -0.11858056 -0.0329408
-0.14810686 0.073788054 0.15737675 0.090600625 -0.10091119 -0.12628242 -0.06492466 0.09446056
-0.06396233 -0.08432546 0.060990315 0.15377425 0.04361041 0.040879875 0.026695058 -0.0635532
0.027854262 0.04080064 0.01336849 0.18725868 0.1368577 0.06224873 0.033023443 0.11511016
-0.03195605 -0.04803103 -0.09146775 -0.095063984 0.032228503 0.1281008 -0.047810003 -0.028432153
-0.04573029 -0.04145434 -0.15429002 -0.014324926 0.04285695 0.09652982 0.18008134 -0.0005458142
0.1359338 -0.10898969 -0.08000183 -0.093752295 -0.08391627 0.0661765 -0.0152825145 -0.0076407404
0.15842044 0.033388097 0.0004656443 0.020903885 0.037566863 0.0214724 0.064621165 0.100752234
0.10930431 -0.09385198 -0.016500449 -0.1576328 -0.00742486 0.00019722573 0.02222761 -0.112194814
-0.09457052 -0.13777547 0.21933545 -0.14206307 -0.045630354 -0.031531077 -0.11968862 0.079219714
-0.037481092 0.13648465 -0.1134157 0.0034380173 -0.091048576 0.06855553 0.10561333 -0.09992628
-0.13108473 -0.12021419 -0.098717265 -0.013090719 -0.16880654 0.026342375 -0.11385906 -0.11579405
-0.081569254 -0.034769323 0.080712646 0.04606708 -0.041712563 -0.06966678 -0.02831531 -0.07605095
-0.2059855 0.10504017 0.07601431 -0.08465767 0.09996773 0.0671222 0.0029177873 0.088285506
-0.05108584 0.019751465 -0.10622503 0.06376399 -0.027798459 0.05973448 -0.01019073 -0.008072767
0.09949682 -0.04614119 0.089379355 0.08686561 0.010044088 -0.044454418 -0.04404766 0.013404703
-0.10807948 -0.09201907 0.07589201 0.07976507 -0.10450145 -0.05756504 0.088357516 0.07902177
0.045396306 -0.022706453 0.013171509 0.012263355 0.12578948 0.009403761 0.06045527 0.025035383
0.084054016 0.015689556 -0.006847423 -0.064569384 0.024771295 0.081328176 -0.04127953 0.06658488
-0.069855005 0.12522742 -0.15706125 -0.101897895 0.016543753 0.09736407 0.039059862 -0.07571201
0.07927187 0.13015679 -0.12932922 -0.004032504 -0.06077505 0.017754547 -0.018671962 0.08249817
0.020653645 0.09479764 0.06315357 0.00013319399 -0.03638612 0.013080356 -0.081076264 -0.21958491
-0.12356626 -0.024584461 -0.11081831 -0.049810458 -0.057132956 -0.0057937084 -0.15258417 -0.08333904
0.02194554 0.091504835 -0.0017689022 0.0739856 -0.08193474 -0.13580574 0.08320263 0.07940165
-0.09165783 -0.13746884 0.07920418 -0.08160074 0.056870867 0.115484476 0.09257165 -0.0075774025

conv3.0.bias f4 [16]
00000000: c0d8 c73d 9389 2f3e 0c5d c2bb 9cb1 1dbd
00000010: 2852 0d3e 0771 5e3c e5ec 22be e77e 1bbe
00000020: 0023 29be cd97 8cba ae32 e3bd 5933 f33d
00000030: 6fc9 2abe b496 d7bd cd58 5f3d 874c 9b3d
0.09758139 0.17142324 -0.005931502 -0.03849946 0.13800871 0.0135767525 -0.1591068 -0.15185128
-0.16517258 -0.0010726393 -0.11093651 0.11875028 -0.16678403 -0.10526791 0.054528046 0.07582956

conv4.0.weight f4 [16, 16, 5]
00000000: 2dae 75bd cd0f 96bc eacd 91bc b07b 8ebd
00000010: dd36 453d aaa7 6fbd a5f2 8dbd a771 823d
00000020: 981d a63d da6d a5bc cc66 ccbc 1684 a6bb
00000030: 686a 1b3c 3e78 2a3d 5c8c 083d 6b2f aabc
00000040: acbf 623d 50c5 5abd 4cc6 9a3d f6da 97bd
00000050: b30c 18bd 9c7d e5ba 3c9a a2bd f065 f4bd
00000060: c9c6 dbbc b8c7 0c3d da65 8abc 00de 51bd
00000070: 77d1 08bb d27a b6bd 977b b5bd 064e 3bbd
00000080: fd25 003d ed21 f6bc e105 d9bc 72cf 77bd
00000090: d2a1 633d c745 b0bd 1bca a3bd 0b2f 00bc
000000a0: eac3 093d d113 3c3d bc5b fa3c eb0f acbd
000000b0: 0689 8d3c 8ae0 aabc cd66 353d 4baa 2abc
000000c0: 548d adbd 9b02 91bc 0fba adbc 2724 523b
000000d0: c2ef 59bc f56d 0b3d 3473 b3bd 142d 3d3d
000000e0: 9a6a 34bd 2f56 b43c bd28 efbb d111 173d
000000f0: a374 64ba df6a 02bd cc5e 973b 2a53 d63b
00000100: 88b2 74bd fc53 653d b769 d3bd d9f4 a03d
00000110: a027 2e3d 45ee cdbb 0cdf 71bd 17f6 113d
00000120: e7c1 3bbc 459f 44bd 8415 7abd d83f 6ebd
00000130: 22b5 90bd 5ec1 99bd 7f7c 3dbd 0775 b4bd
00000140: 86e5 39bc 8dcb 9e3c 1398 1bbc 4614 bc38
00000150: f9e6 b4bd d915 a7bc 7397 d4bd 76e8 803d
00000160: 17af c4bd 9936 073b eea4 96bd e96f bebd
00000170: 00de 87bd 86c1 a0bd d85b 303d 2686 debd
00000180: dedf 1f3d 737d e53c ed6f 793d 6ad3 573d
00000190: f95d 32bd 3433 f8bd 5899 3fbd 970c 75bd
000001a0: 69ab 863d 01c4 16bc f238 ecbc 5363 713b
000001b0: d195 813d 7878 86bd 72bf 9dbd f5f9 73bd
000001c0: e426 b1bc f9b6 8fbd 38d2 e53d 6c9d 8ebd
000001d0: 3541 56bd c69b e43d 8424 d739 cc65 1a3d
000001e0: 16f1 3abd 9159 dcbb ee50 3fbd c938 b6bd
000001f0: a8fb a9bd aed4 b0bd cba0 bf3b ac76 583d
00000200: f1a7 5bbd 1c4f 86bd 606d 653d d2cd b4ba
00000210: 368f 73bd 1625 b4bb fb9e d83d 2fb5 38bd
00000220: 3b57 053d 9de9 cfbc 35b6 e4bd 083a fabb
00000230: 588a 9ebc 4e85 a73c 83e0 1f3d 7cea b93c
00000240: e1ee b4bc 2889 08bd 29f1 7c3d eb87 883d
00000250: c861 8b3a 5d5f 083d e0c0 533d b3f9 90bd
00000260: ec88 463c 3c8b 9d3d 56e6 993d d833 55bd
00000270: 3f6b 563d 5e40 aabb 61cf edb9 ed55 ccbd
00000280: 9e80 583c 4b8d c43c c669 de3c c85c 363d
00000290: ee9a 823d f5de 66bc 8870 7bbc e63c 563b
000002a0: 5e2e a13a 18fa 073d 3018 823c df68 033d
000002b0: 6f0c 63bc 63cb 92bc c921 81bc ba77 dfba
000002c0: 8a25 f03c e5c4 efbb 5adc 82bd 5b73 febc
000002d0: f150 01bd 0694 2d3b 1bfa de3c 0939 393d
000002e0: 053c 8f3d 4ea1 06bd 03ef 5bbd baa9 e1bc
000002f0: e9a6 eabc 73ed e1bb cdbc 76bd fdf4 363d
00000300: a83a 4abd f4f0 7e3c 1025 cfbd 44c2 c5b8
00000310: 5a96 e2bb e2fa ae3d c1b5 0dbe 424d 22bd
00000320: 0511 73bd f365 0b3d a175 723d 6145 ec3c
00000330: 8044 923d a6e4 82bb 605d 96bc b60b f2bc
00000340: 57bf 86bd e727 f5bd 4da3 ed3b 85fb 49bd
00000350: 1629 023d 03c8 98bd 528b fbbd 6edf a2bd
00000360: 77d8 45bc 711e 9c3d d1b7 82bc 9aac 9d3c
00000370: d819 4abc 4e7e 2cbd 12c7 89bc 8073 92bd
00000380: 3526 7f3c 98ee 1dbd 3c5e a6bc e1c1 343c
00000390: ebd9 0fbb a6e5 dbbd 07a8 41bd 8e0b 3ebd
000003a0: 7415 bf3c daea 18bc b092 9cbd 5ae0 5fbc
000003b0: 2549 8cbc 7572 113d a86c f63c e74a a03c
000003c0: bf5a 84bd fd24 593d bbd8 e1ba a26c 96bd
000003d0: 3f55 223d d088 55bd 2339 8bbd 4d5a efbc
000003e0: 4981 1bbd 93b9 2b3d 63fb 633b c4d1 503d
000003f0: e0ba 873c 7802 e3bb 8525 cbbd eb03 4bbd
-0.05998056 -0.018318081 -0.017798383 -0.06957185 0.048148025 -0.058509506 -0.069310464 0.06369334
0.08111113 -0.020193983 -0.024951361 -0.005081664 0.009485818 0.041618578 0.033336982 -0.020774564
0.055358574 -0.053410828 0.075573534 -0.0741481 -0.037121486 -0.0017508748 -0.07939574 -0.119335055
-0.026828187 0.034370154 -0.01689427 -0.051237106 -0.0020876804 -0.08910145 -0.088614635 -0.045728706
0.03128623 -0.030045474 -0.026492061 -0.06050057 0.055574246 -0.08607059 -0.07997533 -0.007823716
0.033634104 0.045917336 0.03056132 -0.084014736 0.017277252 -0.020859022 0.04428749 -0.010416578
-0.08474222 -0.017701438 -0.021206884 0.0032065006 -0.013301792 0.03404041 -0.087622076 0.046185568
-0.044046976 0.022013752 -0.0072985576 0.036882225 -0.000871489 -0.0318402 0.004619455 0.0065406756
-0.059740573 0.055988297 -0.10322898 0.07859201 0.042518258 -0.0062845075 -0.059050605 0.03563508
-0.011459804 -0.048003454 -0.061055675 -0.058166355 -0.07065798 -0.07507585 -0.046261307 -0.08811384
-0.011346227 0.01938417 -0.009496707 8.968315e-05 -0.08833117 -0.02039616 -0.10380449 0.062943384
-0.09603708 0.0020631908 -0.073556766 -0.09298689 -0.0663414 -0.07849412 0.04305634 -0.108654305
0.039031856 0.02801392 0.060897756 0.052691855 -0.04354665 -0.12119141 -0.0467771 -0.05982646
0.06575663 -0.009202004 -0.028835747 0.0036832883 0.06327403 -0.06565946 -0.07702531 -0.05956455
-0.02162499 -0.07017321 0.11221737 -0.069636196 -0.05230828 0.11162524 0.00041035202 0.037694737
-0.045640074 -0.0067245443 -0.04670804 -0.0889755 -0.08299953 -0.086343154 0.0058480254 0.05284755
-0.05362696 -0.06558058 0.05601251 -0.0013794249 -0.05946275 -0.005497585 0.10577198 -0.045094665
0.032553893 -0.02537995 -0.11167566 -0.0076363124 -0.019353077 0.020449307 0.03903247 0.022694819
-0.022086563 -0.033333927 0.061753426 0.06666549 0.0010634 0.03329407 0.05169761 -0.07078876
0.012117606 0.076925725 0.07514636 -0.052051395 0.05234837 -0.0051956614 -0.00045358672 -0.099773265
0.0132142585 0.023993155 0.027150046 0.044522077 0.06377207 -0.014091243 -0.015346654 0.0032690107
0.0012297144 0.033197492 0.015880674 0.032082435 -0.013857945 -0.017919248 -0.01576318 -0.0017049231
0.029314775 -0.007317173 -0.06389685 -0.031060865 -0.031571332 0.0026485934 0.027218869 0.04522041
0.0699387 -0.032868676 -0.053694736 -0.027546752 -0.028644042 -0.006894761 -0.06023865 0.044667233
-0.049372345 0.015560377 -0.10114491 -9.429877e-05 -0.006914896 0.08543946 -0.13838865 -0.03962446
-0.059342403 0.034032773 0.05919421 0.028841676 0.071419716 -0.003994542 -0.018355072 -0.0295466
-0.06579464 -0.119705014 0.007252133 -0.049312133 0.031777464 -0.07460024 -0.122824326 -0.07952772
-0.012075535 0.07622994 -0.015956791 0.019247342 -0.012335263 -0.04211264 -0.016818557 -0.07150936
0.015573074 -0.03855762 -0.020308606 0.011032552 -0.0021949958 -0.10737161 -0.047279384 -0.04639774
0.02332566 -0.009333337 -0.07645166 -0.013664329 -0.017124722 0.035509545 0.030081108 0.019566966
-0.06462621 0.05301379 -0.0017230728 -0.07344939 0.03963208 -0.052132428 -0.06798007 -0.029217863
-0.037965093 0.041925024 0.003478729 0.050981298 0.016568601 -0.0069277845 -0.09919266 -0.049564283

conv4.0.bias f4 [16]
00000000: 09a6 2c3e 60f9 0abe dfe4 4abe 8f97 7b3d
00000010: eca9 85bc 24a9 24be dc66 57bd b7b2 b6bd
00000020: f8de 5dbc 07a8 8ebc d271 dcbd d08a e7bd
00000030: f41a b53c 8825 ea3c 8041 e33d 2ef5 b2bd
0.16860212 -0.13571692 -0.1981387 0.061423834 -0.016316377 -0.16080147 -0.05258833 -0.08920806
-0.013541929 -0.017414106 -0.10763897 -0.11305773 0.022107579 0.02858235 0.110964775 -0.087381706

conv5.0.weight f4 [16, 16, 5]
00000000: 3c02 2b3d 70da ddbb 4695 ae3d f484 6f3d
00000010: a647 44bd ce8f cabd d057 f83c 742c 6cbd
00000020: b063 3abc 9460 adbd 0e11 89bd cb05 cbbd
00000030: 28c5 5a3d 5022 c63b 80c0 f7bb cc9d 4b3d
00000040: e2df d0bd 487e a43d 4476 393d c765 a5bd
00000050: 116b 91bd 9898 9dbd 00f0 b7ba 58c9 593d
00000060: 00e6 9cbd 092b e3bd f4af 6c3d a015 b2bb
00000070: 6638 b73d 58f1 40bd 70da 99bb 701d abbc
00000080: 2ac0 e13d 34e9 d93d e8da aa3d 8027 8bbd
00000090: 100f 8a3c d178 dcbd b67b 843d 8834 5f3d
000000a0: 16dc 65bd b0c6 3c3c dc10 d6bc 8270 aabd
000000b0: cc2c e4bc dd3b debd 38bb 293c c0b6 44bb
000000c0: 8c3a 493d 93fc ccbd a6c8 85bd 1a21 2ebd
000000d0: c43e fdbc 4041 c73c f209 c83d 6012 923d
000000e0: 17ac 84bd 8055 c53b 6bbc 99bd 3035 953d
000000f0: 6ef1 0dbd bc1b b4bd fe0e c43d b232 df3d
00000100: 7412 4d3d 5c72 513d e823 453d f8f7 4d3d
00000110: 9663 803d 995e c5bd 3c78 90bc 0c6f 95bd
00000120: a77a 5fbd 7eb3 cebd 7c91 783d 5ec8 8abd
00000130: 6be7 b6bd ec4c 1f3d 00a3 c9bd b00a 93bc
00000140: 6615 adbd 4cfb 05bd d080 7d3c 932d 75bd
00000150: 40e8 f13b 700b 4e3c c893 e33c ce39 c23d
00000160: f255 adbd f47c 9f3d 2869 703d 3280 73bd
00000170: 06f9 c53d 505e cdbb 50df a1bd 0436 81bc
00000180: 108b a43c 2e01 d9bd 34ff 3f3d 32ae c03d
00000190: 0484 c7bc 8820 a73c 046d 373d 0dc3 c8bd
000001a0: 714a 6abd 9a4a 993d 189b ba3c b071 af3c
000001b0: 3e5b b33d 9201 42bd 1cd7 df3d d848 e03d
000001c0: f4aa c03d 184d d13d 80a8 f0ba c857 cc3d
000001d0: b09e 733d 42af 05bd 740a 6a3d 109d f73b
000001e0: 70de b43d 64bf bdbd 008d 3e3d 0227 2fbd
000001f0: 9f36 50bd 1cb6 5cbd 7e4c 8dbd 10d0 413c
00000200: b5cf b6bd 4cc0 42bd ddd1 a5bd 2731 b4bd
00000210: e493 c53d 5058 753d 6875 20bc 2c0e 20bd
00000220: 84e0 8d3d e876 bd3d 5aef 833d 6875 983c
00000230: aa89 7fbd f95f dbbd f88c 3d3c 1cff 9b3d
00000240: 062f 9bbd 8896 50bc 88bc cc3c 8e3a 4dbd
00000250: 90bb ee3b c088 99ba 0010 e0b7 409c 8dbb
00000260: 2826 b93d c0f5 cd3c 88c7 90bd 3a78 883d
00000270: f4c2 e3bd e019 bc3c f355 7dbd 0d23 5ebd
00000280: 3862 95bd 4b82 95bd 5e1a a5bd 984a 0a3d
00000290: 2c5f d63d 8a5e 833d 88fe da3d c144 a9bd
000002a0: cc5b dbbc 5c89 cf3d ee1e a0bd 1e6a ab3d
000002b0: 28f3 543c 30f3 df3b c239 a13d fc88 c73d
000002c0: e448 86bd f832 ddbc 3e74 9f3d 9e60 25bd
000002d0: b91c d0bd 83f4 73bd 4cdb 52bd 54ed 863d
000002e0: b085 d6bc 3868 67bd a2df 933d c65e 25bd
000002f0: 0001 a6ba 4005 b1bc e28b d83d dee3 b43d
00000300: 1a2f b5bd b872 603d 98a3 00bc 8026 11bb
00000310: 5c8b 9e3d e86d 8bbc 3031 9ebd 606a b3bb
00000320: 087f 483d 2ca1 c03d 9192 cabd 0443 6c3d
00000330: 94cb fbbc 6e2f ce3d 40f5 74bc 207d 133c
00000340: c0a9 4ebc 0070 0638 60e5 0cbb 3936 c5bd
00000350: b047 673d 70d0 b5bb 7824 4f3d 4886 943c
00000360: 603b 2fbc 9890 083d 64a9 95bd 04a9 15bd
00000370: 9c43 a73d b819 b2bd da13 afbd 185e fe3c
00000380: 5cf3 e23d 3051 a9bb 60b0 ff3c 9e9e dd3d
00000390: ad98 5abd a8c2 b23d 8e13 8b3d 00e0 d8b8
000003a0: baa6 12bd 309e 193c 7011 edbb 57a2 e2bd
000003b0: 1abc 25bd ec81 013d 1c8b 843d 3497 b53d
000003c0: 1ef4 d93d 4c7e 133d 3665 983d 4dfa 57bd
000003d0: f8ce 51bc 8c48 453d e871 b63d 7397 b2bd
000003e0: 0855 8dbd 0028 0339 485d de3d 9807 fdbc
000003f0: e484 6cbd b007 6a3d bbe3 d7bd 40c6 b53a
0.041750178 -0.0067704245 0.085245654 0.058476403 -0.04791989 -0.0989071 0.03031531 -0.05765958
-0.011376306 -0.084656864 -0.06692706 -0.09913214 0.05341068 0.006046571 -0.0075607896 0.049711034
-0.10198952 0.08031899 0.045278803 -0.08076053 -0.071004994 -0.076951206 -0.0014033318 0.053170532
-0.076610565 -0.11092193 0.05778499 -0.005434707 0.08946304 -0.047105163 -0.004695229 -0.02088806
0.110229805 0.10640183 0.08342534 -0.067946434 0.016852885 -0.107652314 0.064689085 0.054493457
-0.056118093 0.01152198 -0.026131086 -0.083222404 -0.027853392 -0.10851262 0.010359578 -0.0030016154
0.0491281 -0.10009112 -0.06532411 -0.042512037 -0.030913718 0.024323106 0.09767522 0.07132411
-0.06478136 0.0060221553 -0.07506641 0.07285535 -0.034654073 -0.087943524 0.09573172 0.10898341
0.050066426 0.051134452 0.048129946 0.05028531 0.062689945 -0.09637184 -0.017635457 -0.07296571
-0.05456033 -0.10092829 0.06068562 -0.06776498 -0.08930858 0.038891718 -0.09845543 -0.017949432
-0.08451347 -0.03271036 0.015472606 -0.059857916 0.0073824227 0.012575969 0.027780429 0.094836816
-0.084636584 0.07787505 0.058694035 -0.05944843 0.09666638 -0.0062673464 -0.079039216 -0.015772827
0.020085841 -0.10595928 0.04687424 0.09408225 -0.024354942 0.020401254 0.0447817 -0.09802828
-0.0571999 0.07484932 0.022779033 0.021416515 0.087576374 -0.04736478 0.10929701 0.10951394
0.09407607 0.102197826 -0.0018360764 0.099776804 0.059477508 -0.032637842 0.057138875 0.007556565
0.08831489 -0.092650205 0.046521187 -0.04276181 -0.05083334 -0.05388461 -0.06899355 0.011829391
-0.08926336 -0.04754667 -0.08096669 -0.087984376 0.096473485 0.059898674 -0.009793617 -0.039076015
0.069275886 0.09251195 0.06442137 0.018610671 -0.062387146 -0.10711665 0.011569254 0.076170176
-0.075773284 -0.012731202 0.024992242 -0.05010467 0.007285543 -0.0011713728 -2.6710331e-05 -0.004321605
0.09040481 0.025141597 -0.070693076 0.066635564 -0.11121169 0.022961557 -0.061849546 -0.054232646
-0.07294124 -0.07300242 -0.0806167 0.033762544 0.10467371 0.06414516 0.10693079 -0.08265067
-0.02677717 0.10133621 -0.07818399 0.083698496 0.012997426 0.00683441 0.078723446 0.097429246
-0.065568715 -0.027001843 0.07785843 -0.040375344 -0.101617284 -0.059559356 -0.05147867 0.065882355
-0.026186794 -0.056495875 0.07220389 -0.040373586 -0.0012665093 -0.021608949 0.105735555 0.08832525
-0.088468745 0.054796904 -0.007851504 -0.0022148192 0.077414244 -0.01702018 -0.077242255 -0.0054753274
0.04894927 0.09405741 -0.098912366 0.0576811 -0.030736722 0.1006764 -0.01495105 0.009002
-0.012613714 3.2052398e-05 -0.0021499023 -0.09629483 0.05646485 -0.0055485293 0.05057189 0.018130437
-0.010695308 0.03334102 -0.07307699 -0.03653814 0.08167192 -0.08696312 -0.08548708 0.031050727
0.11081573 -0.005167149 0.031212032 0.108212695 -0.05336826 0.08728534 0.06790839 -0.00010341406
-0.035803534 0.009376094 -0.0072347447 -0.1106612 -0.04046259 0.031618044 0.064718455 0.0886673
0.10642265 0.036009118 0.074411795 -0.05272894 -0.012805693 0.04816489 0.08908445 -0.08720293
-0.06900984 0.00012508035 0.10857636 -0.03088741 -0.057743922 0.057136238 -0.10541483 0.0013868287

conv5.0.bias f4 [16]
00000000: 549f adbc 4a4d d2bd 9ebf 8cbd 005f 793c
00000010: d84b ff3c d42b 5d3d 8e58 69bd e828 853d
00000020: b0e2 8fbc 4206 943d 40b1 6e3d 90cc b43d
00000030: c466 313d 30b1 fe3b 8045 b33a 885a c2bd
-0.021194138 -0.10268648 -0.068724856 0.015220404 0.031164095 0.053996876 -0.056969218 0.06501943
-0.017564148 0.07227756 0.058274508 0.0882808 0.043310896 0.0077725872 0.0013677329 -0.09489924

conv6.0.weight f4 [8, 16, 5]
00000000: d015 cd3c d4cd c53d 2673 d33d bc19 7c3d
00000010: 30d4 2d3d 87d5 cdbd 42d6 c53d b488 a7bc
00000020: d408 393d 2057 4e3c 90ec b1bc 100f cc3c
00000030: fa09 e23d b854 94bd 5269 01bd e8aa 0e3d
00000040: 802e ba3c f2bd 42bd 6625 ac3d 3581 a7bd
00000050: 86bb d13d 685d eebc 8c45 eabc 68eb 90bd
00000060: 30e7 8abd 9a32 af3d f496 34bd 429e 65bd
00000070: b8a2 7fbc cca4 de3d a4fc 283d 882d e43c
00000080: f405 82bd d853 8dbd 4832 0c3d ceee b13d
00000090: cbdc 62bd ecc0 d8bc e08c c0bd 0047 67bd
000000a0: 7817 b5bd 7a75 30bd b4d2 d93d 684e c03d
000000b0: 3420 763d 1de6 c8bd 7e2b debd eef9 69bd
000000c0: 5790 c3bd 7624 d43d 095c 5abd 129b df3d
000000d0: d0fb bc3c e836 b73c b0d3 f33c 2009 83bb
000000e0: 1bd9 64bd b1b0 8dbd 24a8 febc c872 94bd
000000f0: 7808 e83c 208a 4e3c 84b3 803d 7c7c 543d
00000100: 0001 1cbc 708d 0bbc 3c40 353d 8636 c23d
00000110: 1394 b6bd aa87 1abd a8a8 e03d a045 62bc
00000120: 8889 ca3d e2ad 19bd 0cf8 173d 0480 623d
00000130: 9582 5cbd a006 833c 9016 be3c e03a 223b
00000140: e068 cfbd 10a4 363d 9a39 b2bd f8f2 b13d
00000150: 44ab 2f3d fe51 c23d 9ebf b53d 061d 44bd
00000160: 4274 a6bd 2475 b4bc 384b 8e3c 08aa c3bd
00000170: 98bc 8d3d 2cb2 ac3d 4875 bcbd 220a a2bd
00000180: b676 c63d 9e18 26bd ee33 30bd 8a2e cd3d
00000190: ff4a 50bd ae30 38bd a06d c23d 9863 9dbd
000001a0: e0cf 843c dd9a 7dbd 2caf 9bbd e65c ac3d
000001b0: 30f3 603d f40e d4bc 204f 1e3b 746f 613d
000001c0: 3835 b0bd 2cb0 df3d b66a 5bbd 1479 373d
000001d0: 40ea 653c 70f8 f9bb 5048 6d3c 2022 943c
000001e0: 9426 3f3d cec1 803d 10a9 8ebc 886d 3abc
000001f0: d07b cfbb 073e 7ebd 1a87 af3d 4875 20bd
00000200: b72b d1bd 6048 c03c 1540 7ebd 3217 ae3d
00000210: fc2d a83d c233 bc3d 5822 8c3d d8e0 303d
00000220: 02e0 a13d 544f 543d 8341 a9bd f436 c7bd
00000230: 183e 4abc 00b1 7b3b 76c2 bb3d 4d70 62bd
00000240: e8e7 7cbd 4a50 6cbd 1817 993c a8be 77bd
00000250: c0f2 e4bc 142e 903d 2856 33bc 7415 4d3d
00000260: c84d 4fbc 2ca9 033d 8468 3c3d de6a de3d
00000270: 0864 313d 3a01 953d f748 dabd 00f3 72ba
00000280: 6084 a6bb 3e4f a2bd 0463 bb3d 86a1 7abd
00000290: 8c9d 913d d8ac 8cbd d072 283d 2c1e d73d
000002a0: ccbc 8fbc 402e 5ebb 26eb 873d 1a4d c1bd
000002b0: 9879 a83c 307d cb3c 78be c03c eaf4 16bd
000002c0: 7644 8bbd efc6 4abd 1e26 d33d 7cec 1a3d
000002d0: c48e ab3d 00fa 0b39 9321 b6bd 1848 d43d
000002e0: b027 7b3d 007d a739 2375 83bd 780e 823d
000002f0: d059 673c 0021 f03c b481 84bd e0d1 d1bc
00000300: 02c7 11bd c4ef d23d cc7b c73d bc43 1c3d
00000310: bc23 7f3d be57 40bd 200a 553b 0086 503a
00000320: aa86 8a3d 8452 c6bd de1b 933d 0c43 70bd
00000330: 703f 3d3d 8099 4f3d 3899 623d 0089 22bb
00000340: 58c8 df3d 94d9 d9bc 365a a23d b67a a0bd
00000350: 7481 dfbc fed9 bb3d 46bf 14bd b8c6 7f3d
00000360: c01e 4c3d 50bb c1bb 0429 7f3d 0a4e 99bd
00000370: aa34 e23d e0ef a0bd a084 a23b 9074 6d3d
00000380: dcac 8dbd 2055 113d d073 39bc e096 b43d
00000390: 3026 bdbc f8ea b63c 56de e13d 00f2 fdba
000003a0: 5c83 723d 1cf4 36bd c75e b5bd 82cd 833d
000003b0: 4222 d63d 30e9 fbbb 6053 433d 16ba 5fbd
000003c0: a097 70bb 942d 9a3d e366 75bd efab 99bd
000003d0: e05e 563b 30f9 2d3d 24e8 debc 9053 633d
000003e0: 7a29 1fbd 4853 d33c dd20 a8bd ca5e 36bd
000003f0: 481f a6bd 6783 b6bd 70b4 863d 7046 e8bc
0.025034815 0.09658399 0.10324697 0.06154798 0.042438686 -0.10050493 0.09660007 -0.020450927
0.045174435 0.012594014 -0.021719247 0.024909526 0.11037059 -0.07242721 -0.031594582 0.034830958
0.022727251 -0.047544427 0.08405571 -0.08178941 0.102408454 -0.029097274 -0.028597616 -0.0707615
-0.06782377 0.08554573 -0.044089273 -0.05605913 -0.01560276 0.10871276 0.041256562 0.027853742
-0.06348792 -0.069007576 0.03422764 0.086881265 -0.055386346 -0.02645918 -0.0940187 -0.056464195
-0.08842367 -0.043080784 0.106358916 0.09389955 0.060089305 -0.098095156 -0.10848139 -0.057123117
-0.09549015 0.10358517 -0.053310428 0.10918249 0.023069292 0.022365049 0.029764026 -0.0039988905
-0.05587111 -0.06918467 -0.031086035 -0.07248455 0.02832435 0.012606174 0.0628424 0.05187653
-0.009521723 -0.008517608 0.04425071 0.09483056 -0.08914962 -0.037727036 0.109696686 -0.013810545
0.09889513 -0.037519343 0.03710179 0.055297866 -0.05383547 0.01599437 0.023204118 0.002475433
-0.10127425 0.044590056 -0.08702393 0.08688921 0.04288794 0.09488295 0.08874439 -0.04787924
-0.08127643 -0.022028513 0.017369851 -0.09553915 0.06920737 0.08432421 -0.09202057 -0.07912089
0.09690611 -0.04055082 -0.043018274 0.10018642 -0.05085277 -0.0449683 0.094935656 -0.076850116
0.016212404 -0.061915267 -0.07601771 0.084161565 0.05491942 -0.025886036 0.002415605 0.05503793
-0.08603901 0.10922274 -0.053568564 0.044793203 0.0140329 -0.007628493 0.014482573 0.018082678
0.04666765 0.06286965 -0.0174146 -0.011378653 -0.0063318983 -0.062070873 0.085706905 -0.039174348
-0.10213416 0.023472011 -0.062072832 0.08500518 0.08211896 0.091895595 0.06842488 0.043183178
0.07904054 0.051833466 -0.082644485 -0.09727278 -0.012343906 0.003840506 0.0916795 -0.05528288
-0.0617446 -0.057693757 0.01868777 -0.06048456 -0.027947783 0.07040039 -0.010945834 0.050069287
-0.012652822 0.032143757 0.04599811 0.10860227 0.043308288 0.072756246 -0.10658448 -0.0009267777
-0.0050816983 -0.079252705 0.09149745 -0.061189197 0.07110128 -0.06868905 0.04112512 0.10503802
-0.01754608 -0.003390208 0.06636648 -0.09438534 0.020565793 0.024839967 0.023528323 -0.036854662
-0.06800167 -0.049506124 0.10310005 0.037823185 0.0837684 0.00013349205 -0.088931225 0.10365313
0.061317146 0.00031945854 -0.064188264 0.06350416 0.014120534 0.02931261 -0.064700514 -0.025612772
-0.03559018 0.10299638 0.09740409 0.038150534 0.06228994 -0.046958677 0.0032507256 0.0007954538
0.067639664 -0.09683707 0.071830496 -0.05865769 0.046203077 0.0506835 0.055321902 -0.0024800897
0.109268844 -0.026593007 0.079273626 -0.07835905 -0.027283408 0.09172438 -0.036315225 0.062445372
0.049834013 -0.005912222 0.062294975 -0.07485588 0.11045201 -0.078582525 0.004959658 0.05797249
-0.06917736 0.035481572 -0.011319116 0.088178396 -0.023089498 0.022328839 0.11028735 -0.001937449
0.059207305 -0.044666395 -0.08855968 0.06435682 0.10455753 -0.00768771 0.047686934 -0.054620825
-0.003671147 0.075282246 -0.059912574 -0.07503497 0.0032710359 0.04247397 -0.027210303 0.055499613
-0.038857915 0.025796548 -0.08209393 -0.04452399 -0.08111435 -0.08911782 0.065773845 -0.0283539

conv6.0.bias f4 [8]
00000000: f18d 71bd c869 ef3c cc10 de3d 70ab 843c
00000010: 3845 773d 1169 bbbd 20c1 4cbc ee29 d93d
-0.058973256 0.029225245 0.108430475 0.016195029 0.060368747 -0.09150899 -0.012497216 0.106037006

fc.weight f4 [3, 352]
00000000: 5ae1 123c 8813 903c d5fd e5bb 7160 16bd
00000010: e57b c93c 7cc8 093d 7419 90bb 9a67 1cbd
00000020: 1b6e e4bc 1b86 2dbd bce5 a3bb 58fa a53c
00000030: c3ef 6b3d 41bd 0a3d 5cc8 3e3d e8cf 4f3d
00000040: 8995 893d 49a8 c43d ebe4 e43d 622b 563d
00000050: 8c1d 123e 05fa a53d 064c 183a ddd4 1bbc
00000060: f4e7 c33b 5044 10bc 1412 d93c 02d2 363d
00000070: 6d60 3ebd 2319 5fbd 87c4 2cbc 4128 9ebc
00000080: f776 3d3d 2baa 073d be9c 00bd 3997 6bbc
00000090: 95ce 98bd 62b3 12bd bb2e ab3d 0c00 393d
000000a0: ccae 003b ee6e f0bd bc2b 8dbd f052 c2bd
000000b0: 8237 1b3c 6065 adbc a330 77bc fe44 20ba
000000c0: ef8a e4bc d6d3 31bc c30d fabb 3798 86bc
000000d0: 80ea 383d e283 99bd 15e4 48bd dd90 3fbd
000000e0: a44f 82bd 42a8 28bb b934 37bd 4f20 90bd
000000f0: 45a9 a2bc fa67 9d3c 83cd a33c 4f89 07be
00000100: ea15 dfbd 26bd 88bd 7c81 893b b0ea 1fbd
00000110: fe94 b2bc 8261 8fbc 21c4 03bc ad45 943c
00000120: b5d6 1c3d 7bdc 693c 6592 0abd e8aa cdbc
00000130: a70a 17bc 9d0e 50bb 5001 4fbc 9545 8d3d
00000140: 35f8 e53c da46 0d3d 891e 363d fc73 db3d
00000150: bd6c 143e 7ba7 1e3d 194a a53c ca32 533d
00000160: d273 aebc b2cf c7bc 2a7e 503b 938f 90bc
00000170: 7081 373d 7069 b83b c23d 14bd 23b1 f5bb
00000180: 9a01 6c3c 9c99 083d 2e8a 133d b27f 463c
00000190: c9f2 8ebd d362 273c f1fa 30bd 23f6 a83d
000001a0: d06f 0e3d ee29 ff3c 427b 343d 2dc9 03bd
000001b0: 648c 37bd 8215 a1bd adb6 163c 34e8 ab3c
000001c0: ba6c 6f3b 4843 5c3d 7a9d 45bd cabb 0739
000001d0: 7846 873c edf8 af3b 3050 733b 7c53 573c
000001e0: e4b2 8cbc c513 21bd 224c 84bd cdb3 393c
000001f0: 9eac a53c acae 71bd 5d98 7ebd 3e05 34bd
00000200: 61ab 19bc e51e f3bd 9f82 9cbd c75b d4bd
00000210: c151 913b e3ab 573b b9e9 6fbd cdeb 09ba
00000220: a9cb 293d e035 383c a526 2b3c 73a2 acbc
00000230: fdf3 64bb e8cb 023d 4877 cebc 8718 5ebd
00000240: 092c 43bc 5088 e33c ce22 a53d fb55 10bc
00000250: 3ac8 ea3c 7421 733c 3d58 813d 9ab0 24bd
00000260: c1c2 f2bd 4ba5 a7bd d1ff 07bd cbaa ecbc
00000270: 074a ad3c 51d6 27bd 01f9 df3c 48c1 c3bb
00000280: 4e1f 8f3c af5a a13b 3014 1a3c aec1 5f3b
00000290: f9a0 963b 0515 513d ca23 d63c 5566 313d
000002a0: 7f67 903c e835 103d 0601 263d 30c1 8cbc
000002b0: 7c22 b63c bb1d debd 7627 bfbd 541f 33bd
000002c0: ca39 1dbd 07cf 4c3d 62e2 fbbc c6e7 c5bc
000002d0: 4f22 9ebc 1edf 02bd 66e0 b93c 5c44 f6bc
000002e0: 1f39 d63b b4e8 8b3c ce48 a23c cfe0 b5bc
000002f0: c926 a0bc b5dc 85bd afa6 a53c b6fb a03d
00000300: bb8c 2a3e 663f 68bd 0da3 923c e7b7 bd3c
00000310: 0bec b13d 6807 2b3d 6e9a 6e3b 420d 9fbc
00000320: 72f4 8539 3503 cbbb 6d6e 0abd ec17 283d
00000330: f5eb 423d 0342 03bd e696 05bc 458e 783a
00000340: dbb2 0dbb 25c6 a0bc 766e efbb a3cb 2d3a
00000350: c43d 033e 2d9b 913d 67e0 47bc 8e5c df3c
00000360: aa55 e0bc 52d5 13be f93b d2bc 715e 15bd
00000370: c905 48bd 014d f0bc eedb 523c a071 453b
00000380: c040 2cba 67a0 22bc 04fa 64bd 14f6 62bc
00000390: 48da 993c 4670 89bd 436f d63c bdb6 273d
000003a0: 8f24 243c 1fe9 09bb d9cc ca3c 82db 8d3c
000003b0: d3de 003d 10a3 613c 9a6d 4cbc 5d9f 44bd
000003c0: 1b71 a0bd 7b96 c1bd d294 f33b 6cbe 9b3b
000003d0: 30d2 15bd 72af af3a 7729 36bc 3dd3 b03b
000003e0: 852d 29bc 76f4 2e3d c029 dcbc e1a6 693d
000003f0: 524b edbc 9dc6 0fbd f711 24bc d240 beba
0.008964861 0.017587438 -0.0070187845 -0.036713067 0.02459521 0.033638462 -0.0043975655 -0.03818474
-0.027884534 -0.04236422 -0.0050017517 0.020260975 0.0576017 0.033871893 0.046577796 0.050735384
0.06717975 0.0960241 0.11176475 0.052287467 0.14269084 0.08104328 0.0005809668 -0.0095112
0.0059785787 -0.0088053495 0.026497878 0.044633873 -0.046478678 -0.05446733 -0.010544903 -0.019306304
0.04625603 0.03312127 -0.03139948 -0.014379316 -0.074612774 -0.035815604 0.083585225 0.04516606
0.0019635437 -0.11739908 -0.06893107 -0.09488475 0.009473683 -0.021166503 -0.0150872795 -0.0006113796
-0.02789828 -0.010853728 -0.007631035 -0.016430004 0.04514551 -0.07495858 -0.04904564 -0.04676901
-0.063628465 -0.0025735055 -0.044728015 -0.070374124 -0.019856105 0.019214619 0.019995457 -0.13235973
-0.10892852 -0.06676702 0.004196344 -0.039042175 -0.02179956 -0.01750255 -0.008042366 0.01809963
0.038290698 0.014273758 -0.03383102 -0.025105909 -0.009218848 -0.0031746991 -0.01263459 0.06898037
0.028072456 0.034491397 0.044462714 0.10715482 0.14494605 0.03873394 0.020176934 0.051562108
-0.021295462 -0.024391029 0.003181348 -0.017646587 0.044801176 0.0056278035 -0.03619171 -0.007497923
0.014404679 0.03334962 0.03602045 0.012115406 -0.06979901 0.010216433 -0.043208066 0.08250072
0.0347746 0.031147923 0.04406286 -0.032174278 -0.04481162 -0.078654304 0.009198827 0.020984747
0.0036533312 0.053775102 -0.048245884 0.0001294456 0.016513094 0.0053702504 0.0037126653 0.013142463
-0.017175145 -0.039325494 -0.06459834 0.011334372 0.020223912 -0.05900447 -0.062157024 -0.04395031
-0.009379239 -0.11871127 -0.076421015 -0.10369068 0.0044347947 0.003290885 -0.058572505 -0.00052612723
0.04145399 0.011243314 0.010446225 -0.021073556 -0.0034935467 0.03193274 -0.025203362 -0.05422261
-0.011912354 0.02777496 0.08063279 -0.008809562 0.028659929 0.014839519 0.06315658 -0.040207483
-0.118535526 -0.08185824 -0.03320295 -0.028890034 0.021153463 -0.040975872 0.027340414 -0.0059739687
0.017470982 0.0049241404 0.009404227 0.0034142542 0.004596826 0.051045436 0.026140112 0.043310482
0.017627476 0.03520766 0.04052832 -0.017181963 0.02223324 -0.108455144 -0.093336985 -0.04373105
-0.03838519 0.050002124 -0.030747596 -0.02415837 -0.019303469 -0.031951062 0.02269001 -0.030061893
0.006537571 0.017078735 0.019810107 -0.022201924 -0.019549744 -0.06536237 0.020221082 0.0786051
0.16655247 -0.056701086 0.017900014 0.02315898 0.086876 0.04175511 0.0036407965 -0.019415502
0.00025549863 -0.0061954507 -0.033796716 0.04103844 0.047588307 -0.032045376 -0.008153653 0.0009481649
-0.0021621499 -0.019625733 -0.007306869 0.00066297705 0.1281653 0.071096756 -0.012199498 0.027265813
-0.027384598 -0.14436844 -0.025663363 -0.03646702 -0.048833642 -0.029333593 0.012869818 0.003012754
-0.0006570928 -0.009925938 -0.055902496 -0.013852615 0.018780842 -0.067108676 0.0261761 0.040945757
0.010018482 -0.0021043492 0.024755882 0.017316584 0.0314625 0.013771787 -0.012477303 -0.048003543
-0.07834073 -0.0945253 0.0074335122 0.0047529247 -0.036577404 0.0013403727 -0.011118284 0.0053962753
-0.010325794 0.042713605 -0.026875377 0.057043914 -0.02896658 -0.03510152 -0.010014049 -0.0014515168

fc.bias f4 [3]
00000000: 2bd5 b33d 4d71 c7bd 058c a8bd
0.08780893 -0.09738407 -0.082298316
