routes/model18.pkl (torch_old, 21935 bytes, 14 tensors)

conv1.0.weight f4 [4, 1, 5]
000000 99 6f 76 be 92 9d 74 3d 31 12 86 bd f6 eb 41 be
       -0.24066009 0.059720583 -0.065464385 -0.18937668
000010 ae e8 88 3e d9 ed 3d be 19 0e 7c be e8 f9 e3 bc
       0.2674002 -0.18547763 -0.24614753 -0.027829126
000020 e7 4e 5b 3e 97 60 e6 3d 79 da f2 bd ba 8c 5f 3d
       0.21416818 0.11248892 -0.118580766 0.054577567
000030 e9 d2 40 bb 09 7e 0f be 71 d7 23 be 4a 94 5c be
       -0.0029422587 -0.14012922 -0.16000153 -0.21540943
000040 f2 e8 a8 be da 22 43 bd 20 c0 98 3e 5e 7b 74 3e
       -0.32990223 -0.04764066 0.2983408 0.23875186

conv1.0.bias f4 [4]
000000 db 04 46 3e c2 7b bf bc c4 a7 1e bf 81 d3 2c 3e
       0.1933779 -0.023374442 -0.6197474 0.16877557

conv2.0.weight f4 [8, 4, 5]
000000 58 15 da 3d f7 2f 5b 3d 8e 7e 51 3e c6 29 16 3d
       0.10648602 0.05351254 0.20458433 0.036660932
000010 5b a5 a0 bd ba 27 da 3c c3 97 11 be ec 41 b9 3d
       -0.07844039 0.026630271 -0.14218049 0.09045777
000020 77 7d 5e 3d 7d 76 8c 3c 36 4e 80 3d 5f 86 a6 3d
       0.05431887 0.017146343 0.062649176 0.08131098
000030 03 90 63 be 04 94 f5 3c 63 ec 0c be 5e e4 4a bd
       -0.22222905 0.029977806 -0.1376205 -0.049534194
000040 63 c8 e1 3c 99 0e 30 be 7f 01 e8 3d 6e 6d 95 3d
       0.027561372 -0.17193069 0.1132841 0.07296263
000050 69 77 65 be 6b ac 31 be ca 8a 5b be 94 c7 d1 bd
       -0.22408833 -0.17350928 -0.21439663 -0.10243145
000060 51 4f ac 3d f2 c8 bd 3c 24 ff 74 3d 4a 99 19 be
       0.08413566 0.023167107 0.059813634 -0.14999881
000070 b4 06 39 be 2f 01 45 be f0 71 15 bd cf 6f 5d be
       -0.18068963 -0.19238733 -0.036485612 -0.21624683
000080 3f 16 b4 3c 4c 22 61 3d ae 40 c4 3d 55 0e 4c be
       0.021983264 0.05496435 0.09582649 -0.19927342
000090 f0 95 21 3e 48 55 3a be 99 2c d9 3d b5 36 bb 3d
       0.15779853 -0.18196595 0.106042095 0.09141294
0000a0 30 82 47 bd f7 78 88 bd 9c 2a e9 3c fb 03 34 3e
       -0.04870814 -0.06663697 0.0284627 0.17579643
0000b0 56 2f 9d 3d f0 b6 84 bd 4b 99 9f bd 06 17 c9 3d
       0.07675044 -0.06480205 -0.0779291 0.098188445
0000c0 52 23 0f bd 0d 39 20 3e 15 68 f4 3d 31 00 a8 bd
       -0.034945793 0.15646763 0.119339146 -0.082031615
0000d0 e9 e7 7b be 0c d4 e9 3c 73 03 74 be 76 d2 73 be
       -0.24600185 0.028543495 -0.23829441 -0.23810753
0000e0 1d 27 03 be 32 84 37 bd d0 cd 37 bc 9d b4 d7 bd
       -0.1280789 -0.044803806 -0.011218503 -0.10532496
0000f0 b5 ce 22 3e 40 ae ca 3d 3a a2 59 be 7f 92 25 3d
       0.15899165 0.09896517 -0.21253291 0.040422913
000100 9f 29 b2 3c 3c 00 ab 3c 10 3e c6 bc 1c c6 49 be
       0.021748362 0.020874135 -0.024199516 -0.19704479
000110 4d 0c f4 bd 5e d0 ac 3d c9 28 d1 3d 51 f1 a2 3d
       -0.11916409 0.084381804 0.10212857 0.07956184
000120 6a bd 9c bc 20 a4 26 3e e5 1c df 3c fd d7 76 3d
       -0.019133288 0.16273546 0.027235458 0.060264576
000130 0b 9a 9d 3d 3b 41 cc bc 99 6f ba 3d 7f ff 50 be
       0.07695397 -0.024933448 0.09103317 -0.20409964
000140 24 c0 65 bd 08 ec 69 be 0e d5 0f 3e ab 42 c7 bd
       -0.056091443 -0.22843945 0.14046118 -0.09729513
000150 d1 c7 94 bd 4c 79 13 3e 34 55 f0 3b 6f b2 55 3c
       -0.072646745 0.1440174 0.0073343758 0.01304303
000160 3f e9 83 3c d6 c1 0c 3e 43 ef c0 3b ee 4d 50 bd
       0.016102431 0.13745818 0.005887897 -0.05085557
000170 62 f8 f0 bd 2d 1d 26 be cc 77 23 be 01 15 4c 3b
       -0.11766125 -0.16222067 -0.15963668 0.003114045
000180 ff 82 0e bd 94 04 d9 bd 9c 13 0e 3e 91 0b bc 3b
       -0.034792896 -0.10596576 0.13874668 0.0057386835
000190 88 74 1e 3c 74 c4 64 be e6 c0 89 be a1 fc e3 bd
       0.009671338 -0.22340566 -0.26904982 -0.111321695
0001a0 1b e8 63 3d 76 9d 18 3e c9 85 5c bd e8 80 69 3d
       0.055641275 0.14903817 -0.053838525 0.0570077
0001b0 42 1d 8f 3d bf 11 63 bd 16 ba 52 3e e6 17 13 3e
       0.06988002 -0.055436846 0.20578799 0.14364585
0001c0 e4 de f6 3c 7b 07 a7 3c 27 01 41 3e 05 f0 f5 3c
       0.03013558 0.02038931 0.18848096 0.030021677
0001d0 b7 bf c8 bd 31 3e 00 3e 5a fd 9f 3c e6 2a 3f be
       -0.09802192 0.12523724 0.019529987 -0.18668708
0001e0 2f c0 71 be d8 4c a2 bd 6f 5a 06 be d0 47 be bd
       -0.23608468 -0.07924813 -0.13120435 -0.09291041
0001f0 c4 60 1d be 55 5f 12 be f2 91 38 3d 7f 19 b1 3c
       -0.15368944 -0.14294179 0.04506106 0.021618603
000200 1f fc 9f bd 19 f8 a2 bd e6 a1 cb 3d 0a e8 c1 3d
       -0.0781176 -0.07957477 0.09942989 0.09468086
000210 cf ac 09 3e cc 7e d4 bd f5 1f 4e 3e 54 4b ee bd
       0.13444827 -0.10375747 0.20129378 -0.116354614
000220 93 10 30 bd eb dc f9 3d 85 08 d2 bd e0 8e ae bd
       -0.042984556 0.1220034 -0.10255531 -0.08523345
000230 49 68 df 3d af 60 46 3d 6f bd 35 be da 08 b9 3d
       0.10908563 0.04843205 -0.17748044 0.090348914
000240 cf b5 66 be e5 ba 55 3d 88 b4 24 be ef d1 82 be
       -0.22530292 0.05218019 -0.16084492 -0.25550792
000250 b9 dc 54 3c 41 58 ba 3d dc 68 52 3e 39 c0 9e bd
       0.0129920775 0.09098864 0.20547813 -0.07751507
000260 71 d5 3e 3e a3 1e 5e bd c9 da 98 bd 01 ea 9a 3d
       0.18636109 -0.054228436 -0.07463605 0.07564164
000270 e7 8b ee 3d 18 4a 65 be e3 29 1f be 22 57 25 bd
       0.11647778 -0.22391546 -0.15543322 -0.0403663

conv2.0.bias f4 [8]
000000 43 0f 82 3e 08 74 db 3d df 2c 32 3e 95 91 fe 3c
       0.2540227 0.107154906 0.1739993 0.031075278
000010 89 f4 fa 3d a8 0d 16 3e 43 a8 11 be c9 83 a5 3d
       0.12253673 0.14653647 -0.14224343 0.08081777

conv3.0.weight f4 [16, 8, 5]
000000 a3 e3 08 3d 7d 50 b1 3d 5c b4 41 bd c1 63 f7 bd
       0.033420216 0.0865793 -0.047291145 -0.120795734
000010 00 28 20 be 7f e3 e5 bd 1a 0f 02 3e 20 fc 5c bd
       -0.15640259 -0.11225032 0.12701073 -0.053951383
000020 3b 2c 91 bd 51 a9 d3 3d 47 11 fe 3d bd dd 1e be
       -0.070885144 0.10335029 0.12405639 -0.15514274
000030 9d 3e 48 3d 5b bd 94 bd 9f 0c b4 bd 5e 89 f0 3d
       0.048887838 -0.07262679 -0.0879147 0.11744951
000040 47 43 f7 bd f5 ee a1 bb 9a 9d 77 bc 33 75 aa bc
       -0.12073379 -0.004941816 -0.015113259 -0.020807838
000050 be 0a a1 3c 76 2c d6 bd 77 df a7 3c d3 af 6b 3d
       0.019658443 -0.10457699 0.020492299 0.057540726
000060 95 92 af bd 3c 7f ac 3d b1 92 cf bd da 42 1f bd
       -0.0857288 0.084227055 -0.10135401 -0.038882114
000070 33 e1 80 3d b5 1f 3f be 45 43 e7 bd 18 f2 a8 3d
       0.06292953 -0.18664439 -0.112921275 0.08249301
000080 45 c6 0c be fd 8c e5 bc 3c e4 bd 3d 8c 3d f5 ba
       -0.13747509 -0.02802133 0.09272048 -0.0018710359
000090 0c 67 bb bd 4c bc 87 3d 70 64 9d bd 2c 28 27 bc
       -0.09150514 0.06627712 -0.076851726 -0.010202449
0000a0 86 61 96 bd 67 d2 a3 3d 34 95 81 bd 93 46 0a 3d
       -0.0734282 0.079991154 -0.06327286 0.03375871
0000b0 e3 41 67 bd 47 2b f0 bc 0b ab 8a bd 0e c5 f9 3d
       -0.05645932 -0.029317511 -0.06770905 0.12195788
0000c0 ed fc d7 3d 30 ab 19 3d a0 15 29 3e 35 40 62 3d
       0.10546289 0.037516773 0.16512156 0.055237014
0000d0 25 a9 0a 3d 71 13 fd bd 71 14 02 be b5 15 e1 bd
       0.033852715 -0.12357224 -0.1270311 -0.109904684
0000e0 f8 98 1e be d7 14 7e bd 4f bc 24 3d 29 86 ae bd
       -0.1548804 -0.062031593 0.040218648 -0.08521683
0000f0 ed cb bf bd 0b 4f e8 3d 15 31 9d bd 5f 3d d5 bd
       -0.09365068 0.11343201 -0.07675377 -0.10412096
000100 97 1d d4 3d f7 0a 33 3e c0 30 1f be 05 15 cd 3d
       0.10357206 0.17484652 -0.1554594 0.10013775
000110 a8 72 e8 bc c3 62 7b 3d 79 1f 09 3e 50 31 5a 3c
       -0.028374985 0.061373483 0.13390912 0.013317421
000120 c0 a9 06 be da ca 85 3d 13 5b d4 bc 95 26 42 3e
       -0.13150692 0.065328315 -0.025922334 0.1896003
000130 05 49 f4 3d 8d 92 82 3d ac 1d c7 3d 71 be 02 be
       0.1192799 0.063756086 0.09722456 -0.1276796
000140 d5 8a 45 3d 9b 35 13 3c b1 b7 29 be 0b 9b dd 3c
       0.048228104 0.0089849485 -0.16573979 0.02705147
000150 35 eb 33 be 4e fa fd 3d cc 74 08 be e9 c9 0c be
       -0.17570193 0.124012575 -0.13325804 -0.13748898
000160 da 61 c5 bd 8a 31 cb 3d 92 9c e1 bd 5e 49 6d 3d
       -0.09637804 0.09921558 -0.110161915 0.057931297
000170 93 7d bd 3d 81 8b ba 3d 2b ef a9 bd 4f b1 77 bd
       0.09252467 0.091086395 -0.08297571 -0.06047183
000180 3f 4c 19 be 4f 6e c4 bd b3 e0 2b be c3 19 d1 bd
       -0.14970492 -0.09591352 -0.16784935 -0.10209992
000190 73 17 8a bd 02 5a 77 3d c0 a2 83 3d 99 c1 99 bd
       -0.06742754 0.060388573 0.064275265 -0.07507629
0001a0 31 6e 3f be dc 3d 3d bd 7d 41 9d bd ac 01 6e bd
       -0.18694378 -0.04620157 -0.076785065 -0.058107063
0001b0 ae bb 33 3d 73 dc bb 3d 31 a0 00 be 98 43 87 bd
       0.043880157 0.09172907 -0.12561108 -0.06604689
0001c0 e3 64 af bd 0f f0 ca bd 7b 68 93 3d 3a 14 9b 3c
       -0.085641645 -0.09909069 0.071976624 0.018930543
0001d0 49 2f c3 3c ab e5 c8 bd 57 4d 3e be 17 4d 86 3d
       0.023826258 -0.09809431 -0.1858419 0.065576725
0001e0 f3 ea 95 3d ee d7 71 bd 80 09 8c 3d e9 06 bc bd
       0.07320204 -0.059043817 0.068377495 -0.091810055
0001f0 09 f1 76 be 84 f0 1f 3c 9f 44 ff 3c 3b a9 3d bd
       -0.24115385 0.009761933 0.03116065 -0.04630397
000200 35 15 93 bd 59 94 82 bd a1 42 1e 3d 98 eb ec bd
       -0.07181779 -0.06375951 0.03863776 -0.115683734
000210 ad 4a d0 bd 59 70 e9 3c 6e 34 a5 bd 0a 95 a1 bc
       -0.10170493 0.028495954 -0.08066641 -0.019724388
000220 14 ed fa 3b 2b 64 1f be 2b be 9f bd 0b 4a 6f bc
       0.0076576564 -0.15565555 -0.077999435 -0.014605056
000230 6b 98 4e 3c 96 5b e8 3c 71 d0 01 be 64 75 57 bd
       0.012609581 0.028363984 -0.1267717 -0.052602187
000240 a1 64 93 bd 60 d2 d1 3c cf 2c a9 3c ec 74 03 3e
       -0.07196928 0.02561301 0.02065125 0.12837571
000250 f7 c0 68 bd 4e e2 8a 3d f7 91 a2 3d 61 b4 5a 3d
       -0.05682465 0.067814454 0.07937997 0.05339468
000260 eb 16 64 bd f1 93 a0 bc 59 a4 2d bc 51 f4 7f 3d
       -0.05568592 -0.019601794 -0.010598266 0.062488858
000270 cb 94 49 3d 3f 89 1d bd d1 f1 04 3d 0d fd 57 be
       0.049214166 -0.038460966 0.032457177 -0.21092625
000280 38 98 2f 3d 23 75 8d bc 20 81 1d be 81 c0 e5 bd
       0.042869776 -0.01726777 -0.15381289 -0.11218358
000290 aa f8 18 3d de 34 0e 3e 88 79 e0 bd 8e 13 db 3d
       0.03734652 0.13887355 -0.1096068 0.10697089
0002a0 50 c7 34 be 17 05 da bc 49 cb 0c 3e 89 9c ec 3d
       -0.17654157 -0.026613755 0.13749422 0.11553294
0002b0 fb 70 e0 bd d6 ae fd 3c da ca 36 bd d1 9f 83 3d
       -0.10959049 0.030967157 -0.044627048 0.06426967
0002c0 fe 26 7f 3d c6 42 79 3d 33 bd f8 bd 75 75 91 bd
       0.062293045 0.060854696 -0.12145462 -0.07102481
0002d0 04 98 a6 3a be 85 ef bb b5 ae 8d 3d e1 d4 1d 3d
       0.0012710099 -0.0073096445 0.06918088 0.038533095
0002e0 76 d0 ea bd 06 07 3e be 87 d5 d8 bb 8a 0d 06 bd
       -0.11465542 -0.18557367 -0.0066172513 -0.032727756
0002f0 38 21 6f 3d 91 6c 9b bc 19 a9 8a 3d 87 29 fd bd
       0.05838129 -0.018972667 0.06770534 -0.12361436
000300 81 dc e6 bd 09 ae 25 3d 8d d2 88 bd 71 95 c8 bd
       -0.112725265 0.040449176 -0.066807844 -0.09794129
000310 0b 61 72 bd f0 20 0d bd b8 60 7a 3b fe f0 03 be
       -0.05917458 -0.03445524 0.0038204622 -0.128849
000320 a6 1e 98 bb 23 8e 4a 3d ec b5 9b 3c 87 92 11 3e
       -0.0046423255 0.04945196 0.019007646 0.14216052
000330 7c b6 19 be 76 44 d6 bd 3e d5 69 bd 25 63 b4 3d
       -0.15011019 -0.10462277 -0.05708813 0.08807973
000340 67 ee 59 bd 17 48 2b be 7a 6b c6 3d b0 e4 6d 3d
       -0.053205874 -0.16726719 0.09688468 0.05807942
000350 6d b4 ae 3d a0 c1 f2 bc 7b 78 10 be b3 dd 16 be
       0.08530507 -0.029633343 -0.1410846 -0.14733009
000360 e4 38 c6 bd 37 e8 34 be 7e 7f 9a bd a6 a6 e1 bd
       -0.0967882 -0.17666708 -0.075438485 -0.11018114
000370 0b b9 09 be ac 51 f5 bd 39 f9 13 be a9 09 d3 bb
       -0.13449495 -0.11978468 -0.1445054 -0.0064403606
000380 44 b2 e8 bc 9d cf 2b bc 62 6e d5 3d ed 66 9d 3d
       -0.028405316 -0.010486511 0.104214445 0.07685647
000390 19 04 1b 3e 89 c1 00 3d 49 7b 83 3d 63 0d 7d 3d
       0.15138282 0.03143457 0.06419999 0.061780345
0003a0 1a ba e4 bd 42 e4 91 3d 92 44 ef 3c 61 c0 94 3d
       -0.111683086 0.07123615 0.029207502 0.07263256
0003b0 29 5a e9 bd 64 c4 09 bd 50 7b f0 bd 2e ab 0d be
       -0.1139415 -0.03363456 -0.1174227 -0.13834831
0003c0 d7 c6 e2 3d f6 42 09 be 54 09 e9 bc 3b ab 0b be
       0.11073082 -0.1340445 -0.02844683 -0.13639538
0003d0 22 4c c0 bd d6 14 a7 3d 32 09 a7 3d 7a d6 0e be
       -0.09389521 0.08158271 0.08156051 -0.13949004
0003e0 ea 32 e1 3d 15 0c 7e bd bd 48 1a bc 30 2a 07 3c
       0.10996039 -0.06202324 -0.009416756 0.008249804
0003f0 08 49 10 3d ca a1 88 3d 89 d7 a8 3d d9 f7 b5 3d
       0.035225898 0.06671484 0.08244235 0.08885164

conv3.0.bias f4 [16]
000000 63 7a cf 3c 13 a5 f2 bd da d2 ce bd 62 dc 50 bd
       0.025326913 -0.11847892 -0.100988105 -0.050991423
000010 83 ba a7 bb 08 33 5e 3e 75 5f 5c bd 31 15 41 bd
       -0.0051186695 0.21699154 -0.053801972 -0.04713935
000020 2b 2a 9d bd a0 c1 dd bd 06 a7 c6 3d 78 1b e8 bd
       -0.076740585 -0.10827947 0.09699826 -0.11333364
000030 5c 93 3d bd 49 56 34 bd 13 f0 7c 3d ae ea 0b 3d
       -0.04628311 -0.0440276 0.06175239 0.034159355

conv4.0.weight f4 [16, 16, 5]
000000 5e 16 10 3d 6e af ee 3d e8 16 40 ba cd 89 38 3c
       0.03517758 0.11654554 -0.0007327632 0.011263323
000010 b4 aa 6e bd c1 eb a3 3d 0f b2 b6 bd 39 6b d6 bd
       -0.058268264 0.08003951 -0.08920681 -0.1046967
000020 f5 70 09 bd da 7b b6 bd 75 b7 07 3d 1c bc 9e bc
       -0.03355499 -0.089103416 0.033133943 -0.019376807
000030 8b dc 90 bd 61 33 9c 3d e6 03 61 bd aa 1e 3d 3d
       -0.07073315 0.07626987 -0.05493536 0.04617182
000040 a4 02 31 bd 4a 2f b8 bd 53 02 ab bd f5 f0 29 bd
       -0.04321541 -0.08993395 -0.08350053 -0.04148956
000050 fa 05 a6 3d f8 d8 7e bd bf 2d c1 bc f4 2f 15 bb
       0.08106609 -0.062218636 -0.023581384 -0.0022764178
000060 e3 38 50 bd b4 1c 18 bc 46 f1 00 be 4a 2e b0 bd
       -0.0508355 -0.009284187 -0.12592039 -0.08602579
000070 10 e4 f8 bd e3 44 d4 3d ec 30 85 3d 05 c7 4c bd
       -0.121528745 0.103647016 0.06503472 -0.049994487
000080 b2 fa 7c 3c 14 01 64 b9 9c 22 37 3d ab 9f 8e 3d
       0.01544063 -0.00021744176 0.04471074 0.06964048
000090 4d 06 ac 3c 44 25 04 be 59 12 cb bd df 76 a4 bd
       0.020999098 -0.1290484 -0.09915609 -0.08030485
0000a0 b6 88 aa 3c 45 90 ec bd b8 b7 69 bd bd 76 0b be
       0.020817142 -0.11550955 -0.057059973 -0.13619514
0000b0 72 1a 3a bc b0 da 9a 3d 28 da e3 bc 09 01 98 bd
       -0.011358844 0.075612426 -0.027813986 -0.074220724
0000c0 7c 3e e6 bd 11 19 10 3c 86 b6 f4 3c 86 fa 96 bd
       -0.11242387 0.008795039 0.02987219 -0.07372002
0000d0 04 63 9b bc cb 87 84 bc 62 64 0f 3c 73 bb 00 3d
       -0.018968113 -0.016178032 0.0087519605 0.031428766
0000e0 4d e4 14 3d 2d 0e 8a bd 8e 88 e0 3c 5c d0 b9 3d
       0.036350537 -0.06740985 0.027408864 0.090729445
0000f0 ba e7 07 bc 6c bd 95 3b c1 38 9e 3d 6f d6 76 bd
       -0.008294994 0.0045697 0.07725669 -0.060263094
000100 2e 7d 39 3a 78 2f 07 bd 4b 59 85 bd 52 76 01 be
       0.0007075843 -0.033004254 -0.06511172 -0.12642792
000110 81 90 02 be d0 8f 49 bd 61 f3 a5 3d be 7f 0a bd
       -0.12750436 -0.049209416 0.081030615 -0.03381323
000120 ea f9 a2 bd d2 56 ad 3c 31 7f 35 3d 4d de 8a 3d
       -0.079578236 0.021159563 0.044310752 0.06780682
000130 ee ad c6 bd b8 61 9b bc 73 cf 53 bd 4f 2e 17 bb
       -0.09701143 -0.018967494 -0.05171151 -0.0023068374
000140 ad c4 1b 3d f5 b6 f1 bc 23 ab 1c bd 82 22 f6 bc
       0.03802936 -0.029506186 -0.038249146 -0.030045751
000150 ed 0b b0 3b 63 4f 55 3d 88 76 c7 3c 82 a7 a2 3c
       0.0053725154 0.052077662 0.024348512 0.019855265
000160 e9 94 e0 bc 3c f0 03 be a7 fc 37 bc ff 77 03 bd
       -0.027414756 -0.12884611 -0.011229671 -0.03209686
000170 46 6c b0 bd fc 5f 1f 3d 2c aa 86 3d b1 d4 87 3d
       -0.086144015 0.038909897 0.065754265 0.066323645
000180 ed ea 3c 3d de 99 8e 3c 22 37 c1 bb a9 bc bf bd
       0.04612248 0.017407354 -0.005896465 -0.09362156
000190 5a 86 6f 3b a0 e7 0b 3d cc bc d4 3d 33 d5 a5 bd
       0.0036548586 0.03415644 0.10387573 -0.08097305
0001a0 af ec 04 be 1f 84 98 3d 52 d4 56 bd c0 8e c4 bd
       -0.12980913 0.07447075 -0.05244858 -0.0959754
0001b0 fd 89 6f bd fa 63 ad bd 1c af 07 3d d8 17 99 3d
       -0.058481205 -0.08466335 0.03312598 0.07475251
0001c0 2c 00 a7 bd 0b 90 34 bd db ee ef bc 63 47 8d 3c
       -0.0815433 -0.044082683 -0.0292887 0.017245954
0001d0 5d 55 af 3d a1 96 a6 3d 90 75 c8 bd 25 46 39 3d
       0.08561204 0.08134199 -0.09788048 0.04523291
0001e0 1a 3f f2 3c 94 48 81 3c b0 ec 89 bd 72 6a 99 bd
       0.029571105 0.015781678 -0.06734598 -0.07491006
0001f0 9f a7 f7 bd 45 5d 60 3d 7c 1a 63 3d 4b dc 9c 3c
       -0.12092518 0.05477645 0.05544518 0.019148013
000200 07 1a 5d bd eb 7e 8b 3d bc ad a9 3c 0c c5 15 bc
       -0.0539799 0.06811317 0.020712726 -0.009141218
000210 e1 0b d1 bb 1d 92 19 be 75 10 d6 bd e7 c1 9c bd
       -0.00637959 -0.14997144 -0.10452358 -0.076541714
000220 51 3a 8b 3c 51 7c ab bb ec de a4 bb 95 30 b6 bd
       0.01699558 -0.0052333255 -0.005031457 -0.08895985
000230 81 71 ab bc 1b 6d 94 bc 8f 89 25 bc 64 5b dd bc
       -0.020928146 -0.018118432 -0.010103597 -0.027021118
000240 68 cf 0a be 54 00 16 3d b5 00 8b bb 3e 1f 69 bb
       -0.13555682 0.036621407 -0.0042420276 -0.00355716
000250 a9 c1 66 bd 52 7d ee bd 0f eb bf 3c 35 e5 9e bd
       -0.056337032 -0.11644997 0.023427514 -0.077585615
000260 8e 79 10 bd cd 10 d9 3c 1e 18 ec 3c dc c2 43 3d
       -0.035272174 0.026497269 0.028820094 0.047793254
000270 8a f2 56 3d 82 76 a2 3d af 0b 53 3d fa a3 d7 bd
       0.052477397 0.0793276 0.051524814 -0.10529323
000280 a6 5f 2b be dc 9e 53 3d 9c 69 54 3d 47 3c 41 3c
       -0.16735706 0.051665172 0.05185853 0.011794156
000290 50 36 48 bd 4d ab b1 bd cc 43 4b bd 2f 8f a6 bd
       -0.04887992 -0.08675251 -0.049625203 -0.08132779
0002a0 50 a8 f2 bb b4 d6 cf bb ba 8a 95 3a b5 8b a2 bd
       -0.0074053183 -0.0063427333 0.0011409142 -0.07936803
0002b0 5d 74 3b 3d 08 c8 d6 bc 14 59 d4 3c f5 01 07 3b
       0.04576527 -0.02621843 0.025921382 0.0020600532
0002c0 5c a8 a3 3c 3b 83 77 3d ee 3d a9 3d e6 36 5b 3d
       0.019977741 0.060427886 0.08263765 0.053519152
0002d0 e1 4a 03 be 0e 41 6e 3d 70 11 c1 3d d9 15 51 3d
       -0.12821533 0.05816751 0.09427154 0.051046226
0002e0 5c 17 e7 bc ee 28 29 bc a8 3a 90 bc 7c 19 da 3c
       -0.02820938 -0.0103247 -0.017606094 0.02662348
0002f0 92 66 54 bc 3a d9 97 bb 90 a0 06 be 2c 26 6e 3d
       -0.012963908 -0.0046340497 -0.13147187 0.058141872
000300 33 ff d4 bd cb aa 65 3d b2 1c a4 bd ee 1d 0d be
       -0.10400238 0.056071084 -0.08013286 -0.13780949
000310 f7 f7 96 bd 9c 71 a8 3c d5 aa 46 3d 33 84 8f 3d
       -0.07371514 0.020561986 0.048502762 0.07007637
000320 56 a4 a7 bd 69 1a 12 bc 66 18 2a bd 4f ab 9d bd
       -0.081856415 -0.0089174295 -0.041527174 -0.0769869
000330 4d 17 ec 3c 87 76 be 3b 1f 40 65 3c 50 53 32 3d
       0.028819704 0.0058124694 0.013992338 0.043536484
000340 ad 52 64 3d 91 10 e8 3b f7 ad c5 bd 19 d6 28 bd
       0.05574291 0.007082053 -0.09652322 -0.041219804
000350 10 88 9e 3c e0 36 3c bd 0e 17 a8 3d 1f 1d 60 bd
       0.019351989 -0.04595077 0.08207522 -0.054715272
000360 21 7b ea bc 79 6c 6e 3b 8c 13 21 3d 5d b8 dd 3c
       -0.028623166 0.0036380573 0.039325282 0.02706545
000370 15 b1 49 bd ee d1 9b bd f7 1a 35 bd 3c 55 5c 3d
       -0.049241144 -0.076084 -0.04421517 0.053792223
000380 ab 98 ea bd 70 17 24 3c 8f 75 d7 bd 2a 4a 39 bb
       -0.114549 0.010015354 -0.105204694 -0.0028272965
000390 e2 fc 4f bd b6 e4 e4 3c 28 9c a3 bd c6 cc 75 bd
       -0.050778277 0.02794109 -0.07988769 -0.06000974
0003a0 5f 59 d9 bc b0 f8 90 3d 13 f2 0c bb 36 49 91 3c
       -0.026531873 0.070786834 -0.0021506592 0.017735105
0003b0 f0 d4 3a bd 8e e1 2d bc b4 f8 61 3d b3 19 01 3d
       -0.04561323 -0.010612858 0.055168822 0.03151865
0003c0 04 37 c2 3b 0f ca 99 3d e2 c1 17 bc 9e 23 e8 bd
       0.0059269685 0.07509243 -0.009262534 -0.113349184
0003d0 09 f7 9e 3c f3 e7 a0 3c f4 4b e8 3c ed a7 cf bd
       0.019404905 0.019641852 0.02835653 -0.10139451
0003e0 ff e8 23 3d 93 cc 20 bc a5 53 b7 3b 4d 87 96 bd
       0.040017124 -0.009814399 0.005594688 -0.07350025
0003f0 31 fe a2 bc 17 ef 87 bd 4c 69 5b bd 29 ab 13 3c
       -0.019896599 -0.066374 -0.053567216 0.009012976

conv4.0.bias f4 [16]
000000 ce 7a 2d be 56 ca b6 3d 1f 84 97 3e ba 07 20 3e
       -0.16941378 0.08925311 0.29592988 0.15627947
000010 d0 ab 3d bd 7e 27 80 3e d7 a0 c5 be 25 f2 f0 bd
       -0.04630643 0.2503013 -0.38599274 -0.117649354
000020 ee 2b 3e bd dd 9d 2c 3d 73 d7 83 ba e1 bf 30 be
       -0.046428613 0.042142738 -0.0010058716 -0.17260696
000030 82 80 90 be d5 0b 45 bd d2 7a 08 3e ec 19 25 3e
       -0.28223044 -0.048106987 0.13328102 0.1612317

conv5.0.weight f4 [16, 16, 5]
000000 48 4a c3 bd 22 98 83 bd a5 8c 5b bd 48 19 a8 3d
       -0.095356524 -0.064255014 -0.053600926 0.08207947
000010 50 2f bd 3d f0 e7 20 3d 88 e4 34 bd bf 35 8f bd
       0.0923754 0.039283693 -0.044163257 -0.06992673
000020 a6 f8 9d 3d 16 36 c9 3d 9c 5c 71 bd c0 7c 5f 3b
       0.077134416 0.09824769 -0.05892621 0.0034101456
000030 65 79 50 bd ea d1 14 bd ba 96 9e 3d 08 72 b6 3d
       -0.05089702 -0.036333002 0.077435926 0.089084685
000040 00 16 7b 3d c1 bd 4c bd bc b8 eb bc 8c 86 e3 bc
       0.061300278 -0.04998565 -0.028774612 -0.027774118
000050 40 58 dc bc dd bc 6d bd fc 7a 7d 3d e8 27 c2 bd
       -0.02689755 -0.058041442 0.061884865 -0.09480268
000060 76 3f ab bd 00 5a 65 3c 14 7c 01 3d e0 2c 38 3d
       -0.083617136 0.013998508 0.03161247 0.04496467
000070 e8 bf b5 3d 12 7a a8 bd 56 e3 92 3d 20 9e 7e 3c
       0.08874494 -0.08226408 0.07172267 0.01554063
000080 de 06 14 bd 9c 15 ac 3d 28 2f 44 3c b8 43 94 bd
       -0.03613936 0.08402559 0.011974134 -0.07239479
000090 f0 3a 0a 3c 32 f3 a5 3d 08 89 9c 3c 54 1a 06 3d
       0.008436903 0.081030264 0.01910831 0.032739952
0000a0 08 fc a1 3d c0 cf 2d 3d 34 b2 09 3d 6f e8 cc bd
       0.07909399 0.042434454 0.033617213 -0.10005271
0000b0 ea 7a 03 bd e4 e8 85 bd e0 1d 21 bb 68 71 92 bc
       -0.03209964 -0.06538561 -0.0024584457 -0.017876342
0000c0 3a 1b 04 bd 38 09 1f bc 56 34 8f 3d f0 a6 c8 3b
       -0.032252528 -0.009706788 0.06992404 0.006123416
0000d0 6c 45 c3 bd 98 8d 96 bc 6c 50 91 bc 84 d4 15 3d
       -0.095347255 -0.018378064 -0.017738543 0.036579624
0000e0 16 d7 06 bd 24 92 a4 bc 32 70 a5 3d 14 86 76 3d
       -0.032919966 -0.020089217 0.0807804 0.06018646
0000f0 8c 84 0b bd 80 17 3e 3d f8 cc 7d bc c8 d9 cd 3d
       -0.034061953 0.04640913 -0.015490763 0.10051304
000100 4c c0 6b bd 80 9d c0 3c 78 c3 63 3d 80 2c 1a ba
       -0.057556435 0.023512602 0.055606335 -0.0005881265
000110 51 26 cc bd 54 0e a9 3d 36 99 d4 3d 88 2e 66 bc
       -0.09968246 0.08254686 0.10380785 -0.01404918
000120 d8 5f be 3c 58 c5 62 3d 04 9d d2 bd 04 89 f5 bc
       0.023239061 0.055363983 -0.102838546 -0.02997256
000130 7d 09 c6 bd b0 65 ab 3c 28 e9 c1 bd 44 e8 bf bd
       -0.096697785 0.020922512 -0.09468299 -0.09370473
000140 d4 2f 98 3d 7a eb d1 bd 4a fd 84 3d 80 ef 3c bb
       0.074309975 -0.10249992 0.064936236 -0.0028829277
000150 e8 9b c5 3c f0 a7 76 bc 4a 1b 92 3d cc 48 ec bc
       0.024122193 -0.015054688 0.07134111 -0.028843306
000160 d2 da 49 bd f0 33 a8 3b fc c8 49 3d 4a 10 07 bd
       -0.04928095 0.0051331446 0.04926394 -0.03297452
000170 ee 60 81 3d 2c ab 89 bc 92 22 72 bd 90 42 db bb
       0.06317316 -0.016805254 -0.059115 -0.0066912845
000180 1a 76 bb 3d 10 87 2b 3c 80 bb cb ba 84 ff 58 3d
       0.091533855 0.010469213 -0.001554355 0.052978054
000190 80 26 92 bc f8 d6 99 bd 60 b8 e8 bc 2e 77 da 3d
       -0.017840624 -0.07511705 -0.02840823 0.10667263
0001a0 e0 cf fc 3b 7e 9d 81 bd be 2a ac 3d 28 67 11 3d
       0.0077152103 -0.063288674 0.0840659 0.035498768
0001b0 5c cd 41 bd 4a 2b a8 bd 5e ee c5 bd 66 98 92 3d
       -0.047314987 -0.08211382 -0.096646056 0.07157974
0001c0 76 56 c7 3d 3e 3f b8 3d 90 e0 c0 3d 32 5c 35 bd
       0.09733288 0.089964375 0.09417832 -0.044277377
0001d0 0e df e3 3d 5c da 18 3d ef 0f d7 bd ee b7 93 3d
       0.11126529 0.03731762 -0.10501086 0.07212816
0001e0 b0 51 b7 bd 58 c6 02 3d 58 67 67 3d 68 d9 43 3d
       -0.089511275 0.031927437 0.05649504 0.047814757
0001f0 a8 cb c9 bd 0e 6e 8e 3d d8 74 91 3d 04 7b 8e bc
       -0.098532975 0.06954585 0.07102364 -0.017392643
000200 3c 72 db 3d 88 59 05 bd 60 45 00 bb e8 25 d9 bc
       0.10715148 -0.032556087 -0.00195726 -0.026507333
000210 1c e2 c0 bc d0 fb e3 3d a0 dc 95 3d bc 42 a9 3d
       -0.023545317 0.11132014 0.073174715 0.08264682
000220 aa 86 9a 3d 48 a2 fc 3c 77 26 dc bd 16 38 04 bd
       0.075452164 0.0308391 -0.10749524 -0.03228005
000230 d0 e3 81 3c a0 b8 40 bb a3 24 b0 bd 23 63 d0 bd
       0.0158557 -0.002940692 -0.08600738 -0.10175159
000240 08 93 22 3d 28 2c 4e bc bc 2a 63 bd 8c 6e 8f bd
       0.039691 -0.01258377 -0.055460677 -0.07003507
000250 f2 b9 21 bd 64 a8 6c 3d ca 5c 1e bd 44 a9 b3 bc
       -0.039483972 0.057777777 -0.03866271 -0.021931298
000260 8c 59 5f 3d 99 14 b3 bd 09 0b cc bd 2b 0c 7a bd
       0.054528758 -0.08744163 -0.09963042 -0.06104676
000270 38 b1 47 3d 56 27 82 bd 48 16 37 bc b0 46 bd 3d
       0.048752993 -0.06355159 -0.011174746 0.09241998
000280 54 df 8e 3d 42 ad a3 3d 12 42 80 bd d2 c0 c7 bd
       0.0697619 0.07992031 -0.06262602 -0.097535744
000290 78 ac 40 3c 18 11 c2 3c e8 9a 69 3d d4 65 23 bd
       0.01175987 0.023689792 0.057032496 -0.039892033
0002a0 60 fc b0 bd 04 53 0f 3d 78 e0 bc 3c 90 35 8b 3c
       -0.08641887 0.03499128 0.023056254 0.016993314
0002b0 b4 6e b0 bc 4c f7 b9 bd c8 de 22 3d f2 86 88 3d
       -0.021537162 -0.09080371 0.039763242 0.06666364
0002c0 af 33 8f bd 44 30 7f 3d 28 cd e0 bd de b7 c7 bd
       -0.0699228 0.06230189 -0.109766304 -0.09751867
0002d0 1c be 9e 3d c8 91 88 3d c0 e2 fc ba 18 2d 2a bc
       0.07751104 0.066684306 -0.0019293651 -0.010386728
0002e0 f2 8e 86 bd 38 53 43 3c 18 9e dc 3d 2a 03 bc 3d
       -0.065702334 0.011921696 0.107723415 0.09180291
0002f0 e0 88 d4 bc 90 a2 4b 3d e2 46 be 3d 72 1f 29 bd
       -0.025944173 0.04971558 0.092908636 -0.041289754
000300 04 22 0b bd e8 52 8a 3d 10 d1 99 3d 18 7a 34 3c
       -0.033967987 0.06754094 0.07510579 0.011015438
000310 02 94 93 3d d8 04 3c bd 30 fa b8 bd 46 6b 86 bd
       0.072059646 -0.045903057 -0.090320945 -0.065634295
000320 a6 b1 a8 bd 50 05 d1 3c b0 3b 3d 3d 86 34 b4 3d
       -0.08237009 0.025515229 0.0461995 0.087990806
000330 7e b2 c3 3d 58 32 d8 3c 98 21 60 3d 60 98 d2 bb
       0.09555529 0.026391193 0.054719537 -0.006426856
000340 0e 6f 9d 3d bc d0 cb 3d 95 82 bd bd c8 ad 32 bc
       0.076871976 0.09951922 -0.09253422 -0.0109056905
000350 e8 4c bc 3d 40 85 a2 3c 3c 5b e8 bc 58 20 dd 3d
       0.09194356 0.01983893 -0.028363816 0.10797185
000360 04 53 a5 3d b0 d2 12 3c f4 6e ab 3d d3 5b 90 bd
       0.080724746 0.008961365 0.08370772 -0.07048764
000370 88 78 65 3d 00 74 d6 39 50 ac 0e 3d a0 c7 ed 3c
       0.05602315 0.00040903687 0.0348323 0.029025853
000380 74 b6 c6 3d 9a a1 c6 3d 48 a2 67 bc 98 d9 37 bd
       0.09702769 0.09698792 -0.014137812 -0.044885248
000390 88 b3 7d bd 2e 26 9c bd cc f9 dc 3d dc 78 79 3d
       -0.061938792 -0.0762447 0.107898325 0.060906276
0003a0 38 a2 0b 3d d2 ce c8 3d e5 7c d7 bd e0 bb 25 bb
       0.03409025 0.09805073 -0.105218686 -0.0025288984
0003b0 dc ed ca bd 38 5b e3 3c 10 0a dd 3c 94 05 cb bd
       -0.09908649 0.027753457 0.026982337 -0.09913173
0003c0 3c 50 c1 bd 30 97 4f 3d 50 92 99 3c a8 23 84 3d
       -0.094391316 0.050681293 0.018746525 0.064521134
0003d0 a0 de 7a 3c 88 20 4c bc 0e b6 d2 3d 38 3d b4 3c
       0.015311867 -0.012458928 0.102886304 0.022001848
0003e0 98 5f 88 3c 58 7a 47 bd c0 57 dc bc c8 5a 61 bc
       0.016647145 -0.04870066 -0.026897311 -0.013754554
0003f0 14 36 7d 3d 44 19 98 3d f8 a4 07 3c 37 f4 9a bd
       0.06181915 0.07426694 0.008279078 -0.075661115

conv5.0.bias f4 [16]
000000 68 0f 46 3d e3 ec 5f bd c4 be c9 3d a0 de 93 3c
       0.048354536 -0.054669272 0.09850839 0.018050492
000010 88 9b bb 3d 60 57 d7 bc d8 c6 d9 bc f5 5c de bd
       0.091605246 -0.02628678 -0.026584074 -0.10857574
000020 48 8d e2 3c a4 c1 c6 bd 7d 8a a4 bd c6 2d c7 3d
       0.027655259 -0.09704903 -0.08034227 0.097255275
000030 40 69 5b bc 80 14 04 3b 6c f4 d0 bc e8 de b9 bd
       -0.013391793 0.002015382 -0.025507174 -0.09075719

conv6.0.weight f4 [8, 16, 5]
000000 c6 52 a6 bd 2e 0d 9f 3d 38 7b 2a 3d fe c1 d0 3d
       -0.081212565 0.07766186 0.041621417 0.10193251
000010 64 65 ae bc 30 52 f9 3b 52 1c a0 bd 2d 49 7d bd
       -0.021288581 0.0076086745 -0.07817902 -0.061837364
000020 b0 65 6c 3c 81 b0 79 bd e2 4c 94 3d 10 ab 32 3c
       0.014428541 -0.060959343 0.07241227 0.010905042
000030 60 3b b8 bd 80 89 5d 3d 20 c5 a9 3c d8 79 73 3d
       -0.089957 0.05408621 0.02072388 0.05944237
000040 98 70 25 3d 9e 61 36 bd 9e 45 04 bd 40 66 1a bc
       0.04039058 -0.04452669 -0.032292955 -0.009423792
000050 50 09 c8 3d 98 11 23 3c e0 35 24 3d 9c 5b 55 3d
       0.09767401 0.009952925 0.04009044 0.05208932
000060 80 c3 e0 3c 8c e7 0f 3d 73 11 cf bd f8 96 7c 3d
       0.027436972 0.03513293 -0.1011075 0.061667413
000070 c4 5d 7e bd d0 ae 45 bc b2 1c b6 bd 3c 19 d5 bc
       -0.06210114 -0.012065604 -0.08892192 -0.02601301
000080 d8 9d 0e 3c e4 2a c6 bd e0 29 55 3b c7 97 b9 bd
       0.008704625 -0.096761495 0.003252618 -0.09062152
000090 58 fe b6 3c ba 11 40 bd dc ef cc 3d b8 03 8c 3d
       0.022338077 -0.046891905 0.10006687 0.06836647
0000a0 32 27 bb bd 64 8d bb bd f8 1c 68 3d 58 28 1f 3d
       -0.09138335 -0.091578275 0.05666825 0.038856834
0000b0 fc 43 07 3d 36 15 97 3d b0 a7 af bb d4 a1 f1 bc
       0.03302382 0.073770925 -0.005360566 -0.029496111
0000c0 98 e3 82 3d ba cf b2 3d 7e 3f 8a bd 78 da e3 3c
       0.06391066 0.08731027 -0.067503914 0.027814135
0000d0 ed bb 6b bd 56 e9 ab 3d a8 c7 2d 3d 40 77 5d 3c
       -0.057552267 0.08394115 0.042426735 0.013517201
0000e0 d8 27 c3 bd f0 69 17 3d e8 1a 00 3d a0 f0 b8 3b
       -0.09529084 0.036966264 0.03127566 0.005643919
0000f0 36 d8 d1 bd 44 f8 49 bd c6 cc 2c bd 38 f9 c9 3c
       -0.10246317 -0.04930903 -0.042187475 0.02465497
000100 64 2d 3f 3d fe dc 98 bd d0 63 7c 3c 08 7d c1 3d
       0.046674147 -0.07464026 0.0154046565 0.09447676
000110 90 c9 e7 3c 6e 69 c5 3d 00 e9 fe ba 80 bb d2 3c
       0.028294355 0.0963925 -0.0019448102 0.025724173
000120 7e 05 8c bd b2 15 ac bd b4 a0 83 bd 3e 72 a8 bd
       -0.06836985 -0.084025756 -0.06427136 -0.08224915
000130 f2 fd 9a 3d 04 bb 73 3d 46 91 bb bd 18 f5 eb 3c
       0.075679675 0.059504524 -0.09158568 0.028803393
000140 75 52 a2 bd 56 d5 38 bd ec 91 b6 bc 43 19 4a bd
       -0.07925884 -0.045125328 -0.022286378 -0.049340498
000150 06 43 2e bd c4 d1 73 3d ac c9 d2 3d 00 58 c7 38
       -0.042544387 0.05952622 0.10292372 9.505451e-05
000160 c8 cb c6 bd 48 d6 86 3d 00 45 3e 3c a4 0e 9b 3d
       -0.09706837 0.0658384 0.011613131 0.07571152
000170 26 d1 81 3d 0c 83 d7 3d 0c bc 84 3d 12 f7 dc bd
       0.0633872 0.10523042 0.064811796 -0.107893124
000180 ab 49 b9 bd 60 6b f4 3c f2 ef de 3d d2 52 29 bd
       -0.09047254 0.029836357 0.1088561 -0.04133875
000190 c2 36 ce 3d d0 a2 a3 bd c2 72 b7 bd e8 a5 a7 3d
       0.10069038 -0.079900384 -0.08957435 0.08185941
0001a0 78 37 ab 3d 80 5e ed ba 00 7c 7a ba 2a 31 81 bd
       0.08360189 -0.0018109828 -0.00095552206 -0.063082054
0001b0 a1 45 db bd 87 3a 5c bd 68 98 80 bd e8 05 f9 bc
       -0.1070664 -0.053766754 -0.06279069 -0.030398324
0001c0 0a 0e c5 3d a0 82 dc bb d8 6d 08 bd 46 f0 c5 3d
       0.09621818 -0.006729439 -0.03330788 0.09664969
0001d0 0a 75 33 bd 24 fc 15 3d 64 09 09 3d 6e f5 06 bd
       -0.04381279 0.036617413 0.03345622 -0.032948904
0001e0 d2 af df 3d 40 08 1b 3c 91 21 55 bd 80 b0 40 bb
       0.10922207 0.009462416 -0.052033965 -0.0029402077
0001f0 84 4c 9d bd 44 ed 2b 3d 35 17 82 bd d6 e3 99 3d
       -0.0768061 0.04197432 -0.06352083 0.075141594
000200 9c 78 15 3d 10 47 4b bc 7a e3 ae 3d ed 61 ce bd
       0.036491975 -0.012407079 0.085394815 -0.100772716
000210 64 db de 3d 50 c4 96 bb 96 e3 c5 bd 20 c3 a9 bb
       0.10881689 -0.004601039 -0.09662549 -0.0051807314
000220 da 85 df 3d 84 46 0a 3d 80 ab 38 bc 14 1d d5 3d
       0.10914202 0.033758655 -0.011271358 0.10405937
000230 f2 b4 c1 bd 94 76 7c 3d 58 7f a0 3c 08 0d c7 3c
       -0.09458341 0.061636522 0.019591972 0.024298206
000240 44 e8 85 3d 5a 36 88 3d 42 cd a4 3d d7 05 7c bd
       0.06538442 0.06650992 0.08046962 -0.061529007
000250 2c df 30 bd f8 4d 3f bc 3e c9 d8 3d 90 fe a4 3c
       -0.043181583 -0.011676304 0.10585259 0.020140916
000260 1e 61 b3 3d c2 29 80 bd 18 61 09 3c be 5d ab 3d
       0.08758758 -0.06257965 0.008384965 0.08367489
000270 78 e0 2f 3d e0 db b9 3c 50 a2 1e 3d 8e a5 cf 3d
       0.04293868 0.022687852 0.038729012 0.10138999
000280 16 7e 82 bd 3c 1c bb bc 50 dd 19 3d 30 ed 1e 3d
       -0.06371705 -0.022840612 0.037564576 0.03880042
000290 50 4c 76 bc 71 c7 e0 bd c8 2a 31 bc 5c df 2b 3d
       -0.015032843 -0.109755404 -0.0108134225 0.04196106
0002a0 9c 8c c5 bd 10 db c5 3b c1 db dc bd d6 fc 2a bd
       -0.0964596 0.006038077 -0.10784102 -0.04174503
0002b0 10 dc 6e 3d b4 54 9c bd 98 ab dc 3c aa d9 84 bd
       0.058315337 -0.07633343 0.026937291 -0.064868286
0002c0 98 ec bd bd c0 4d c4 3b e8 c8 7b bc 35 44 c7 bd
       -0.09273642 0.005990714 -0.015367724 -0.09729806
0002d0 80 da cb 3c 1c e7 91 bd f4 c2 42 3d f4 9b e2 3d
       0.024884462 -0.07124159 0.047549203 0.11064902
0002e0 7c 05 b4 bd 50 df 54 bc 16 a7 d4 3d 00 9c 42 bd
       -0.087901086 -0.012992695 0.103834316 -0.047512054
0002f0 e2 8d ca bd a1 85 bc bd bc 21 9d 3d c0 3d 3d 3d
       -0.09890343 -0.09205175 0.0767245 0.046201468
000300 a5 45 6f bd 30 07 d1 bd 00 4a 80 bb 80 d6 c8 bb
       -0.058416028 -0.10206449 -0.0039150715 -0.006129086
000310 48 42 9c 3d 28 e2 de bd 47 7d 56 bd 00 62 80 bc
       0.0762983 -0.1088298 -0.052365568 -0.01567173
000320 7b 25 d1 bd f2 d0 b6 bd f8 eb d3 3c bc 06 a6 3d
       -0.10212227 -0.08926572 0.025869355 0.08106753
000330 14 7e b4 bc 85 5a 56 bd 54 ce c8 3d d8 5b 86 3d
       -0.022032775 -0.05233242 0.09804979 0.065604866
000340 76 40 d4 3d 40 73 87 3b 04 83 a5 3d 04 28 2d 3d
       0.103638574 0.004133612 0.0808163 0.04227449
000350 84 a4 0c 3d 09 52 9c bd 88 39 a6 3c 5e ca be 3d
       0.03433658 -0.076328345 0.020291105 0.09315942
000360 a1 8d bd bd c8 a3 b4 bc b8 c5 45 bd 00 91 2f ba
       -0.09255529 -0.022050753 -0.048284262 -0.0006697327
000370 f8 f6 7e 3d 6a 74 2e bd 58 00 df bd f4 ed ae bc
       0.062247247 -0.04259149 -0.108887374 -0.0213537
000380 ac 38 70 3d b6 8c 8d 3d 13 23 97 bd 3e b7 8b bd
       0.058647797 0.06911604 -0.07379737 -0.0682206
000390 aa 40 94 3d 8c 00 d9 3d 50 77 a4 3c f4 4e 21 3d
       0.07238896 0.105958074 0.020076424 0.039381936
0003a0 08 d1 98 3d 2c 5e 10 3d f0 cb 06 3d 80 ea b4 3d
       0.074617445 0.03524606 0.032909334 0.0883379
0003b0 fa 9f 41 bd 70 07 b3 3d 58 bf 12 3d a6 ce 1b bd
       -0.047271706 0.08741653 0.03582701 -0.038038872
0003c0 b5 c6 6f bd 6d e2 ae bd 98 26 d1 3c 89 dc aa bd
       -0.05853911 -0.08539281 0.025531098 -0.08342845
0003d0 02 b2 21 bd f8 2a 4a bc a0 ce a1 3c c8 47 e8 3c
       -0.039476402 -0.012339346 0.019751847 0.02835454
0003e0 30 67 cb bb d4 70 e0 bd 61 64 82 bd d8 3b 96 3c
       -0.0062073693 -0.1095902 -0.06366802 0.018339083
0003f0 b8 c3 38 3c 08 a0 39 3d 5c 23 2b 3d 5e 71 88 bd
       0.011277132 0.045318633 0.04178177 -0.06662248

conv6.0.bias f4 [8]
000000 e8 d3 ab bd d0 bd b8 bb 8c 49 3e 3d a4 7e 16 bd
       -0.08390027 -0.005637862 0.04645686 -0.036741868
000010 20 9c 07 3b 04 76 93 3d 54 e2 77 3d de 24 af bd
       0.0020692423 0.07200244 0.060518578 -0.08551954

fc.weight f4 [3, 288]
000000 28 48 35 3d 9c 49 b6 ba 54 ca 19 bd 4b be 69 bd
       0.044258267 -0.0013907435 -0.03754647 -0.057066243
000010 33 a3 47 bc bd b1 a1 bb 13 1c a4 3c 55 91 b1 bb
       -0.012184906 -0.004934518 0.020032918 -0.0054189363
000020 00 3d 50 bc c9 6f 27 bd 5b 57 fe bc c1 df c6 3d
       -0.012709856 -0.04087809 -0.031047514 0.097106464
000030 79 e7 12 3e e4 f9 a2 bb 7e 44 f1 3b 6b 2c 1d bd
       0.14346112 -0.004973637 0.0073629012 -0.03837244
000040 85 c2 db bd c5 61 f2 3b 71 21 39 3d ed e7 38 bd
       -0.10730461 0.007396909 0.045197908 -0.045143057
000050 62 fe cd 3b 8b 90 a4 3c 38 38 60 bd d5 b7 cf 3c
       0.0062864283 0.020088455 -0.054741114 0.025356213
000060 9a 75 91 bb c3 18 b9 bb dd 4d d7 bc f3 fb 53 3d
       -0.004439068 -0.005648704 -0.026282245 0.05175395
000070 ee 08 a5 3c 75 15 a3 bb ba 8d 10 3d b1 c7 75 be
       0.02014586 -0.004976923 0.03529141 -0.24001957
000080 06 8e 8c bd 75 f3 07 bd 46 df 2f bd c2 3d b8 3b
       -0.06863026 -0.033191163 -0.04293754 0.0056225965
000090 5a 33 78 bc 87 fe db bc be d3 d6 3c a6 10 fc 3c
       -0.015148962 -0.026854767 0.026224013 0.030769657
0000a0 10 1f b7 bc 3e e2 88 3c 27 41 d8 ba 7c db 16 bc
       -0.022353679 0.016709443 -0.0016498909 -0.009207603
0000b0 b9 39 a9 bc dc a5 5a 3d f3 43 7a 3c de e0 cc bc
       -0.020657407 0.053380832 0.015274989 -0.025009569
0000c0 1c 48 ad bd a1 89 e8 3d 8c db e5 3d 4e 5d 25 3d
       -0.084610194 0.11354376 0.11223516 0.040372185
0000d0 b3 c9 d3 bb 34 fc b7 bd da 5b 0b 3c 25 47 50 bd
       -0.0064632534 -0.08983651 0.008505786 -0.0508491
0000e0 2c e6 18 bc f3 34 1d bd ef 5a 31 bd 61 e5 98 3c
       -0.009332221 -0.038380574 -0.04329961 0.018664064
0000f0 25 30 a3 bc 16 53 20 3b c3 28 85 b9 75 35 28 bd
       -0.019920418 0.0024463586 -0.00025398107 -0.041066606
000100 6c a0 a1 bc e5 ce ed 3d 4f ca 31 3d 34 4a 26 3c
       -0.019729815 0.116117276 0.043405827 0.010149527
000110 85 45 84 bd 1b 15 0d be e6 69 f9 bc 6f 0c 20 3d
       -0.06458572 -0.13777582 -0.030446004 0.039074358
000120 2c 36 bc 3c 1b 34 32 bd ea e6 11 3d f3 7b 13 3d
       0.02297505 -0.043506723 0.035620607 0.03600688
000130 43 21 7c 3c b1 c9 68 bd c8 4f 34 bc 36 ed 1a bd
       0.01538879 -0.056832973 -0.011005349 -0.03782388
000140 2e a4 1b bd 05 5e 03 3d 93 71 d2 bc aa 5f d2 bd
       -0.03799837 0.032072086 -0.025688922 -0.10272153
000150 c2 b1 dd 3d 91 f0 da bb 2f 6b 3f bd 56 ab 95 bd
       0.1082492 -0.00668151 -0.046733078 -0.0730807
000160 a0 29 28 be d6 40 08 be 63 e3 ef bc 52 7e 0f bd
       -0.16422129 -0.13305983 -0.029283231 -0.035032578
000170 98 02 27 3d ff 0f 39 3b 4c 79 9c bb 6c fa 30 3d
       0.040773958 0.0028238294 -0.004775202 0.04320757
000180 24 58 86 bb ac 14 3c bc 72 b3 37 bc c2 cb 45 bc
       -0.0040998627 -0.011479538 -0.011212217 -0.012072505
000190 e1 80 e8 3c 92 aa 2c bd ad 05 2b bd 62 44 55 3d
       0.028381767 -0.042154856 -0.04175346 0.052067168
0001a0 b7 89 99 3d cd bc db bd da fd e3 bc 88 d1 4b 3a
       0.0749697 -0.1072937 -0.027831007 0.0007775058
0001b0 87 e1 77 3d 08 03 d7 bc f2 02 11 3d b6 ed 4a bd
       0.060517814 -0.026246563 0.0354032 -0.049543105
0001c0 97 28 32 bd 94 cb 8b bd 61 a1 10 3d a6 6e 2c bd
       -0.04349574 -0.06825939 0.035310153 -0.04209771
0001d0 00 a1 a5 bb 90 45 01 bc d1 49 75 bd 55 63 2c bd
       -0.005054593 -0.00789012 -0.05988485 -0.042086918
0001e0 be 8c d0 3d 07 f3 0f 3c 4a ce 4b bb ee 84 2e 3d
       0.101830944 0.00878597 -0.00310983 0.04260724
0001f0 27 5b 9f bd 85 89 ca bc 58 3a 84 3c 52 73 55 bc
       -0.07781058 -0.024723778 0.016141102 -0.013027983
000200 d4 86 8e bd 53 2b 02 bc b8 b8 03 3d 27 73 87 bd
       -0.0695931 -0.0079449 0.032158583 -0.066137604
000210 c8 60 cf bc 75 13 1c 3d ff a0 ba 3c 0c 5e 2b 3d
       -0.025314704 0.038104493 0.022781847 0.041837737
000220 f0 97 0a bd 35 77 8d bd 7b f6 40 3d 8a bc fa bd
       -0.033836305 -0.069075026 0.047110062 -0.12242992
000230 f0 f2 00 be 7c 1f cf bc d4 7d f5 bd ca 4b a9 3c
       -0.12592673 -0.025283568 -0.119868904 0.020666022
000240 61 04 c6 bc 03 20 e1 3c a2 3e ce bc 75 b0 1e bc
       -0.02417201 0.027481085 -0.02517635 -0.009685625
000250 8f d4 24 3c e4 a1 85 3c 66 a3 5e 3d 21 14 4c 3c
       0.010060444 0.016312547 0.054355048 0.012455971
000260 51 83 6b bc 6c 2b b7 3c d2 36 e0 3b 0c 11 23 3d
       -0.01437457 0.022359572 0.0068424726 0.03981118
000270 5d 08 31 bd 2c ba c0 bd 1c 49 a6 bc f1 28 31 bb
       -0.043220866 -0.094105095 -0.020298533 -0.002703246
000280 b2 99 a8 3b 46 ba 27 3d af c6 22 3d be a3 0d 3d
       0.005145275 0.04094913 0.03974026 0.034579985
000290 a4 53 f7 3b 5b 98 6d 3c c2 2f 3d 3d b0 63 24 bd
       0.0075478125 0.014501656 0.046188124 -0.040134132
0002a0 62 bb 00 3d 27 91 4e bc 23 e7 5d 3b 42 1f a0 3a
       0.031428702 -0.012607849 0.0033859692 0.0012216347
0002b0 8e f5 03 3b ba 76 86 3d 4f a4 46 3e 48 0f 16 3d
       0.0020135376 0.06565614 0.19398616 0.036635667
0002c0 66 45 e0 3d a7 6b 06 3d 96 ef 20 bc 23 a3 da ba
       0.10950737 0.03281751 -0.009822747 -0.0016680699
0002d0 7f e5 d0 bb e9 ee a4 3c 6e 34 df 3c eb 3f f2 3a
       -0.0063750143 0.020133452 0.02724668 0.0018482184
0002e0 1e 73 17 bd 0d 57 54 3b bb 58 55 ba e6 b2 ef b9
       -0.03697502 0.003240052 -0.0008138527 -0.00045718922
0002f0 2f 99 c1 3c f6 2a 38 bd eb 8e fd 3c 04 8b d3 bc
       0.023632614 -0.044962846 0.030951938 -0.025823124
000300 e2 68 85 3d 30 9d 37 3d 00 ba 2e 3d dc d5 80 bd
       0.065141454 0.04482764 0.042657852 -0.062907904
000310 1b 2e ac 3d 08 dc 55 bd ac e4 ff 3c 1d e5 cf bc
       0.084072314 -0.05221179 0.031236969 -0.025377804
000320 0a b1 0e bc 01 ad 94 bd 14 ac 83 3b 3d b8 30 bd
       -0.008709202 -0.072595604 0.004018316 -0.043144453
000330 1c 59 2b bd 67 99 f0 bb a6 26 65 bd 71 bc 6b bd
       -0.04183303 -0.0073425057 -0.05594506 -0.05755276
000340 5d d0 07 bd 2b f9 f7 bc 0c 11 a5 3c db 0a 34 3d
       -0.033157695 -0.03027018 0.02014973 0.043955665
000350 8e 7d 32 3b bd 7e e3 3c 32 82 6c bd 1a 62 d3 bd
       0.002723548 0.027770394 -0.05774135 -0.10321446
000360 2c 79 2e bc ae a7 0b 3b 32 69 5c 3d 89 ed 86 bb
       -0.010649007 0.0021309662 0.05381126 -0.004117672
000370 d3 f9 a0 3b 21 a4 24 bc a1 b6 bc ba 34 11 bf 3c
       0.004912594 -0.010048897 -0.0014397689 0.023323633
000380 3f 91 2a bd fe 60 4b bd 24 4d 80 bc 68 65 69 bd
       -0.041642424 -0.049653046 -0.015661784 -0.056981474
000390 5f 6a b8 bd 75 f6 3c 3d 60 94 57 3c d2 35 d0 3c
       -0.09004664 0.046133477 0.013157934 0.025416289
0003a0 bc fa b1 bc df 7f e5 bd fa 6f 6b bc 8b 5f 28 3d
       -0.021726005 -0.1120603 -0.014369959 0.041106742
0003b0 dc da c7 3c 71 a6 12 bd 35 9a 6d bc b5 da 8b 3c
       0.024396352 -0.035803262 -0.014502098 0.017072061
0003c0 5d 42 02 bd 3d c4 39 3d c9 91 0a bd aa 99 63 bc
       -0.03180157 0.045353163 -0.033830438 -0.013891617
0003d0 33 e2 57 bd 5c ad 88 bc d8 f1 ef bc aa 3d c7 3c
       -0.052705955 -0.016684227 -0.029290125 0.024321396
0003e0 de ac e4 3c 28 4f 33 bd ac 12 7f bd aa ea 97 bd
       0.02791446 -0.04377666 -0.062273666 -0.074178055
0003f0 a5 7c f6 bc ad ca 2b 3c 0a 2b 83 bd b1 b7 95 3a
       -0.030088732 0.010485333 -0.064046934 0.0011422542

fc.bias f4 [3]
000000 0a da 7f 3c c1 80 82 3d 0d 9b 83 be
       0.015615949 0.06372214 -0.25704232
